…
      resize_type: NEAREST
      data_scale: 1
      src_type: IMAGE
      default_pad_value: 255
      keep_aspect_ratio: false
      use_color_aug: false
    }
    topinfo {
      channels: 4
      width: 470
      height: 470
      src_type: HEATMAP
      value_radius: 7
      ignore_radius: 7
    }
    batch_size: 8
    shuffle: true
    use_distrib: true
    distrib_angle: 0
    distrib_scale: 0
    distrib_x: 0
    distrib_y: 0
    source_splitflag: "||"
    use_flip: true
    coloraug_hsv_h: 0
    use_crop: false
    crop_x: 1
    crop_y: 1
  }
}
layer {
  name: "concatdatalabel"
  type: "Concat"
  bottom: "orgdata"
  bottom: "orgseglabel"
  bottom: "orgpointlabel"
  top: "concatdatalabel"
}
layer {
  name: "cropdatalabel"
  type: "SuperCrop"
  bottom: "concatdatalabel"
  top: "cropdatalabel"
  super_crop_param {
    type: RANDOM
    crop_w: 448
    crop_h: 448
  }
}
layer {
  name: "slice"
  type: "Slice"
  bottom: "cropdatalabel"
  top: "data"
  top: "seglabel"
  top: "clslabel"
  top: "reglabel"
  top: "regmask"
  slice_param {
    slice_point: 3
    slice_point: 4
    slice_point: 5
    slice_point: 7
  }
}
layer {
  name: "conv1"
  type: "Convolution"
  bottom: "data"
  top: "conv1"
  param {
    lr_mult: 1
    decay_mult: 1
  }
  convolution_param {
    num_output: 24
    bias_term: false
    pad: 1
    kernel_size: 3
    stride: 2
    weight_filler {
      type: "msra"
    }
  }
}
layer {
  name: "conv1/bn"
  type: "CuDNNBatchNorm"
  bottom: "conv1"
  top: "conv1/bn"
  param {
    lr_mult: 1
    decay_mult: 0
  }
  param {
    lr_mult: 1
    decay_mult: 0
  }
  param {
    lr_mult: 0
    decay_mult: 0
  }
  param {
    lr_mult: 0
    decay_mult: 0
  }
  batch_norm_param {
    frozen: false
    momentum: 0.95
    scale_filler {
      type: "constant"
      value: 1
    }
    bias_filler {
      type: "constant"
      value: 0
    }
  }
}
layer {
  name: "conv1/relu"
  type: "ReLU"
  bottom: "conv1/bn"
  top: "conv1/bn"
}
layer {
  name: "pool1"
  type: "Pooling"
  bottom: "conv1/bn"
  top: "pool1"
  pooling_param {
    pool: MAX
    kernel_size: 3
    stride: 2
  }
}
layer {
  name: "conv1_1/branch1_dwconv1"
  type: "DepthwiseConvolution"
  bottom: "pool1"
  top: "conv1_1/branch1_dwconv1"
  param {
    lr_mult: 1
    decay_mult: 1
  }
  convolution_param {
    num_output: 24
    bias_term: false
    pad: 1
    kernel_size: 3
    group: 24
    stride: 2
    weight_filler {
      type: "msra"
    }
  }
}
layer {
  name: "conv1_1/branch1_dwconv1/bn"
  type: "CuDNNBatchNorm"
  bottom: "conv1_1/branch1_dwconv1"
  top: "conv1_1/branch1_dwconv1/bn"
  param {
    lr_mult: 1
    decay_mult: 0
  }
  param {
    lr_mult: 1
    decay_mult: 0
  }
  param {
    lr_mult: 0
    decay_mult: 0
  }
  param {
    lr_mult: 0
    decay_mult: 0
  }
  batch_norm_param {
    frozen: false
    momentum: 0.95
    scale_filler {
      type: "constant"
      value: 1
    }
    bias_filler {
      type: "constant"
      value: 0
    }
  }
}
layer {
  name: "conv1_1/branch1_conv2"
  type: "Convolution"
  bottom: "conv1_1/branch1_dwconv1/bn"
  top: "conv1_1/branch1_conv2"
  param {
    lr_mult: 1
    decay_mult: 1
  }
  convolution_param {
    num_output: 58
    bias_term: false
    pad: 0
    kernel_size: 1
    stride: 1
    weight_filler {
      type: "msra"
    }
  }
}
layer {
  name: "conv1_1/branch1_conv2/bn"
  type: "CuDNNBatchNorm"
  bottom: "conv1_1/branch1_conv2"
  top: "conv1_1/branch1_conv2/bn"
  param {
    lr_mult: 1
    decay_mult: 0
  }
  param {
    lr_mult: 1
    decay_mult: 0
  }
  param {
    lr_mult: 0
    decay_mult: 0
  }
  param {
    lr_mult: 0
    decay_mult: 0
  }
  batch_norm_param {
    frozen: false
    momentum: 0.95
    scale_filler {
      type: "constant"
      value: 1
    }
    bias_filler {
      type: "constant"
      value: 0
    }
  }
}
layer {
  name: "conv1_1/branch1_conv2/relu"
  type: "ReLU"
  bottom: "conv1_1/branch1_conv2/bn"
  top: "conv1_1/branch1_conv2/bn"
}
layer {
  name: "conv1_1/brach2_conv1"
  type: "Convolution"
  bottom: "pool1"
  top: "conv1_1/brach2_conv1"
  param {
    lr_mult: 1
    decay_mult: 1
  }
  convolution_param {
    num_output: 24
    bias_term: false
    pad: 0
    kernel_size: 1
    stride: 1
    weight_filler {
      type: "msra"
    }
  }
}
layer {
  name: "conv1_1/brach2_conv1/bn"
  type: "CuDNNBatchNorm"
  bottom: "conv1_1/brach2_conv1"
  top: "conv1_1/brach2_conv1/bn"
  param {
    lr_mult: 1
    decay_mult: 0
  }
  param {
    lr_mult: 1
    decay_mult: 0
  }
  param {
    lr_mult: 0
    decay_mult: 0
  }
  param {
    lr_mult: 0
    decay_mult: 0
  }
  batch_norm_param {
    frozen: false
    momentum: 0.95
    scale_filler {
      type: "constant"
      value: 1
    }
    bias_filler {
      type: "constant"
      value: 0
    }
  }
}
layer {
  name: "conv1_1/brach2_conv1/relu"
  type: "ReLU"
  bottom: "conv1_1/brach2_conv1/bn"
  top: "conv1_1/brach2_conv1/bn"
}
layer {
  name: "conv1_1/brach2_dwconv2"
  type: "DepthwiseConvolution"
  bottom: "conv1_1/brach2_conv1/bn"
  top: "conv1_1/brach2_dwconv2"
  param {
    lr_mult: 1
    decay_mult: 1
  }
  convolution_param {
    num_output: 24
    bias_term: false
    pad: 1
    kernel_size: 3
    group: 24
    stride: 2
    weight_filler {
      type: "msra"
    }
  }
}
layer {
  name: "conv1_1/brach2_dwconv2/bn"
  type: "CuDNNBatchNorm"
  bottom: "conv1_1/brach2_dwconv2"
  top: "conv1_1/brach2_dwconv2/bn"
  param {
    lr_mult: 1
    decay_mult: 0
  }
  param {
    lr_mult: 1
    decay_mult: 0
  }
  param {
    lr_mult: 0
    decay_mult: 0
  }
  param {
    lr_mult: 0
    decay_mult: 0
  }
  batch_norm_param {
    frozen: false
    momentum: 0.95
    scale_filler {
      type: "constant"
      value: 1
    }
    bias_filler {
      type: "constant"
      value: 0
    }
  }
}
layer {
  name: "conv1_1/brach2_conv3"
  type: "Convolution"
  bottom: "conv1_1/brach2_dwconv2/bn"
  top: "conv1_1/brach2_conv3"
  param {
    lr_mult: 1
    decay_mult: 1
  }
  convolution_param {
    num_output: 58
    bias_term: false
    pad: 0
    kernel_size: 1
    stride: 1
    weight_filler {
      type: "msra"
    }
  }
}
layer {
  name: "conv1_1/brach2_conv3/bn"
  type: "CuDNNBatchNorm"
  bottom: "conv1_1/brach2_conv3"
  top: "conv1_1/brach2_conv3/bn"
  param {
    lr_mult: 1
    decay_mult: 0
  }
  param {
    lr_mult: 1
    decay_mult: 0
  }
  param {
    lr_mult: 0
    decay_mult: 0
  }
  param {
    lr_mult: 0
    decay_mult: 0
  }
  batch_norm_param {
    frozen: false
    momentum: 0.95
    scale_filler {
      type: "constant"
      value: 1
    }
    bias_filler {
      type: "constant"
      value: 0
    }
  }
}
layer {
  name: "conv1_1/brach2_conv3/relu"
  type: "ReLU"
  bottom: "conv1_1/brach2_conv3/bn"
  top: "conv1_1/brach2_conv3/bn"
}
layer {
  name: "conv1_1/concat"
  type: "Concat"
  bottom: "conv1_1/branch1_conv2/bn"
  bottom: "conv1_1/brach2_conv3/bn"
  top: "conv1_1/concat"
}
layer {
  name: "conv1_1"
  type: "ShuffleChannel"
  bottom: "conv1_1/concat"
  top: "conv1_1"
  shuffle_channel_param {
    group: 2
  }
}
layer {
  name: "conv1_1/SE_global_pool"
  type: "Pooling"
  bottom: "conv1_1"
  top: "conv1_1/SE_global_pool"
  pooling_param {
    pool: AVE
    engine: CAFFE
    global_pooling: true
  }
}
layer {
  name: "conv1_1/SE_fc1"
  type: "Convolution"
  bottom: "conv1_1/SE_global_pool"
  top: "conv1_1/SE_fc1"
  param {
    lr_mult: 1
    decay_mult: 1
  }
  convolution_param {
    num_output: 29
    bias_term: false
    pad: 0
    kernel_size: 1
    stride: 1
    weight_filler {
      type: "gaussian"
      std: 0.01
    }
  }
}
layer {
  name: "conv1_1/SE_fc1/relu"
  type: "ReLU"
  bottom: "conv1_1/SE_fc1"
  top: "conv1_1/SE_fc1"
}
layer {
  name: "conv1_1/SE_fc2"
  type: "Convolution"
  bottom: "conv1_1/SE_fc1"
  top: "conv1_1/SE_fc2"
  param {
    lr_mult: 1
    decay_mult: 1
  }
  convolution_param {
    num_output: 116
    bias_term: false
    pad: 0
    kernel_size: 1
    stride: 1
    weight_filler {
      type: "gaussian"
      std: 0.01
    }
  }
}
layer {
  name: "conv1_1/SE_weights"
  type: "Sigmoid"
  bottom: "conv1_1/SE_fc2"
  top: "conv1_1/SE_fc2"
}
layer {
  name: "conv1_1/SE_weights/reshape"
  type: "Reshape"
  bottom: "conv1_1/SE_fc2"
  top: "conv1_1/SE_weights/reshape"
  reshape_param {
    shape {
      dim: 0
      dim: 0
    }
  }
}
layer {
  name: "conv1_1/scale"
  type: "Scale"
  bottom: "conv1_1"
  bottom: "conv1_1/SE_weights/reshape"
  top: "conv1_1/scale"
  scale_param {
    axis: 0
    bias_term: false
  }
}
layer {
  name: "conv1_2/slice"
  type: "Slice"
  bottom: "conv1_1/scale"
  top: "conv1_2/split1"
  top: "conv1_2/split2"
  slice_param {
    slice_point: 58
  }
}
layer {
  name: "conv1_2/conv1"
  type: "Convolution"
  bottom: "conv1_2/split2"
  top: "conv1_2/conv1"
  param {
    lr_mult: 1
    decay_mult: 1
  }
  convolution_param {
    num_output: 58
    bias_term: false
    pad: 0
    kernel_size: 1
    stride: 1
    weight_filler {
      type: "msra"
    }
  }
}
layer {
  name: "conv1_2/conv1/bn"
  type: "CuDNNBatchNorm"
  bottom: "conv1_2/conv1"
  top: "conv1_2/conv1/bn"
  param {
    lr_mult: 1
    decay_mult: 0
  }
  param {
    lr_mult: 1
    decay_mult: 0
  }
  param {
    lr_mult: 0
    decay_mult: 0
  }
  param {
    lr_mult: 0
    decay_mult: 0
  }
  batch_norm_param {
    frozen: false
    momentum: 0.95
    scale_filler {
      type: "constant"
      value: 1
    }
    bias_filler {
      type: "constant"
      value: 0
    }
  }
}
layer {
  name: "conv1_2/conv1/relu"
  type: "ReLU"
  bottom: "conv1_2/conv1/bn"
  top: "conv1_2/conv1/bn"
}
layer {
  name: "conv1_2/dwconv2"
  type: "DepthwiseConvolution"
  bottom: "conv1_2/conv1/bn"
  top: "conv1_2/dwconv2"
  param {
    lr_mult: 1
    decay_mult: 1
  }
  convolution_param {
    num_output: 58
    bias_term: false
    pad: 1
    kernel_size: 3
    group: 58
    stride: 1
    weight_filler {
      type: "msra"
    }
  }
}
layer {
  name: "conv1_2/dwconv2/bn"
  type: "CuDNNBatchNorm"
  bottom: "conv1_2/dwconv2"
  top: "conv1_2/dwconv2/bn"
  param {
    lr_mult: 1
    decay_mult: 0
  }
  param {
    lr_mult: 1
    decay_mult: 0
  }
  param {
    lr_mult: 0
    decay_mult: 0
  }
  param {
    lr_mult: 0
    decay_mult: 0
  }
  batch_norm_param {
    frozen: false
    momentum: 0.95
    scale_filler {
      type: "constant"
      value: 1
    }
    bias_filler {
      type: "constant"
      value: 0
    }
  }
}
layer {
  name: "conv1_2/conv3"
  type: "Convolution"
  bottom: "conv1_2/dwconv2/bn"
  top: "conv1_2/conv3"
  param {
    lr_mult: 1
    decay_mult: 1
  }
  convolution_param {
    num_output: 58
    bias_term: false
    pad: 0
    kernel_size: 1
    stride: 1
    weight_filler {
      type: "msra"
    }
  }
}
layer {
  name: "conv1_2/conv3/bn"
  type: "CuDNNBatchNorm"
  bottom: "conv1_2/conv3"
  top: "conv1_2/conv3/bn"
  param {
    lr_mult: 1
    decay_mult: 0
  }
  param {
    lr_mult: 1
    decay_mult: 0
  }
  param {
    lr_mult: 0
    decay_mult: 0
  }
  param {
    lr_mult: 0
    decay_mult: 0
  }
  batch_norm_param {
    frozen: false
    momentum: 0.95
    scale_filler {
      type: "constant"
      value: 1
    }
    bias_filler {
      type: "constant"
      value: 0
    }
  }
}
layer {
  name: "conv1_2/conv3/relu"
  type: "ReLU"
  bottom: "conv1_2/conv3/bn"
  top: "conv1_2/conv3/bn"
}
layer {
  name: "conv1_2/concat"
  type: "Concat"
  bottom: "conv1_2/split1"
  bottom: "conv1_2/conv3/bn"
  top: "conv1_2/concat"
}
layer {
  name: "conv1_2"
  type: "ShuffleChannel"
  bottom: "conv1_2/concat"
  top: "conv1_2"
  shuffle_channel_param {
    group: 2
  }
}
layer {
  name: "conv1_2/SE_global_pool"
  type: "Pooling"
  bottom: "conv1_2"
  top: "conv1_2/SE_global_pool"
  pooling_param {
    pool: AVE
    engine: CAFFE
    global_pooling: true
  }
}
layer {
  name: "conv1_2/SE_fc1"
  type: "Convolution"
  bottom: "conv1_2/SE_global_pool"
  top: "conv1_2/SE_fc1"
  param {
    lr_mult: 1
    decay_mult: 1
  }
  convolution_param {
    num_output: 29
    bias_term: false
    pad: 0
    kernel_size: 1
    stride: 1
    weight_filler {
      type: "gaussian"
      std: 0.01
    }
  }
}
layer {
  name: "conv1_2/SE_fc1/relu"
  type: "ReLU"
  bottom: "conv1_2/SE_fc1"
  top: "conv1_2/SE_fc1"
}
layer {
  name: "conv1_2/SE_fc2"
  type: "Convolution"
  bottom: "conv1_2/SE_fc1"
  top: "conv1_2/SE_fc2"
  param {
    lr_mult: 1
    decay_mult: 1
  }
  convolution_param {
    num_output: 116
    bias_term: false
    pad: 0
    kernel_size: 1
    stride: 1
    weight_filler {
      type: "gaussian"
      std: 0.01
    }
  }
}
layer {
  name: "conv1_2/SE_weights"
  type: "Sigmoid"
  bottom: "conv1_2/SE_fc2"
  top: "conv1_2/SE_fc2"
}
layer {
  name: "conv1_2/SE_weights/reshape"
  type: "Reshape"
  bottom: "conv1_2/SE_fc2"
  top: "conv1_2/SE_weights/reshape"
  reshape_param {
    shape {
      dim: 0
      dim: 0
    }
  }
}
layer {
  name: "conv1_2/scale"
  type: "Scale"
  bottom: "conv1_2"
  bottom: "conv1_2/SE_weights/reshape"
  top: "conv1_2/scale"
  scale_param {
    axis: 0
    bias_term: false
  }
}
layer {
  name: "conv1_3/slice"
  type: "Slice"
  bottom: "conv1_2/scale"
  top: "conv1_3/split1"
  top: "conv1_3/split2"
  slice_param {
    slice_point: 58
  }
}
layer {
  name: "conv1_3/conv1"
  type: "Convolution"
  bottom: "conv1_3/split2"
  top: "conv1_3/conv1"
  param {
    lr_mult: 1
    decay_mult: 1
  }
  convolution_param {
    num_output: 58
    bias_term: false
    pad: 0
    kernel_size: 1
    stride: 1
    weight_filler {
      type: "msra"
    }
  }
}
layer {
  name: "conv1_3/conv1/bn"
  type: "CuDNNBatchNorm"
  bottom: "conv1_3/conv1"
  top: "conv1_3/conv1/bn"
  param {
    lr_mult: 1
    decay_mult: 0
  }
  param {
    lr_mult: 1
    decay_mult: 0
  }
  param {
    lr_mult: 0
    decay_mult: 0
  }
  param {
    lr_mult: 0
    decay_mult: 0
  }
  batch_norm_param {
    frozen: false
    momentum: 0.95
    scale_filler {
      type: "constant"
      value: 1
    }
    bias_filler {
      type: "constant"
      value: 0
    }
  }
}
layer {
  name: "conv1_3/conv1/relu"
  type: "ReLU"
  bottom: "conv1_3/conv1/bn"
  top: "conv1_3/conv1/bn"
}
layer {
  name: "conv1_3/dwconv2"
  type: "DepthwiseConvolution"
  bottom: "conv1_3/conv1/bn"
  top: "conv1_3/dwconv2"
  param {
    lr_mult: 1
    decay_mult: 1
  }
  convolution_param {
    num_output: 58
    bias_term: false
    pad: 1
    kernel_size: 3
    group: 58
    stride: 1
    weight_filler {
      type: "msra"
    }
  }
}
layer {
  name: "conv1_3/dwconv2/bn"
  type: "CuDNNBatchNorm"
  bottom: "conv1_3/dwconv2"
  top: "conv1_3/dwconv2/bn"
  param {
    lr_mult: 1
    decay_mult: 0
  }
  param {
    lr_mult: 1
    decay_mult: 0
  }
  param {
    lr_mult: 0
    decay_mult: 0
  }
  param {
    lr_mult: 0
    decay_mult: 0
  }
  batch_norm_param {
    frozen: false
    momentum: 0.95
    scale_filler {
      type: "constant"
      value: 1
    }
    bias_filler {
      type: "constant"
      value: 0
    }
  }
}
layer {
  name: "conv1_3/conv3"
  type: "Convolution"
  bottom: "conv1_3/dwconv2/bn"
  top: "conv1_3/conv3"
  param {
    lr_mult: 1
    decay_mult: 1
  }
  convolution_param {
    num_output: 58
    bias_term: false
    pad: 0
    kernel_size: 1
    stride: 1
    weight_filler {
      type: "msra"
    }
  }
}
layer {
  name: "conv1_3/conv3/bn"
  type: "CuDNNBatchNorm"
  bottom: "conv1_3/conv3"
  top: "conv1_3/conv3/bn"
  param {
    lr_mult: 1
    decay_mult: 0
  }
  param {
    lr_mult: 1
    decay_mult: 0
  }
  param {
    lr_mult: 0
    decay_mult: 0
  }
  param {
    lr_mult: 0
    decay_mult: 0
  }
  batch_norm_param {
    frozen: false
    momentum: 0.95
    scale_filler {
      type: "constant"
      value: 1
    }
    bias_filler {
      type: "constant"
      value: 0
    }
  }
}
layer {
  name: "conv1_3/conv3/relu"
  type: "ReLU"
  bottom: "conv1_3/conv3/bn"
  top: "conv1_3/conv3/bn"
}
layer {
  name: "conv1_3/concat"
  type: "Concat"
  bottom: "conv1_3/split1"
  bottom: "conv1_3/conv3/bn"
  top: "conv1_3/concat"
}
layer {
  name: "conv1_3"
  type: "ShuffleChannel"
  bottom: "conv1_3/concat"
  top: "conv1_3"
  shuffle_channel_param {
    group: 2
  }
}
layer {
  name: "conv1_3/SE_global_pool"
  type: "Pooling"
  bottom: "conv1_3"
  top: "conv1_3/SE_global_pool"
  pooling_param {
    pool: AVE
    engine: CAFFE
    global_pooling: true
  }
}
layer {
  name: "conv1_3/SE_fc1"
  type: "Convolution"
  bottom: "conv1_3/SE_global_pool"
  top: "conv1_3/SE_fc1"
  param {
    lr_mult: 1
    decay_mult: 1
  }
  convolution_param {
    num_output: 29
    bias_term: false
    pad: 0
    kernel_size: 1
    stride: 1
    weight_filler {
      type: "gaussian"
      std: 0.01
    }
  }
}
layer {
  name: "conv1_3/SE_fc1/relu"
  type: "ReLU"
  bottom: "conv1_3/SE_fc1"
  top: "conv1_3/SE_fc1"
}
layer {
  name: "conv1_3/SE_fc2"
  type: "Convolution"
  bottom: "conv1_3/SE_fc1"
  top: "conv1_3/SE_fc2"
  param {
    lr_mult: 1
    decay_mult: 1
  }
  convolution_param {
    num_output: 116
    bias_term: false
    pad: 0
    kernel_size: 1
    stride: 1
    weight_filler {
      type: "gaussian"
      std: 0.01
    }
  }
}
layer {
  name: "conv1_3/SE_weights"
  type: "Sigmoid"
  bottom: "conv1_3/SE_fc2"
  top: "conv1_3/SE_fc2"
}
layer {
  name: "conv1_3/SE_weights/reshape"
  type: "Reshape"
  bottom: "conv1_3/SE_fc2"
  top: "conv1_3/SE_weights/reshape"
  reshape_param {
    shape {
      dim: 0
      dim: 0
    }
  }
}
layer {
  name: "conv1_3/scale"
  type: "Scale"
  bottom: "conv1_3"
  bottom: "conv1_3/SE_weights/reshape"
  top: "conv1_3/scale"
  scale_param {
    axis: 0
    bias_term: false
  }
}
layer {
  name: "conv1_4/slice"
  type: "Slice"
  bottom: "conv1_3/scale"
  top: "conv1_4/split1"
  top: "conv1_4/split2"
  slice_param {
    slice_point: 58
  }
}
layer {
  name: "conv1_4/conv1"
  type: "Convolution"
  bottom: "conv1_4/split2"
  top: "conv1_4/conv1"
  param {
    lr_mult: 1
    decay_mult: 1
  }
  convolution_param {
    num_output: 58
    bias_term: false
    pad: 0
    kernel_size: 1
    stride: 1
    weight_filler {
      type: "msra"
    }
  }
}
layer {
  name: "conv1_4/conv1/bn"
  type: "CuDNNBatchNorm"
  bottom: "conv1_4/conv1"
  top: "conv1_4/conv1/bn"
  param {
    lr_mult: 1
    decay_mult: 0
  }
  param {
    lr_mult: 1
    decay_mult: 0
  }
  param {
    lr_mult: 0
    decay_mult: 0
  }
  param {
    lr_mult: 0
    decay_mult: 0
  }
  batch_norm_param {
    frozen: false
    momentum: 0.95
    scale_filler {
      type: "constant"
      value: 1
    }
    bias_filler {
      type: "constant"
      value: 0
    }
  }
}
layer {
  name: "conv1_4/conv1/relu"
  type: "ReLU"
  bottom: "conv1_4/conv1/bn"
  top: "conv1_4/conv1/bn"
}
layer {
  name: "conv1_4/dwconv2"
  type: "DepthwiseConvolution"
  bottom: "conv1_4/conv1/bn"
  top: "conv1_4/dwconv2"
  param {
    lr_mult: 1
    decay_mult: 1
  }
  convolution_param {
    num_output: 58
    bias_term: false
    pad: 1
    kernel_size: 3
    group: 58
    stride: 1
    weight_filler {
      type: "msra"
    }
  }
}
layer {
  name: "conv1_4/dwconv2/bn"
  type: "CuDNNBatchNorm"
  bottom: "conv1_4/dwconv2"
  top: "conv1_4/dwconv2/bn"
  param {
    lr_mult: 1
    decay_mult: 0
  }
  param {
    lr_mult: 1
    decay_mult: 0
  }
  param {
    lr_mult: 0
    decay_mult: 0
  }
  param {
    lr_mult: 0
    decay_mult: 0
  }
  batch_norm_param {
    frozen: false
    momentum: 0.95
    scale_filler {
      type: "constant"
      value: 1
    }
    bias_filler {
      type: "constant"
      value: 0
    }
  }
}
layer {
  name: "conv1_4/conv3"
  type: "Convolution"
  bottom: "conv1_4/dwconv2/bn"
  top: "conv1_4/conv3"
  param {
    lr_mult: 1
    decay_mult: 1
  }
  convolution_param {
    num_output: 58
    bias_term: false
    pad: 0
    kernel_size: 1
    stride: 1
    weight_filler {
      type: "msra"
    }
  }
}
layer {
  name: "conv1_4/conv3/bn"
  type: "CuDNNBatchNorm"
  bottom: "conv1_4/conv3"
  top: "conv1_4/conv3/bn"
  param {
    lr_mult: 1
    decay_mult: 0
  }
  param {
    lr_mult: 1
    decay_mult: 0
  }
  param {
    lr_mult: 0
    decay_mult: 0
  }
  param {
    lr_mult: 0
    decay_mult: 0
  }
  batch_norm_param {
    frozen: false
    momentum: 0.95
    scale_filler {
      type: "constant"
      value: 1
    }
    bias_filler {
      type: "constant"
      value: 0
    }
  }
}
layer {
  name: "conv1_4/conv3/relu"
  type: "ReLU"
  bottom: "conv1_4/conv3/bn"
  top: "conv1_4/conv3/bn"
}
layer {
  name: "conv1_4/concat"
  type: "Concat"
  bottom: "conv1_4/split1"
  bottom: "conv1_4/conv3/bn"
  top: "conv1_4/concat"
}
layer {
  name: "conv1_4"
  type: "ShuffleChannel"
  bottom: "conv1_4/concat"
  top: "conv1_4"
  shuffle_channel_param {
    group: 2
  }
}
layer {
  name: "conv1_4/SE_global_pool"
  type: "Pooling"
  bottom: "conv1_4"
  top: "conv1_4/SE_global_pool"
  pooling_param {
    pool: AVE
    engine: CAFFE
    global_pooling: true
  }
}
layer {
  name: "conv1_4/SE_fc1"
  type: "Convolution"
  bottom: "conv1_4/SE_global_pool"
  top: "conv1_4/SE_fc1"
  param {
    lr_mult: 1
    decay_mult: 1
  }
  convolution_param {
    num_output: 29
    bias_term: false
    pad: 0
    kernel_size: 1
    stride: 1
    weight_filler {
      type: "gaussian"
      std: 0.01
    }
  }
}
layer {
  name: "conv1_4/SE_fc1/relu"
  type: "ReLU"
  bottom: "conv1_4/SE_fc1"
  top: "conv1_4/SE_fc1"
}
layer {
  name: "conv1_4/SE_fc2"
  type: "Convolution"
  bottom: "conv1_4/SE_fc1"
  top: "conv1_4/SE_fc2"
  param {
    lr_mult: 1
    decay_mult: 1
  }
  convolution_param {
    num_output: 116
    bias_term: false
    pad: 0
    kernel_size: 1
    stride: 1
    weight_filler {
      type: "gaussian"
      std: 0.01
    }
  }
}
layer {
  name: "conv1_4/SE_weights"
  type: "Sigmoid"
  bottom: "conv1_4/SE_fc2"
  top: "conv1_4/SE_fc2"
}
layer {
  name: "conv1_4/SE_weights/reshape"
  type: "Reshape"
  bottom: "conv1_4/SE_fc2"
  top: "conv1_4/SE_weights/reshape"
  reshape_param {
    shape {
      dim: 0
      dim: 0
    }
  }
}
layer {
  name: "conv1_4/scale"
  type: "Scale"
  bottom: "conv1_4"
  bottom: "conv1_4/SE_weights/reshape"
  top: "conv1_4/scale"
  scale_param {
    axis: 0
    bias_term: false
  }
}
layer {
  name: "conv2"
  type: "Convolution"
  bottom: "conv1_4/scale"
  top: "conv2"
  param {
    lr_mult: 1
    decay_mult: 1
  }
  convolution_param {
    num_output: 24
    bias_term: false
    pad: 1
    kernel_size: 3
    stride: 1
    weight_filler {
      type: "msra"
    }
  }
}
layer {
  name: "conv2/bn"
  type: "CuDNNBatchNorm"
  bottom: "conv2"
  top: "conv2/bn"
  param {
    lr_mult: 1
    decay_mult: 0
  }
  param {
    lr_mult: 1
    decay_mult: 0
  }
  param {
    lr_mult: 0
    decay_mult: 0
  }
  param {
    lr_mult: 0
    decay_mult: 0
  }
  batch_norm_param {
    frozen: false
    momentum: 0.95
    scale_filler {
      type: "constant"
      value: 1
    }
    bias_filler {
      type: "constant"
      value: 0
    }
  }
}
layer {
  name: "conv2/relu"
  type: "ReLU"
  bottom: "conv2/bn"
  top: "conv2/bn"
}
layer {
  name: "conv2_1/branch1_dwconv1"
  type: "DepthwiseConvolution"
  bottom: "conv2/bn"
  top: "conv2_1/branch1_dwconv1"
  param {
    lr_mult: 1
    decay_mult: 1
  }
  convolution_param {
    num_output: 24
    bias_term: false
    pad: 1
    kernel_size: 3
    group: 24
    stride: 2
    weight_filler {
      type: "msra"
    }
  }
}
layer {
  name: "conv2_1/branch1_dwconv1/bn"
  type: "CuDNNBatchNorm"
  bottom: "conv2_1/branch1_dwconv1"
  top: "conv2_1/branch1_dwconv1/bn"
  param {
    lr_mult: 1
    decay_mult: 0
  }
  param {
    lr_mult: 1
    decay_mult: 0
  }
  param {
    lr_mult: 0
    decay_mult: 0
  }
  param {
    lr_mult: 0
    decay_mult: 0
  }
  batch_norm_param {
    frozen: false
    momentum: 0.95
    scale_filler {
      type: "constant"
      value: 1
    }
    bias_filler {
      type: "constant"
      value: 0
    }
  }
}
layer {
  name: "conv2_1/branch1_conv2"
  type: "Convolution"
  bottom: "conv2_1/branch1_dwconv1/bn"
  top: "conv2_1/branch1_conv2"
  param {
    lr_mult: 1
    decay_mult: 1
  }
  convolution_param {
    num_output: 58
    bias_term: false
    pad: 0
    kernel_size: 1
    stride: 1
    weight_filler {
      type: "msra"
    }
  }
}
layer {
  name: "conv2_1/branch1_conv2/bn"
  type: "CuDNNBatchNorm"
  bottom: "conv2_1/branch1_conv2"
  top: "conv2_1/branch1_conv2/bn"
  param {
    lr_mult: 1
    decay_mult: 0
  }
  param {
    lr_mult: 1
    decay_mult: 0
  }
  param {
    lr_mult: 0
    decay_mult: 0
  }
  param {
    lr_mult: 0
    decay_mult: 0
  }
  batch_norm_param {
    frozen: false
    momentum: 0.95
    scale_filler {
      type: "constant"
      value: 1
    }
    bias_filler {
      type: "constant"
      value: 0
    }
  }
}
layer {
  name: "conv2_1/branch1_conv2/relu"
  type: "ReLU"
  bottom: "conv2_1/branch1_conv2/bn"
  top: "conv2_1/branch1_conv2/bn"
}
layer {
  name: "conv2_1/brach2_conv1"
  type: "Convolution"
  bottom: "conv2/bn"
  top: "conv2_1/brach2_conv1"
  param {
    lr_mult: 1
    decay_mult: 1
  }
  convolution_param {
    num_output: 24
    bias_term: false
    pad: 0
    kernel_size: 1
    stride: 1
    weight_filler {
      type: "msra"
    }
  }
}
layer {
  name: "conv2_1/brach2_conv1/bn"
  type: "CuDNNBatchNorm"
  bottom: "conv2_1/brach2_conv1"
  top: "conv2_1/brach2_conv1/bn"
  param {
    lr_mult: 1
    decay_mult: 0
  }
  param {
    lr_mult: 1
    decay_mult: 0
  }
  param {
    lr_mult: 0
    decay_mult: 0
  }
  param {
    lr_mult: 0
    decay_mult: 0
  }
  batch_norm_param {
    frozen: false
    momentum: 0.95
    scale_filler {
      type: "constant"
      value: 1
    }
    bias_filler {
      type: "constant"
      value: 0
    }
  }
}
layer {
  name: "conv2_1/brach2_conv1/relu"
  type: "ReLU"
  bottom: "conv2_1/brach2_conv1/bn"
  top: "conv2_1/brach2_conv1/bn"
}
layer {
  name: "conv2_1/brach2_dwconv2"
  type: "DepthwiseConvolution"
  bottom: "conv2_1/brach2_conv1/bn"
  top: "conv2_1/brach2_dwconv2"
  param {
    lr_mult: 1
    decay_mult: 1
  }
  convolution_param {
    num_output: 24
    bias_term: false
    pad: 1
    kernel_size: 3
    group: 24
    stride: 2
    weight_filler {
      type: "msra"
    }
  }
}
layer {
  name: "conv2_1/brach2_dwconv2/bn"
  type: "CuDNNBatchNorm"
  bottom: "conv2_1/brach2_dwconv2"
  top: "conv2_1/brach2_dwconv2/bn"
  param {
    lr_mult: 1
    decay_mult: 0
  }
  param {
    lr_mult: 1
    decay_mult: 0
  }
  param {
    lr_mult: 0
    decay_mult: 0
  }
  param {
    lr_mult: 0
    decay_mult: 0
  }
  batch_norm_param {
    frozen: false
    momentum: 0.95
    scale_filler {
      type: "constant"
      value: 1
    }
    bias_filler {
      type: "constant"
      value: 0
    }
  }
}
layer {
  name: "conv2_1/brach2_conv3"
  type: "Convolution"
  bottom: "conv2_1/brach2_dwconv2/bn"
  top: "conv2_1/brach2_conv3"
  param {
    lr_mult: 1
    decay_mult: 1
  }
  convolution_param {
    num_output: 58
    bias_term: false
    pad: 0
    kernel_size: 1
    stride: 1
    weight_filler {
      type: "msra"
    }
  }
}
layer {
  name: "conv2_1/brach2_conv3/bn"
  type: "CuDNNBatchNorm"
  bottom: "conv2_1/brach2_conv3"
  top: "conv2_1/brach2_conv3/bn"
  param {
    lr_mult: 1
    decay_mult: 0
  }
  param {
    lr_mult: 1
    decay_mult: 0
  }
  param {
    lr_mult: 0
    decay_mult: 0
  }
  param {
    lr_mult: 0
    decay_mult: 0
  }
  batch_norm_param {
    frozen: false
    momentum: 0.95
    scale_filler {
      type: "constant"
      value: 1
    }
    bias_filler {
      type: "constant"
      value: 0
    }
  }
}
layer {
  name: "conv2_1/brach2_conv3/relu"
  type: "ReLU"
  bottom: "conv2_1/brach2_conv3/bn"
  top: "conv2_1/brach2_conv3/bn"
}
layer {
  name: "conv2_1/concat"
  type: "Concat"
  bottom: "conv2_1/branch1_conv2/bn"
  bottom: "conv2_1/brach2_conv3/bn"
  top: "conv2_1/concat"
}
layer {
  name: "conv2_1"
  type: "ShuffleChannel"
  bottom: "conv2_1/concat"
  top: "conv2_1"
  shuffle_channel_param {
    group: 2
  }
}
layer {
  name: "conv2_1/SE_global_pool"
  type: "Pooling"
  bottom: "conv2_1"
  top: "conv2_1/SE_global_pool"
  pooling_param {
    pool: AVE
    engine: CAFFE
    global_pooling: true
  }
}
layer {
  name: "conv2_1/SE_fc1"
  type: "Convolution"
  bottom: "conv2_1/SE_global_pool"
  top: "conv2_1/SE_fc1"
  param {
    lr_mult: 1
    decay_mult: 1
  }
  convolution_param {
    num_output: 29
    bias_term: false
    pad: 0
    kernel_size: 1
    stride: 1
    weight_filler {
      type: "gaussian"
      std: 0.01
    }
  }
}
layer {
  name: "conv2_1/SE_fc1/relu"
  type: "ReLU"
  bottom: "conv2_1/SE_fc1"
  top: "conv2_1/SE_fc1"
}
layer {
  name: "conv2_1/SE_fc2"
  type: "Convolution"
  bottom: "conv2_1/SE_fc1"
  top: "conv2_1/SE_fc2"
  param {
    lr_mult: 1
    decay_mult: 1
  }
  convolution_param {
    num_output: 116
    bias_term: false
    pad: 0
    kernel_size: 1
    stride: 1
    weight_filler {
      type: "gaussian"
      std: 0.01
    }
  }
}
layer {
  name: "conv2_1/SE_weights"
  type: "Sigmoid"
  bottom: "conv2_1/SE_fc2"
  top: "conv2_1/SE_fc2"
}
layer {
  name: "conv2_1/SE_weights/reshape"
  type: "Reshape"
  bottom: "conv2_1/SE_fc2"
  top: "conv2_1/SE_weights/reshape"
  reshape_param {
    shape {
      dim: 0
      dim: 0
    }
  }
}
layer {
  name: "conv2_1/scale"
  type: "Scale"
  bottom: "conv2
I0717 15:03:46.694697  6447 layer_factory.hpp:76] Creating layer data
I0717 15:03:46.694754  6447 net.cpp:144] Creating Layer data
I0717 15:03:46.695349  6447 net.cpp:462] data -> orgdata
I0717 15:03:46.695389  6447 net.cpp:462] data -> orgseglabel
I0717 15:03:46.695400  6447 net.cpp:462] data -> orgpointlabel
I0717 15:03:46.695494  6447 segment_data_layer.cpp:169] output data #0 size: 8,3,470,470
I0717 15:03:46.695544  6447 segment_data_layer.cpp:169] output data #1 size: 8,1,470,470
I0717 15:03:46.695590  6447 segment_data_layer.cpp:169] output data #2 size: 8,4,470,470
I0717 15:03:46.695593  6447 segment_data_layer.cpp:176] opening file: /share2/public/freespace_data/parking_mark/train.txt
I0717 15:03:46.972877  6447 segment_data_layer.cpp:187] A total of 333964 samples.
I0717 15:03:47.121436  6447 net.cpp:216] Setting up data
I0717 15:03:47.121485  6447 net.cpp:222] Top shape: 8 3 470 470 (5301600)
I0717 15:03:47.121492  6447 net.cpp:222] Top shape: 8 1 470 470 (1767200)
I0717 15:03:47.121496  6447 net.cpp:222] Top shape: 8 4 470 470 (7068800)
I0717 15:03:47.121498  6447 net.cpp:228] Memory required for data: 56550400
I0717 15:03:47.121508  6447 layer_factory.hpp:76] Creating layer concatdatalabel
I0717 15:03:47.121526  6447 net.cpp:144] Creating Layer concatdatalabel
I0717 15:03:47.121532  6447 net.cpp:488] concatdatalabel <- orgdata
I0717 15:03:47.121546  6447 net.cpp:488] concatdatalabel <- orgseglabel
I0717 15:03:47.121551  6447 net.cpp:488] concatdatalabel <- orgpointlabel
I0717 15:03:47.121572  6447 net.cpp:177] This layer is inheriting previous layer's sync mode: 1
I0717 15:03:47.121580  6447 net.cpp:462] concatdatalabel -> concatdatalabel
I0717 15:03:47.121657  6447 net.cpp:216] Setting up concatdatalabel
I0717 15:03:47.121665  6447 net.cpp:222] Top shape: 8 8 470 470 (14137600)
I0717 15:03:47.121667  6447 net.cpp:228] Memory required for data: 113100800
I0717 15:03:47.121672  6447 layer_factory.hpp:76] Creating layer cropdatalabel
I0717 15:03:47.121682  6447 net.cpp:144] Creating Layer cropdatalabel
I0717 15:03:47.121685  6447 net.cpp:488] cropdatalabel <- concatdatalabel
I0717 15:03:47.121688  6447 net.cpp:177] This layer is inheriting previous layer's sync mode: 1
I0717 15:03:47.121693  6447 net.cpp:462] cropdatalabel -> cropdatalabel
I0717 15:03:47.121723  6447 net.cpp:216] Setting up cropdatalabel
I0717 15:03:47.121729  6447 net.cpp:222] Top shape: 8 8 448 448 (12845056)
I0717 15:03:47.121732  6447 net.cpp:228] Memory required for data: 164481024
I0717 15:03:47.121734  6447 layer_factory.hpp:76] Creating layer slice
I0717 15:03:47.121742  6447 net.cpp:144] Creating Layer slice
I0717 15:03:47.121745  6447 net.cpp:488] slice <- cropdatalabel
I0717 15:03:47.121748  6447 net.cpp:177] This layer is inheriting previous layer's sync mode: 1
I0717 15:03:47.121754  6447 net.cpp:462] slice -> data
I0717 15:03:47.121762  6447 net.cpp:462] slice -> seglabel
I0717 15:03:47.121765  6447 net.cpp:462] slice -> clslabel
I0717 15:03:47.121773  6447 net.cpp:462] slice -> reglabel
I0717 15:03:47.121778  6447 net.cpp:462] slice -> regmask
I0717 15:03:47.122136  6447 net.cpp:216] Setting up slice
I0717 15:03:47.122145  6447 net.cpp:222] Top shape: 8 3 448 448 (4816896)
I0717 15:03:47.122148  6447 net.cpp:222] Top shape: 8 1 448 448 (1605632)
I0717 15:03:47.122169  6447 net.cpp:222] Top shape: 8 1 448 448 (1605632)
I0717 15:03:47.122172  6447 net.cpp:222] Top shape: 8 2 448 448 (3211264)
I0717 15:03:47.122175  6447 net.cpp:222] Top shape: 8 1 448 448 (1605632)
I0717 15:03:47.122179  6447 net.cpp:228] Memory required for data: 215861248
I0717 15:03:47.122180  6447 layer_factory.hpp:76] Creating layer clslabel_slice_2_split
I0717 15:03:47.122191  6447 net.cpp:144] Creating Layer clslabel_slice_2_split
I0717 15:03:47.122195  6447 net.cpp:488] clslabel_slice_2_split <- clslabel
I0717 15:03:47.122197  6447 net.cpp:177] This layer is inheriting previous layer's sync mode: 1
I0717 15:03:47.122201  6447 net.cpp:462] clslabel_slice_2_split -> clslabel_slice_2_split_0
I0717 15:03:47.122208  6447 net.cpp:462] clslabel_slice_2_split -> clslabel_slice_2_split_1
I0717 15:03:47.122249  6447 net.cpp:216] Setting up clslabel_slice_2_split
I0717 15:03:47.122254  6447 net.cpp:222] Top shape: 8 1 448 448 (1605632)
I0717 15:03:47.122258  6447 net.cpp:222] Top shape: 8 1 448 448 (1605632)
I0717 15:03:47.122261  6447 net.cpp:228] Memory required for data: 228706304
I0717 15:03:47.122262  6447 layer_factory.hpp:76] Creating layer conv1
I0717 15:03:47.122279  6447 net.cpp:144] Creating Layer conv1
I0717 15:03:47.122283  6447 net.cpp:488] conv1 <- data
I0717 15:03:47.122287  6447 net.cpp:177] This layer is inheriting previous layer's sync mode: 1
I0717 15:03:47.122294  6447 net.cpp:462] conv1 -> conv1
I0717 15:03:47.124853  6447 net.cpp:216] Setting up conv1
I0717 15:03:47.124878  6447 net.cpp:222] Top shape: 8 24 224 224 (9633792)
I0717 15:03:47.124881  6447 net.cpp:228] Memory required for data: 267241472
I0717 15:03:47.125373  6447 layer_factory.hpp:76] Creating layer conv1/bn
I0717 15:03:47.126075  6447 net.cpp:144] Creating Layer conv1/bn
I0717 15:03:47.126080  6447 net.cpp:488] conv1/bn <- conv1
I0717 15:03:47.126083  6447 net.cpp:177] This layer is inheriting previous layer's sync mode: 1
I0717 15:03:47.126091  6447 net.cpp:462] conv1/bn -> conv1/bn
I0717 15:03:47.126225  6447 cudnn_batch_norm_layer.cpp:84] Using CuDNN BN engine.
I0717 15:03:47.126303  6447 net.cpp:216] Setting up conv1/bn
I0717 15:03:47.126309  6447 net.cpp:222] Top shape: 8 24 224 224 (9633792)
I0717 15:03:47.126312  6447 net.cpp:228] Memory required for data: 305776640
I0717 15:03:47.126323  6447 layer_factory.hpp:76] Creating layer conv1/relu
I0717 15:03:47.126334  6447 net.cpp:144] Creating Layer conv1/relu
I0717 15:03:47.126338  6447 net.cpp:488] conv1/relu <- conv1/bn
I0717 15:03:47.126341  6447 net.cpp:177] This layer is inheriting previous layer's sync mode: 1
I0717 15:03:47.126344  6447 net.cpp:451] conv1/relu -> conv1/bn (in-place)
I0717 15:03:47.126359  6447 net.cpp:216] Setting up conv1/relu
I0717 15:03:47.126363  6447 net.cpp:222] Top shape: 8 24 224 224 (9633792)
I0717 15:03:47.126366  6447 net.cpp:228] Memory required for data: 344311808
I0717 15:03:47.126369  6447 layer_factory.hpp:76] Creating layer pool1
I0717 15:03:47.126379  6447 net.cpp:144] Creating Layer pool1
I0717 15:03:47.126381  6447 net.cpp:488] pool1 <- conv1/bn
I0717 15:03:47.126384  6447 net.cpp:177] This layer is inheriting previous layer's sync mode: 1
I0717 15:03:47.126387  6447 net.cpp:462] pool1 -> pool1
I0717 15:03:47.126435  6447 net.cpp:216] Setting up pool1
I0717 15:03:47.126441  6447 net.cpp:222] Top shape: 8 24 112 112 (2408448)
I0717 15:03:47.126442  6447 net.cpp:228] Memory required for data: 353945600
I0717 15:03:47.126446  6447 layer_factory.hpp:76] Creating layer pool1_pool1_0_split
I0717 15:03:47.126451  6447 net.cpp:144] Creating Layer pool1_pool1_0_split
I0717 15:03:47.126454  6447 net.cpp:488] pool1_pool1_0_split <- pool1
I0717 15:03:47.126457  6447 net.cpp:177] This layer is inheriting previous layer's sync mode: 1
I0717 15:03:47.126461  6447 net.cpp:462] pool1_pool1_0_split -> pool1_pool1_0_split_0
I0717 15:03:47.126467  6447 net.cpp:462] pool1_pool1_0_split -> pool1_pool1_0_split_1
I0717 15:03:47.126499  6447 net.cpp:216] Setting up pool1_pool1_0_split
I0717 15:03:47.126504  6447 net.cpp:222] Top shape: 8 24 112 112 (2408448)
I0717 15:03:47.126508  6447 net.cpp:222] Top shape: 8 24 112 112 (2408448)
I0717 15:03:47.126511  6447 net.cpp:228] Memory required for data: 373213184
I0717 15:03:47.126513  6447 layer_factory.hpp:76] Creating layer conv1_1/branch1_dwconv1
I0717 15:03:47.126524  6447 net.cpp:144] Creating Layer conv1_1/branch1_dwconv1
I0717 15:03:47.126528  6447 net.cpp:488] conv1_1/branch1_dwconv1 <- pool1_pool1_0_split_0
I0717 15:03:47.126533  6447 net.cpp:177] This layer is inheriting previous layer's sync mode: 1
I0717 15:03:47.126535  6447 net.cpp:462] conv1_1/branch1_dwconv1 -> conv1_1/branch1_dwconv1
I0717 15:03:47.126718  6447 net.cpp:216] Setting up conv1_1/branch1_dwconv1
I0717 15:03:47.126724  6447 net.cpp:222] Top shape: 8 24 56 56 (602112)
I0717 15:03:47.126726  6447 net.cpp:228] Memory required for data: 375621632
I0717 15:03:47.126730  6447 layer_factory.hpp:76] Creating layer conv1_1/branch1_dwconv1/bn
I0717 15:03:47.126737  6447 net.cpp:144] Creating Layer conv1_1/branch1_dwconv1/bn
I0717 15:03:47.126740  6447 net.cpp:488] conv1_1/branch1_dwconv1/bn <- conv1_1/branch1_dwconv1
I0717 15:03:47.126745  6447 net.cpp:177] This layer is inheriting previous layer's sync mode: 1
I0717 15:03:47.126749  6447 net.cpp:462] conv1_1/branch1_dwconv1/bn -> conv1_1/branch1_dwconv1/bn
I0717 15:03:47.126852  6447 cudnn_batch_norm_layer.cpp:84] Using CuDNN BN engine.
I0717 15:03:47.126906  6447 net.cpp:216] Setting up conv1_1/branch1_dwconv1/bn
I0717 15:03:47.126912  6447 net.cpp:222] Top shape: 8 24 56 56 (602112)
I0717 15:03:47.126914  6447 net.cpp:228] Memory required for data: 378030080
I0717 15:03:47.126922  6447 layer_factory.hpp:76] Creating layer conv1_1/branch1_conv2
I0717 15:03:47.126930  6447 net.cpp:144] Creating Layer conv1_1/branch1_conv2
I0717 15:03:47.126933  6447 net.cpp:488] conv1_1/branch1_conv2 <- conv1_1/branch1_dwconv1/bn
I0717 15:03:47.126937  6447 net.cpp:177] This layer is inheriting previous layer's sync mode: 1
I0717 15:03:47.126946  6447 net.cpp:462] conv1_1/branch1_conv2 -> conv1_1/branch1_conv2
I0717 15:03:47.128785  6447 net.cpp:216] Setting up conv1_1/branch1_conv2
I0717 15:03:47.128798  6447 net.cpp:222] Top shape: 8 58 56 56 (1455104)
I0717 15:03:47.128800  6447 net.cpp:228] Memory required for data: 383850496
I0717 15:03:47.128823  6447 layer_factory.hpp:76] Creating layer conv1_1/branch1_conv2/bn
I0717 15:03:47.128831  6447 net.cpp:144] Creating Layer conv1_1/branch1_conv2/bn
I0717 15:03:47.128836  6447 net.cpp:488] conv1_1/branch1_conv2/bn <- conv1_1/branch1_conv2
I0717 15:03:47.128839  6447 net.cpp:177] This layer is inheriting previous layer's sync mode: 1
I0717 15:03:47.128844  6447 net.cpp:462] conv1_1/branch1_conv2/bn -> conv1_1/branch1_conv2/bn
I0717 15:03:47.128985  6447 cudnn_batch_norm_layer.cpp:84] Using CuDNN BN engine.
I0717 15:03:47.129040  6447 net.cpp:216] Setting up conv1_1/branch1_conv2/bn
I0717 15:03:47.129046  6447 net.cpp:222] Top shape: 8 58 56 56 (1455104)
I0717 15:03:47.129050  6447 net.cpp:228] Memory required for data: 389670912
I0717 15:03:47.129056  6447 layer_factory.hpp:76] Creating layer conv1_1/branch1_conv2/relu
I0717 15:03:47.129062  6447 net.cpp:144] Creating Layer conv1_1/branch1_conv2/relu
I0717 15:03:47.129065  6447 net.cpp:488] conv1_1/branch1_conv2/relu <- conv1_1/branch1_conv2/bn
I0717 15:03:47.129070  6447 net.cpp:177] This layer is inheriting previous layer's sync mode: 1
I0717 15:03:47.129072  6447 net.cpp:451] conv1_1/branch1_conv2/relu -> conv1_1/branch1_conv2/bn (in-place)
I0717 15:03:47.129078  6447 net.cpp:216] Setting up conv1_1/branch1_conv2/relu
I0717 15:03:47.129081  6447 net.cpp:222] Top shape: 8 58 56 56 (1455104)
I0717 15:03:47.129084  6447 net.cpp:228] Memory required for data: 395491328
I0717 15:03:47.129086  6447 layer_factory.hpp:76] Creating layer conv1_1/brach2_conv1
I0717 15:03:47.129096  6447 net.cpp:144] Creating Layer conv1_1/brach2_conv1
I0717 15:03:47.129099  6447 net.cpp:488] conv1_1/brach2_conv1 <- pool1_pool1_0_split_1
I0717 15:03:47.129102  6447 net.cpp:177] This layer is inheriting previous layer's sync mode: 1
I0717 15:03:47.129106  6447 net.cpp:462] conv1_1/brach2_conv1 -> conv1_1/brach2_conv1
I0717 15:03:47.129336  6447 net.cpp:216] Setting up conv1_1/brach2_conv1
I0717 15:03:47.129344  6447 net.cpp:222] Top shape: 8 24 112 112 (2408448)
I0717 15:03:47.129348  6447 net.cpp:228] Memory required for data: 405125120
I0717 15:03:47.129351  6447 layer_factory.hpp:76] Creating layer conv1_1/brach2_conv1/bn
I0717 15:03:47.129359  6447 net.cpp:144] Creating Layer conv1_1/brach2_conv1/bn
I0717 15:03:47.129361  6447 net.cpp:488] conv1_1/brach2_conv1/bn <- conv1_1/brach2_conv1
I0717 15:03:47.129365  6447 net.cpp:177] This layer is inheriting previous layer's sync mode: 1
I0717 15:03:47.129371  6447 net.cpp:462] conv1_1/brach2_conv1/bn -> conv1_1/brach2_conv1/bn
I0717 15:03:47.129478  6447 cudnn_batch_norm_layer.cpp:84] Using CuDNN BN engine.
I0717 15:03:47.129536  6447 net.cpp:216] Setting up conv1_1/brach2_conv1/bn
I0717 15:03:47.129541  6447 net.cpp:222] Top shape: 8 24 112 112 (2408448)
I0717 15:03:47.129544  6447 net.cpp:228] Memory required for data: 414758912
I0717 15:03:47.129554  6447 layer_factory.hpp:76] Creating layer conv1_1/brach2_conv1/relu
I0717 15:03:47.129559  6447 net.cpp:144] Creating Layer conv1_1/brach2_conv1/relu
I0717 15:03:47.129562  6447 net.cpp:488] conv1_1/brach2_conv1/relu <- conv1_1/brach2_conv1/bn
I0717 15:03:47.129566  6447 net.cpp:177] This layer is inheriting previous layer's sync mode: 1
I0717 15:03:47.129570  6447 net.cpp:451] conv1_1/brach2_conv1/relu -> conv1_1/brach2_conv1/bn (in-place)
I0717 15:03:47.129575  6447 net.cpp:216] Setting up conv1_1/brach2_conv1/relu
I0717 15:03:47.129578  6447 net.cpp:222] Top shape: 8 24 112 112 (2408448)
I0717 15:03:47.129580  6447 net.cpp:228] Memory required for data: 424392704
I0717 15:03:47.129583  6447 layer_factory.hpp:76] Creating layer conv1_1/brach2_dwconv2
I0717 15:03:47.129590  6447 net.cpp:144] Creating Layer conv1_1/brach2_dwconv2
I0717 15:03:47.129593  6447 net.cpp:488] conv1_1/brach2_dwconv2 <- conv1_1/brach2_conv1/bn
I0717 15:03:47.129596  6447 net.cpp:177] This layer is inheriting previous layer's sync mode: 1
I0717 15:03:47.129600  6447 net.cpp:462] conv1_1/brach2_dwconv2 -> conv1_1/brach2_dwconv2
I0717 15:03:47.129776  6447 net.cpp:216] Setting up conv1_1/brach2_dwconv2
I0717 15:03:47.129783  6447 net.cpp:222] Top shape: 8 24 56 56 (602112)
I0717 15:03:47.129786  6447 net.cpp:228] Memory required for data: 426801152
I0717 15:03:47.129789  6447 layer_factory.hpp:76] Creating layer conv1_1/brach2_dwconv2/bn
I0717 15:03:47.129797  6447 net.cpp:144] Creating Layer conv1_1/brach2_dwconv2/bn
I0717 15:03:47.129801  6447 net.cpp:488] conv1_1/brach2_dwconv2/bn <- conv1_1/brach2_dwconv2
I0717 15:03:47.129803  6447 net.cpp:177] This layer is inheriting previous layer's sync mode: 1
I0717 15:03:47.129807  6447 net.cpp:462] conv1_1/brach2_dwconv2/bn -> conv1_1/brach2_dwconv2/bn
I0717 15:03:47.129910  6447 cudnn_batch_norm_layer.cpp:84] Using CuDNN BN engine.
I0717 15:03:47.129987  6447 net.cpp:216] Setting up conv1_1/brach2_dwconv2/bn
I0717 15:03:47.129992  6447 net.cpp:222] Top shape: 8 24 56 56 (602112)
I0717 15:03:47.129994  6447 net.cpp:228] Memory required for data: 429209600
I0717 15:03:47.130002  6447 layer_factory.hpp:76] Creating layer conv1_1/brach2_conv3
I0717 15:03:47.130010  6447 net.cpp:144] Creating Layer conv1_1/brach2_conv3
I0717 15:03:47.130013  6447 net.cpp:488] conv1_1/brach2_conv3 <- conv1_1/brach2_dwconv2/bn
I0717 15:03:47.130017  6447 net.cpp:177] This layer is inheriting previous layer's sync mode: 1
I0717 15:03:47.130023  6447 net.cpp:462] conv1_1/brach2_conv3 -> conv1_1/brach2_conv3
I0717 15:03:47.130266  6447 net.cpp:216] Setting up conv1_1/brach2_conv3
I0717 15:03:47.130275  6447 net.cpp:222] Top shape: 8 58 56 56 (1455104)
I0717 15:03:47.130276  6447 net.cpp:228] Memory required for data: 435030016
I0717 15:03:47.130280  6447 layer_factory.hpp:76] Creating layer conv1_1/brach2_conv3/bn
I0717 15:03:47.130287  6447 net.cpp:144] Creating Layer conv1_1/brach2_conv3/bn
I0717 15:03:47.130290  6447 net.cpp:488] conv1_1/brach2_conv3/bn <- conv1_1/brach2_conv3
I0717 15:03:47.130295  6447 net.cpp:177] This layer is inheriting previous layer's sync mode: 1
I0717 15:03:47.130300  6447 net.cpp:462] conv1_1/brach2_conv3/bn -> conv1_1/brach2_conv3/bn
I0717 15:03:47.130406  6447 cudnn_batch_norm_layer.cpp:84] Using CuDNN BN engine.
I0717 15:03:47.130484  6447 net.cpp:216] Setting up conv1_1/brach2_conv3/bn
I0717 15:03:47.130491  6447 net.cpp:222] Top shape: 8 58 56 56 (1455104)
I0717 15:03:47.130493  6447 net.cpp:228] Memory required for data: 440850432
I0717 15:03:47.130501  6447 layer_factory.hpp:76] Creating layer conv1_1/brach2_conv3/relu
I0717 15:03:47.130507  6447 net.cpp:144] Creating Layer conv1_1/brach2_conv3/relu
I0717 15:03:47.130511  6447 net.cpp:488] conv1_1/brach2_conv3/relu <- conv1_1/brach2_conv3/bn
I0717 15:03:47.130514  6447 net.cpp:177] This layer is inheriting previous layer's sync mode: 1
I0717 15:03:47.130517  6447 net.cpp:451] conv1_1/brach2_conv3/relu -> conv1_1/brach2_conv3/bn (in-place)
I0717 15:03:47.130522  6447 net.cpp:216] Setting up conv1_1/brach2_conv3/relu
I0717 15:03:47.130527  6447 net.cpp:222] Top shape: 8 58 56 56 (1455104)
I0717 15:03:47.130529  6447 net.cpp:228] Memory required for data: 446670848
I0717 15:03:47.130532  6447 layer_factory.hpp:76] Creating layer conv1_1/concat
I0717 15:03:47.130537  6447 net.cpp:144] Creating Layer conv1_1/concat
I0717 15:03:47.130539  6447 net.cpp:488] conv1_1/concat <- conv1_1/branch1_conv2/bn
I0717 15:03:47.130543  6447 net.cpp:488] conv1_1/concat <- conv1_1/brach2_conv3/bn
I0717 15:03:47.130547  6447 net.cpp:177] This layer is inheriting previous layer's sync mode: 1
I0717 15:03:47.130549  6447 net.cpp:462] conv1_1/concat -> conv1_1/concat
I0717 15:03:47.130576  6447 net.cpp:216] Setting up conv1_1/concat
I0717 15:03:47.130581  6447 net.cpp:222] Top shape: 8 116 56 56 (2910208)
I0717 15:03:47.130584  6447 net.cpp:228] Memory required for data: 458311680
I0717 15:03:47.130587  6447 layer_factory.hpp:76] Creating layer conv1_1
I0717 15:03:47.130595  6447 net.cpp:144] Creating Layer conv1_1
I0717 15:03:47.130599  6447 net.cpp:488] conv1_1 <- conv1_1/concat
I0717 15:03:47.130601  6447 net.cpp:177] This layer is inheriting previous layer's sync mode: 1
I0717 15:03:47.130604  6447 net.cpp:462] conv1_1 -> conv1_1
I0717 15:03:47.130662  6447 net.cpp:216] Setting up conv1_1
I0717 15:03:47.130668  6447 net.cpp:222] Top shape: 8 116 56 56 (2910208)
I0717 15:03:47.130671  6447 net.cpp:228] Memory required for data: 469952512
I0717 15:03:47.130673  6447 layer_factory.hpp:76] Creating layer conv1_1_conv1_1_0_split
I0717 15:03:47.130677  6447 net.cpp:144] Creating Layer conv1_1_conv1_1_0_split
I0717 15:03:47.130681  6447 net.cpp:488] conv1_1_conv1_1_0_split <- conv1_1
I0717 15:03:47.130686  6447 net.cpp:177] This layer is inheriting previous layer's sync mode: 1
I0717 15:03:47.130688  6447 net.cpp:462] conv1_1_conv1_1_0_split -> conv1_1_conv1_1_0_split_0
I0717 15:03:47.130693  6447 net.cpp:462] conv1_1_conv1_1_0_split -> conv1_1_conv1_1_0_split_1
I0717 15:03:47.130724  6447 net.cpp:216] Setting up conv1_1_conv1_1_0_split
I0717 15:03:47.130729  6447 net.cpp:222] Top shape: 8 116 56 56 (2910208)
I0717 15:03:47.130733  6447 net.cpp:222] Top shape: 8 116 56 56 (2910208)
I0717 15:03:47.130735  6447 net.cpp:228] Memory required for data: 493234176
I0717 15:03:47.130738  6447 layer_factory.hpp:76] Creating layer conv1_1/SE_global_pool
I0717 15:03:47.130743  6447 net.cpp:144] Creating Layer conv1_1/SE_global_pool
I0717 15:03:47.130745  6447 net.cpp:488] conv1_1/SE_global_pool <- conv1_1_conv1_1_0_split_0
I0717 15:03:47.130748  6447 net.cpp:177] This layer is inheriting previous layer's sync mode: 1
I0717 15:03:47.130754  6447 net.cpp:462] conv1_1/SE_global_pool -> conv1_1/SE_global_pool
I0717 15:03:47.130774  6447 net.cpp:216] Setting up conv1_1/SE_global_pool
I0717 15:03:47.130779  6447 net.cpp:222] Top shape: 8 116 1 1 (928)
I0717 15:03:47.130782  6447 net.cpp:228] Memory required for data: 493237888
I0717 15:03:47.130785  6447 layer_factory.hpp:76] Creating layer conv1_1/SE_fc1
I0717 15:03:47.130794  6447 net.cpp:144] Creating Layer conv1_1/SE_fc1
I0717 15:03:47.130796  6447 net.cpp:488] conv1_1/SE_fc1 <- conv1_1/SE_global_pool
I0717 15:03:47.130800  6447 net.cpp:177] This layer is inheriting previous layer's sync mode: 1
I0717 15:03:47.130803  6447 net.cpp:462] conv1_1/SE_fc1 -> conv1_1/SE_fc1
I0717 15:03:47.131160  6447 net.cpp:216] Setting up conv1_1/SE_fc1
I0717 15:03:47.131168  6447 net.cpp:222] Top shape: 8 29 1 1 (232)
I0717 15:03:47.131171  6447 net.cpp:228] Memory required for data: 493238816
I0717 15:03:47.131193  6447 layer_factory.hpp:76] Creating layer conv1_1/SE_fc1/relu
I0717 15:03:47.131198  6447 net.cpp:144] Creating Layer conv1_1/SE_fc1/relu
I0717 15:03:47.131202  6447 net.cpp:488] conv1_1/SE_fc1/relu <- conv1_1/SE_fc1
I0717 15:03:47.131206  6447 net.cpp:177] This layer is inheriting previous layer's sync mode: 1
I0717 15:03:47.131209  6447 net.cpp:451] conv1_1/SE_fc1/relu -> conv1_1/SE_fc1 (in-place)
I0717 15:03:47.131216  6447 net.cpp:216] Setting up conv1_1/SE_fc1/relu
I0717 15:03:47.131219  6447 net.cpp:222] Top shape: 8 29 1 1 (232)
I0717 15:03:47.131222  6447 net.cpp:228] Memory required for data: 493239744
I0717 15:03:47.131224  6447 layer_factory.hpp:76] Creating layer conv1_1/SE_fc2
I0717 15:03:47.131235  6447 net.cpp:144] Creating Layer conv1_1/SE_fc2
I0717 15:03:47.131239  6447 net.cpp:488] conv1_1/SE_fc2 <- conv1_1/SE_fc1
I0717 15:03:47.131242  6447 net.cpp:177] This layer is inheriting previous layer's sync mode: 1
I0717 15:03:47.131245  6447 net.cpp:462] conv1_1/SE_fc2 -> conv1_1/SE_fc2
I0717 15:03:47.131594  6447 net.cpp:216] Setting up conv1_1/SE_fc2
I0717 15:03:47.131602  6447 net.cpp:222] Top shape: 8 116 1 1 (928)
I0717 15:03:47.131603  6447 net.cpp:228] Memory required for data: 493243456
I0717 15:03:47.131624  6447 layer_factory.hpp:76] Creating layer conv1_1/SE_weights
I0717 15:03:47.131629  6447 net.cpp:144] Creating Layer conv1_1/SE_weights
I0717 15:03:47.131633  6447 net.cpp:488] conv1_1/SE_weights <- conv1_1/SE_fc2
I0717 15:03:47.131636  6447 net.cpp:177] This layer is inheriting previous layer's sync mode: 1
I0717 15:03:47.131639  6447 net.cpp:451] conv1_1/SE_weights -> conv1_1/SE_fc2 (in-place)
I0717 15:03:47.131649  6447 net.cpp:216] Setting up conv1_1/SE_weights
I0717 15:03:47.131652  6447 net.cpp:222] Top shape: 8 116 1 1 (928)
I0717 15:03:47.131655  6447 net.cpp:228] Memory required for data: 493247168
I0717 15:03:47.131657  6447 layer_factory.hpp:76] Creating layer conv1_1/SE_weights/reshape
I0717 15:03:47.131666  6447 net.cpp:144] Creating Layer conv1_1/SE_weights/reshape
I0717 15:03:47.131669  6447 net.cpp:488] conv1_1/SE_weights/reshape <- conv1_1/SE_fc2
I0717 15:03:47.131672  6447 net.cpp:177] This layer is inheriting previous layer's sync mode: 1
I0717 15:03:47.131678  6447 net.cpp:462] conv1_1/SE_weights/reshape -> conv1_1/SE_weights/reshape
I0717 15:03:47.131714  6447 net.cpp:216] Setting up conv1_1/SE_weights/reshape
I0717 15:03:47.131719  6447 net.cpp:222] Top shape: 8 116 (928)
I0717 15:03:47.131722  6447 net.cpp:228] Memory required for data: 493250880
I0717 15:03:47.131724  6447 layer_factory.hpp:76] Creating layer conv1_1/scale
I0717 15:03:47.131736  6447 net.cpp:144] Creating Layer conv1_1/scale
I0717 15:03:47.131739  6447 net.cpp:488] conv1_1/scale <- conv1_1_conv1_1_0_split_1
I0717 15:03:47.131743  6447 net.cpp:488] conv1_1/scale <- conv1_1/SE_weights/reshape
I0717 15:03:47.131747  6447 net.cpp:177] This layer is inheriting previous layer's sync mode: 1
I0717 15:03:47.131749  6447 net.cpp:462] conv1_1/scale -> conv1_1/scale
I0717 15:03:47.131824  6447 net.cpp:216] Setting up conv1_1/scale
I0717 15:03:47.131831  6447 net.cpp:222] Top shape: 8 116 56 56 (2910208)
I0717 15:03:47.131834  6447 net.cpp:228] Memory required for data: 504891712
I0717 15:03:47.131836  6447 layer_factory.hpp:76] Creating layer conv1_2/slice
I0717 15:03:47.131841  6447 net.cpp:144] Creating Layer conv1_2/slice
I0717 15:03:47.131844  6447 net.cpp:488] conv1_2/slice <- conv1_1/scale
I0717 15:03:47.131847  6447 net.cpp:177] This layer is inheriting previous layer's sync mode: 1
I0717 15:03:47.131852  6447 net.cpp:462] conv1_2/slice -> conv1_2/split1
I0717 15:03:47.131858  6447 net.cpp:462] conv1_2/slice -> conv1_2/split2
I0717 15:03:47.131893  6447 net.cpp:216] Setting up conv1_2/slice
I0717 15:03:47.131899  6447 net.cpp:222] Top shape: 8 58 56 56 (1455104)
I0717 15:03:47.131902  6447 net.cpp:222] Top shape: 8 58 56 56 (1455104)
I0717 15:03:47.131906  6447 net.cpp:228] Memory required for data: 516532544
I0717 15:03:47.131907  6447 layer_factory.hpp:76] Creating layer conv1_2/conv1
I0717 15:03:47.131916  6447 net.cpp:144] Creating Layer conv1_2/conv1
I0717 15:03:47.131919  6447 net.cpp:488] conv1_2/conv1 <- conv1_2/split2
I0717 15:03:47.131922  6447 net.cpp:177] This layer is inheriting previous layer's sync mode: 1
I0717 15:03:47.131927  6447 net.cpp:462] conv1_2/conv1 -> conv1_2/conv1
I0717 15:03:47.132192  6447 net.cpp:216] Setting up conv1_2/conv1
I0717 15:03:47.132200  6447 net.cpp:222] Top shape: 8 58 56 56 (1455104)
I0717 15:03:47.132203  6447 net.cpp:228] Memory required for data: 522352960
I0717 15:03:47.132212  6447 layer_factory.hpp:76] Creating layer conv1_2/conv1/bn
I0717 15:03:47.132218  6447 net.cpp:144] Creating Layer conv1_2/conv1/bn
I0717 15:03:47.132222  6447 net.cpp:488] conv1_2/conv1/bn <- conv1_2/conv1
I0717 15:03:47.132232  6447 net.cpp:177] This layer is inheriting previous layer's sync mode: 1
I0717 15:03:47.132238  6447 net.cpp:462] conv1_2/conv1/bn -> conv1_2/conv1/bn
I0717 15:03:47.132349  6447 cudnn_batch_norm_layer.cpp:84] Using CuDNN BN engine.
I0717 15:03:47.132402  6447 net.cpp:216] Setting up conv1_2/conv1/bn
I0717 15:03:47.132408  6447 net.cpp:222] Top shape: 8 58 56 56 (1455104)
I0717 15:03:47.132411  6447 net.cpp:228] Memory required for data: 528173376
I0717 15:03:47.132417  6447 layer_factory.hpp:76] Creating layer conv1_2/conv1/relu
I0717 15:03:47.132424  6447 net.cpp:144] Creating Layer conv1_2/conv1/relu
I0717 15:03:47.132427  6447 net.cpp:488] conv1_2/conv1/relu <- conv1_2/conv1/bn
I0717 15:03:47.132431  6447 net.cpp:177] This layer is inheriting previous layer's sync mode: 1
I0717 15:03:47.132434  6447 net.cpp:451] conv1_2/conv1/relu -> conv1_2/conv1/bn (in-place)
I0717 15:03:47.132439  6447 net.cpp:216] Setting up conv1_2/conv1/relu
I0717 15:03:47.132443  6447 net.cpp:222] Top shape: 8 58 56 56 (1455104)
I0717 15:03:47.132445  6447 net.cpp:228] Memory required for data: 533993792
I0717 15:03:47.132448  6447 layer_factory.hpp:76] Creating layer conv1_2/dwconv2
I0717 15:03:47.132455  6447 net.cpp:144] Creating Layer conv1_2/dwconv2
I0717 15:03:47.132458  6447 net.cpp:488] conv1_2/dwconv2 <- conv1_2/conv1/bn
I0717 15:03:47.132460  6447 net.cpp:177] This layer is inheriting previous layer's sync mode: 1
I0717 15:03:47.132464  6447 net.cpp:462] conv1_2/dwconv2 -> conv1_2/dwconv2
I0717 15:03:47.132666  6447 net.cpp:216] Setting up conv1_2/dwconv2
I0717 15:03:47.132673  6447 net.cpp:222] Top shape: 8 58 56 56 (1455104)
I0717 15:03:47.132675  6447 net.cpp:228] Memory required for data: 539814208
I0717 15:03:47.132679  6447 layer_factory.hpp:76] Creating layer conv1_2/dwconv2/bn
I0717 15:03:47.132688  6447 net.cpp:144] Creating Layer conv1_2/dwconv2/bn
I0717 15:03:47.132690  6447 net.cpp:488] conv1_2/dwconv2/bn <- conv1_2/dwconv2
I0717 15:03:47.132694  6447 net.cpp:177] This layer is inheriting previous layer's sync mode: 1
I0717 15:03:47.132697  6447 net.cpp:462] conv1_2/dwconv2/bn -> conv1_2/dwconv2/bn
I0717 15:03:47.132825  6447 cudnn_batch_norm_layer.cpp:84] Using CuDNN BN engine.
I0717 15:03:47.132884  6447 net.cpp:216] Setting up conv1_2/dwconv2/bn
I0717 15:03:47.132890  6447 net.cpp:222] Top shape: 8 58 56 56 (1455104)
I0717 15:03:47.132892  6447 net.cpp:228] Memory required for data: 545634624
I0717 15:03:47.132899  6447 layer_factory.hpp:76] Creating layer conv1_2/conv3
I0717 15:03:47.132906  6447 net.cpp:144] Creating Layer conv1_2/conv3
I0717 15:03:47.132910  6447 net.cpp:488] conv1_2/conv3 <- conv1_2/dwconv2/bn
I0717 15:03:47.132913  6447 net.cpp:177] This layer is inheriting previous layer's sync mode: 1
I0717 15:03:47.132917  6447 net.cpp:462] conv1_2/conv3 -> conv1_2/conv3
I0717 15:03:47.133204  6447 net.cpp:216] Setting up conv1_2/conv3
I0717 15:03:47.133213  6447 net.cpp:222] Top shape: 8 58 56 56 (1455104)
I0717 15:03:47.133214  6447 net.cpp:228] Memory required for data: 551455040
I0717 15:03:47.133219  6447 layer_factory.hpp:76] Creating layer conv1_2/conv3/bn
I0717 15:03:47.133225  6447 net.cpp:144] Creating Layer conv1_2/conv3/bn
I0717 15:03:47.133229  6447 net.cpp:488] conv1_2/conv3/bn <- conv1_2/conv3
I0717 15:03:47.133232  6447 net.cpp:177] This layer is inheriting previous layer's sync mode: 1
I0717 15:03:47.133239  6447 net.cpp:462] conv1_2/conv3/bn -> conv1_2/conv3/bn
I0717 15:03:47.133352  6447 cudnn_batch_norm_layer.cpp:84] Using CuDNN BN engine.
I0717 15:03:47.133409  6447 net.cpp:216] Setting up conv1_2/conv3/bn
I0717 15:03:47.133430  6447 net.cpp:222] Top shape: 8 58 56 56 (1455104)
I0717 15:03:47.133432  6447 net.cpp:228] Memory required for data: 557275456
I0717 15:03:47.133438  6447 layer_factory.hpp:76] Creating layer conv1_2/conv3/relu
I0717 15:03:47.133445  6447 net.cpp:144] Creating Layer conv1_2/conv3/relu
I0717 15:03:47.133448  6447 net.cpp:488] conv1_2/conv3/relu <- conv1_2/conv3/bn
I0717 15:03:47.133451  6447 net.cpp:177] This layer is inheriting previous layer's sync mode: 1
I0717 15:03:47.133455  6447 net.cpp:451] conv1_2/conv3/relu -> conv1_2/conv3/bn (in-place)
I0717 15:03:47.133460  6447 net.cpp:216] Setting up conv1_2/conv3/relu
I0717 15:03:47.133464  6447 net.cpp:222] Top shape: 8 58 56 56 (1455104)
I0717 15:03:47.133466  6447 net.cpp:228] Memory required for data: 563095872
I0717 15:03:47.133469  6447 layer_factory.hpp:76] Creating layer conv1_2/concat
I0717 15:03:47.133474  6447 net.cpp:144] Creating Layer conv1_2/concat
I0717 15:03:47.133476  6447 net.cpp:488] conv1_2/concat <- conv1_2/split1
I0717 15:03:47.133481  6447 net.cpp:488] conv1_2/concat <- conv1_2/conv3/bn
I0717 15:03:47.133483  6447 net.cpp:177] This layer is inheriting previous layer's sync mode: 1
I0717 15:03:47.133486  6447 net.cpp:462] conv1_2/concat -> conv1_2/concat
I0717 15:03:47.133508  6447 net.cpp:216] Setting up conv1_2/concat
I0717 15:03:47.133513  6447 net.cpp:222] Top shape: 8 116 56 56 (2910208)
I0717 15:03:47.133517  6447 net.cpp:228] Memory required for data: 574736704
I0717 15:03:47.133519  6447 layer_factory.hpp:76] Creating layer conv1_2
I0717 15:03:47.133523  6447 net.cpp:144] Creating Layer conv1_2
I0717 15:03:47.133527  6447 net.cpp:488] conv1_2 <- conv1_2/concat
I0717 15:03:47.133529  6447 net.cpp:177] This layer is inheriting previous layer's sync mode: 1
I0717 15:03:47.133533  6447 net.cpp:462] conv1_2 -> conv1_2
I0717 15:03:47.133579  6447 net.cpp:216] Setting up conv1_2
I0717 15:03:47.133584  6447 net.cpp:222] Top shape: 8 116 56 56 (2910208)
I0717 15:03:47.133586  6447 net.cpp:228] Memory required for data: 586377536
I0717 15:03:47.133589  6447 layer_factory.hpp:76] Creating layer conv1_2_conv1_2_0_split
I0717 15:03:47.133595  6447 net.cpp:144] Creating Layer conv1_2_conv1_2_0_split
I0717 15:03:47.133599  6447 net.cpp:488] conv1_2_conv1_2_0_split <- conv1_2
I0717 15:03:47.133601  6447 net.cpp:177] This layer is inheriting previous layer's sync mode: 1
I0717 15:03:47.133606  6447 net.cpp:462] conv1_2_conv1_2_0_split -> conv1_2_conv1_2_0_split_0
I0717 15:03:47.133611  6447 net.cpp:462] conv1_2_conv1_2_0_split -> conv1_2_conv1_2_0_split_1
I0717 15:03:47.133642  6447 net.cpp:216] Setting up conv1_2_conv1_2_0_split
I0717 15:03:47.133647  6447 net.cpp:222] Top shape: 8 116 56 56 (2910208)
I0717 15:03:47.133651  6447 net.cpp:222] Top shape: 8 116 56 56 (2910208)
I0717 15:03:47.133653  6447 net.cpp:228] Memory required for data: 609659200
I0717 15:03:47.133656  6447 layer_factory.hpp:76] Creating layer conv1_2/SE_global_pool
I0717 15:03:47.133661  6447 net.cpp:144] Creating Layer conv1_2/SE_global_pool
I0717 15:03:47.133663  6447 net.cpp:488] conv1_2/SE_global_pool <- conv1_2_conv1_2_0_split_0
I0717 15:03:47.133666  6447 net.cpp:177] This layer is inheriting previous layer's sync mode: 1
I0717 15:03:47.133671  6447 net.cpp:462] conv1_2/SE_global_pool -> conv1_2/SE_global_pool
I0717 15:03:47.133709  6447 net.cpp:216] Setting up conv1_2/SE_global_pool
I0717 15:03:47.133715  6447 net.cpp:222] Top shape: 8 116 1 1 (928)
I0717 15:03:47.133718  6447 net.cpp:228] Memory required for data: 609662912
I0717 15:03:47.133720  6447 layer_factory.hpp:76] Creating layer conv1_2/SE_fc1
I0717 15:03:47.133729  6447 net.cpp:144] Creating Layer conv1_2/SE_fc1
I0717 15:03:47.133733  6447 net.cpp:488] conv1_2/SE_fc1 <- conv1_2/SE_global_pool
I0717 15:03:47.133735  6447 net.cpp:177] This layer is inheriting previous layer's sync mode: 1
I0717 15:03:47.133739  6447 net.cpp:462] conv1_2/SE_fc1 -> conv1_2/SE_fc1
I0717 15:03:47.134059  6447 net.cpp:216] Setting up conv1_2/SE_fc1
I0717 15:03:47.134068  6447 net.cpp:222] Top shape: 8 29 1 1 (232)
I0717 15:03:47.134071  6447 net.cpp:228] Memory required for data: 609663840
I0717 15:03:47.134091  6447 layer_factory.hpp:76] Creating layer conv1_2/SE_fc1/relu
I0717 15:03:47.134099  6447 net.cpp:144] Creating Layer conv1_2/SE_fc1/relu
I0717 15:03:47.134104  6447 net.cpp:488] conv1_2/SE_fc1/relu <- conv1_2/SE_fc1
I0717 15:03:47.134107  6447 net.cpp:177] This layer is inheriting previous layer's sync mode: 1
I0717 15:03:47.134110  6447 net.cpp:451] conv1_2/SE_fc1/relu -> conv1_2/SE_fc1 (in-place)
I0717 15:03:47.134116  6447 net.cpp:216] Setting up conv1_2/SE_fc1/relu
I0717 15:03:47.134120  6447 net.cpp:222] Top shape: 8 29 1 1 (232)
I0717 15:03:47.134122  6447 net.cpp:228] Memory required for data: 609664768
I0717 15:03:47.134125  6447 layer_factory.hpp:76] Creating layer conv1_2/SE_fc2
I0717 15:03:47.134135  6447 net.cpp:144] Creating Layer conv1_2/SE_fc2
I0717 15:03:47.134137  6447 net.cpp:488] conv1_2/SE_fc2 <- conv1_2/SE_fc1
I0717 15:03:47.134140  6447 net.cpp:177] This layer is inheriting previous layer's sync mode: 1
I0717 15:03:47.134147  6447 net.cpp:462] conv1_2/SE_fc2 -> conv1_2/SE_fc2
I0717 15:03:47.134493  6447 net.cpp:216] Setting up conv1_2/SE_fc2
I0717 15:03:47.134501  6447 net.cpp:222] Top shape: 8 116 1 1 (928)
I0717 15:03:47.134505  6447 net.cpp:228] Memory required for data: 609668480
I0717 15:03:47.134508  6447 layer_factory.hpp:76] Creating layer conv1_2/SE_weights
I0717 15:03:47.134513  6447 net.cpp:144] Creating Layer conv1_2/SE_weights
I0717 15:03:47.134516  6447 net.cpp:488] conv1_2/SE_weights <- conv1_2/SE_fc2
I0717 15:03:47.134521  6447 net.cpp:177] This layer is inheriting previous layer's sync mode: 1
I0717 15:03:47.134526  6447 net.cpp:451] conv1_2/SE_weights -> conv1_2/SE_fc2 (in-place)
I0717 15:03:47.134531  6447 net.cpp:216] Setting up conv1_2/SE_weights
I0717 15:03:47.134534  6447 net.cpp:222] Top shape: 8 116 1 1 (928)
I0717 15:03:47.134537  6447 net.cpp:228] Memory required for data: 609672192
I0717 15:03:47.134539  6447 layer_factory.hpp:76] Creating layer conv1_2/SE_weights/reshape
I0717 15:03:47.134546  6447 net.cpp:144] Creating Layer conv1_2/SE_weights/reshape
I0717 15:03:47.134548  6447 net.cpp:488] conv1_2/SE_weights/reshape <- conv1_2/SE_fc2
I0717 15:03:47.134552  6447 net.cpp:177] This layer is inheriting previous layer's sync mode: 1
I0717 15:03:47.134554  6447 net.cpp:462] conv1_2/SE_weights/reshape -> conv1_2/SE_weights/reshape
I0717 15:03:47.134582  6447 net.cpp:216] Setting up conv1_2/SE_weights/reshape
I0717 15:03:47.134588  6447 net.cpp:222] Top shape: 8 116 (928)
I0717 15:03:47.134589  6447 net.cpp:228] Memory required for data: 609675904
I0717 15:03:47.134593  6447 layer_factory.hpp:76] Creating layer conv1_2/scale
I0717 15:03:47.134599  6447 net.cpp:144] Creating Layer conv1_2/scale
I0717 15:03:47.134603  6447 net.cpp:488] conv1_2/scale <- conv1_2_conv1_2_0_split_1
I0717 15:03:47.134608  6447 net.cpp:488] conv1_2/scale <- conv1_2/SE_weights/reshape
I0717 15:03:47.134610  6447 net.cpp:177] This layer is inheriting previous layer's sync mode: 1
I0717 15:03:47.134614  6447 net.cpp:462] conv1_2/scale -> conv1_2/scale
I0717 15:03:47.134680  6447 net.cpp:216] Setting up conv1_2/scale
I0717 15:03:47.134686  6447 net.cpp:222] Top shape: 8 116 56 56 (2910208)
I0717 15:03:47.134690  6447 net.cpp:228] Memory required for data: 621316736
I0717 15:03:47.134691  6447 layer_factory.hpp:76] Creating layer conv1_3/slice
I0717 15:03:47.134697  6447 net.cpp:144] Creating Layer conv1_3/slice
I0717 15:03:47.134701  6447 net.cpp:488] conv1_3/slice <- conv1_2/scale
I0717 15:03:47.134703  6447 net.cpp:177] This layer is inheriting previous layer's sync mode: 1
I0717 15:03:47.134709  6447 net.cpp:462] conv1_3/slice -> conv1_3/split1
I0717 15:03:47.134716  6447 net.cpp:462] conv1_3/slice -> conv1_3/split2
I0717 15:03:47.134755  6447 net.cpp:216] Setting up conv1_3/slice
I0717 15:03:47.134760  6447 net.cpp:222] Top shape: 8 58 56 56 (1455104)
I0717 15:03:47.134764  6447 net.cpp:222] Top shape: 8 58 56 56 (1455104)
I0717 15:03:47.134766  6447 net.cpp:228] Memory required for data: 632957568
I0717 15:03:47.134769  6447 layer_factory.hpp:76] Creating layer conv1_3/conv1
I0717 15:03:47.134779  6447 net.cpp:144] Creating Layer conv1_3/conv1
I0717 15:03:47.134783  6447 net.cpp:488] conv1_3/conv1 <- conv1_3/split2
I0717 15:03:47.134786  6447 net.cpp:177] This layer is inheriting previous layer's sync mode: 1
I0717 15:03:47.134791  6447 net.cpp:462] conv1_3/conv1 -> conv1_3/conv1
I0717 15:03:47.135128  6447 net.cpp:216] Setting up conv1_3/conv1
I0717 15:03:47.135136  6447 net.cpp:222] Top shape: 8 58 56 56 (1455104)
I0717 15:03:47.135138  6447 net.cpp:228] Memory required for data: 638777984
I0717 15:03:47.135143  6447 layer_factory.hpp:76] Creating layer conv1_3/conv1/bn
I0717 15:03:47.135154  6447 net.cpp:144] Creating Layer conv1_3/conv1/bn
I0717 15:03:47.135157  6447 net.cpp:488] conv1_3/conv1/bn <- conv1_3/conv1
I0717 15:03:47.135161  6447 net.cpp:177] This layer is inheriting previous layer's sync mode: 1
I0717 15:03:47.135169  6447 net.cpp:462] conv1_3/conv1/bn -> conv1_3/conv1/bn
I0717 15:03:47.135321  6447 cudnn_batch_norm_layer.cpp:84] Using CuDNN BN engine.
I0717 15:03:47.135380  6447 net.cpp:216] Setting up conv1_3/conv1/bn
I0717 15:03:47.135385  6447 net.cpp:222] Top shape: 8 58 56 56 (1455104)
I0717 15:03:47.135388  6447 net.cpp:228] Memory required for data: 644598400
I0717 15:03:47.135396  6447 layer_factory.hpp:76] Creating layer conv1_3/conv1/relu
I0717 15:03:47.135402  6447 net.cpp:144] Creating Layer conv1_3/conv1/relu
I0717 15:03:47.135406  6447 net.cpp:488] conv1_3/conv1/relu <- conv1_3/conv1/bn
I0717 15:03:47.135409  6447 net.cpp:177] This layer is inheriting previous layer's sync mode: 1
I0717 15:03:47.135412  6447 net.cpp:451] conv1_3/conv1/relu -> conv1_3/conv1/bn (in-place)
I0717 15:03:47.135417  6447 net.cpp:216] Setting up conv1_3/conv1/relu
I0717 15:03:47.135421  6447 net.cpp:222] Top shape: 8 58 56 56 (1455104)
I0717 15:03:47.135424  6447 net.cpp:228] Memory required for data: 650418816
I0717 15:03:47.135427  6447 layer_factory.hpp:76] Creating layer conv1_3/dwconv2
I0717 15:03:47.135432  6447 net.cpp:144] Creating Layer conv1_3/dwconv2
I0717 15:03:47.135435  6447 net.cpp:488] conv1_3/dwconv2 <- conv1_3/conv1/bn
I0717 15:03:47.135440  6447 net.cpp:177] This layer is inheriting previous layer's sync mode: 1
I0717 15:03:47.135444  6447 net.cpp:462] conv1_3/dwconv2 -> conv1_3/dwconv2
I0717 15:03:47.135668  6447 net.cpp:216] Setting up conv1_3/dwconv2
I0717 15:03:47.135675  6447 net.cpp:222] Top shape: 8 58 56 56 (1455104)
I0717 15:03:47.135679  6447 net.cpp:228] Memory required for data: 656239232
I0717 15:03:47.135682  6447 layer_factory.hpp:76] Creating layer conv1_3/dwconv2/bn
I0717 15:03:47.135687  6447 net.cpp:144] Creating Layer conv1_3/dwconv2/bn
I0717 15:03:47.135691  6447 net.cpp:488] conv1_3/dwconv2/bn <- conv1_3/dwconv2
I0717 15:03:47.135694  6447 net.cpp:177] This layer is inheriting previous layer's sync mode: 1
I0717 15:03:47.135700  6447 net.cpp:462] conv1_3/dwconv2/bn -> conv1_3/dwconv2/bn
I0717 15:03:47.136759  6447 cudnn_batch_norm_layer.cpp:84] Using CuDNN BN engine.
I0717 15:03:47.136818  6447 net.cpp:216] Setting up conv1_3/dwconv2/bn
I0717 15:03:47.136824  6447 net.cpp:222] Top shape: 8 58 56 56 (1455104)
I0717 15:03:47.136827  6447 net.cpp:228] Memory required for data: 662059648
I0717 15:03:47.136833  6447 layer_factory.hpp:76] Creating layer conv1_3/conv3
I0717 15:03:47.136843  6447 net.cpp:144] Creating Layer conv1_3/conv3
I0717 15:03:47.136847  6447 net.cpp:488] conv1_3/conv3 <- conv1_3/dwconv2/bn
I0717 15:03:47.136850  6447 net.cpp:177] This layer is inheriting previous layer's sync mode: 1
I0717 15:03:47.136855  6447 net.cpp:462] conv1_3/conv3 -> conv1_3/conv3
I0717 15:03:47.138805  6447 net.cpp:216] Setting up conv1_3/conv3
I0717 15:03:47.138818  6447 net.cpp:222] Top shape: 8 58 56 56 (1455104)
I0717 15:03:47.138823  6447 net.cpp:228] Memory required for data: 667880064
I0717 15:03:47.138828  6447 layer_factory.hpp:76] Creating layer conv1_3/conv3/bn
I0717 15:03:47.138835  6447 net.cpp:144] Creating Layer conv1_3/conv3/bn
I0717 15:03:47.138839  6447 net.cpp:488] conv1_3/conv3/bn <- conv1_3/conv3
I0717 15:03:47.138844  6447 net.cpp:177] This layer is inheriting previous layer's sync mode: 1
I0717 15:03:47.138850  6447 net.cpp:462] conv1_3/conv3/bn -> conv1_3/conv3/bn
I0717 15:03:47.138976  6447 cudnn_batch_norm_layer.cpp:84] Using CuDNN BN engine.
I0717 15:03:47.139039  6447 net.cpp:216] Setting up conv1_3/conv3/bn
I0717 15:03:47.139045  6447 net.cpp:222] Top shape: 8 58 56 56 (1455104)
I0717 15:03:47.139048  6447 net.cpp:228] Memory required for data: 673700480
I0717 15:03:47.139055  6447 layer_factory.hpp:76] Creating layer conv1_3/conv3/relu
I0717 15:03:47.139063  6447 net.cpp:144] Creating Layer conv1_3/conv3/relu
I0717 15:03:47.139066  6447 net.cpp:488] conv1_3/conv3/relu <- conv1_3/conv3/bn
I0717 15:03:47.139070  6447 net.cpp:177] This layer is inheriting previous layer's sync mode: 1
I0717 15:03:47.139073  6447 net.cpp:451] conv1_3/conv3/relu -> conv1_3/conv3/bn (in-place)
I0717 15:03:47.139080  6447 net.cpp:216] Setting up conv1_3/conv3/relu
I0717 15:03:47.139083  6447 net.cpp:222] Top shape: 8 58 56 56 (1455104)
I0717 15:03:47.139086  6447 net.cpp:228] Memory required for data: 679520896
I0717 15:03:47.139088  6447 layer_factory.hpp:76] Creating layer conv1_3/concat
I0717 15:03:47.139093  6447 net.cpp:144] Creating Layer conv1_3/concat
I0717 15:03:47.139096  6447 net.cpp:488] conv1_3/concat <- conv1_3/split1
I0717 15:03:47.139099  6447 net.cpp:488] conv1_3/concat <- conv1_3/conv3/bn
I0717 15:03:47.139103  6447 net.cpp:177] This layer is inheriting previous layer's sync mode: 1
I0717 15:03:47.139106  6447 net.cpp:462] conv1_3/concat -> conv1_3/concat
I0717 15:03:47.139130  6447 net.cpp:216] Setting up conv1_3/concat
I0717 15:03:47.139137  6447 net.cpp:222] Top shape: 8 116 56 56 (2910208)
I0717 15:03:47.139138  6447 net.cpp:228] Memory required for data: 691161728
I0717 15:03:47.139142  6447 layer_factory.hpp:76] Creating layer conv1_3
I0717 15:03:47.139147  6447 net.cpp:144] Creating Layer conv1_3
I0717 15:03:47.139150  6447 net.cpp:488] conv1_3 <- conv1_3/concat
I0717 15:03:47.139153  6447 net.cpp:177] This layer is inheriting previous layer's sync mode: 1
I0717 15:03:47.139156  6447 net.cpp:462] conv1_3 -> conv1_3
I0717 15:03:47.139207  6447 net.cpp:216] Setting up conv1_3
I0717 15:03:47.139214  6447 net.cpp:222] Top shape: 8 116 56 56 (2910208)
I0717 15:03:47.139216  6447 net.cpp:228] Memory required for data: 702802560
I0717 15:03:47.139219  6447 layer_factory.hpp:76] Creating layer conv1_3_conv1_3_0_split
I0717 15:03:47.139225  6447 net.cpp:144] Creating Layer conv1_3_conv1_3_0_split
I0717 15:03:47.139228  6447 net.cpp:488] conv1_3_conv1_3_0_split <- conv1_3
I0717 15:03:47.139232  6447 net.cpp:177] This layer is inheriting previous layer's sync mode: 1
I0717 15:03:47.139237  6447 net.cpp:462] conv1_3_conv1_3_0_split -> conv1_3_conv1_3_0_split_0
I0717 15:03:47.139242  6447 net.cpp:462] conv1_3_conv1_3_0_split -> conv1_3_conv1_3_0_split_1
I0717 15:03:47.139279  6447 net.cpp:216] Setting up conv1_3_conv1_3_0_split
I0717 15:03:47.139284  6447 net.cpp:222] Top shape: 8 116 56 56 (2910208)
I0717 15:03:47.139288  6447 net.cpp:222] Top shape: 8 116 56 56 (2910208)
I0717 15:03:47.139291  6447 net.cpp:228] Memory required for data: 726084224
I0717 15:03:47.139293  6447 layer_factory.hpp:76] Creating layer conv1_3/SE_global_pool
I0717 15:03:47.139303  6447 net.cpp:144] Creating Layer conv1_3/SE_global_pool
I0717 15:03:47.139307  6447 net.cpp:488] conv1_3/SE_global_pool <- conv1_3_conv1_3_0_split_0
I0717 15:03:47.139310  6447 net.cpp:177] This layer is inheriting previous layer's sync mode: 1
I0717 15:03:47.139315  6447 net.cpp:462] conv1_3/SE_global_pool -> conv1_3/SE_global_pool
I0717 15:03:47.139338  6447 net.cpp:216] Setting up conv1_3/SE_global_pool
I0717 15:03:47.139343  6447 net.cpp:222] Top shape: 8 116 1 1 (928)
I0717 15:03:47.139344  6447 net.cpp:228] Memory required for data: 726087936
I0717 15:03:47.139348  6447 layer_factory.hpp:76] Creating layer conv1_3/SE_fc1
I0717 15:03:47.139361  6447 net.cpp:144] Creating Layer conv1_3/SE_fc1
I0717 15:03:47.139366  6447 net.cpp:488] conv1_3/SE_fc1 <- conv1_3/SE_global_pool
I0717 15:03:47.139372  6447 net.cpp:177] This layer is inheriting previous layer's sync mode: 1
I0717 15:03:47.139379  6447 net.cpp:462] conv1_3/SE_fc1 -> conv1_3/SE_fc1
I0717 15:03:47.139703  6447 net.cpp:216] Setting up conv1_3/SE_fc1
I0717 15:03:47.139716  6447 net.cpp:222] Top shape: 8 29 1 1 (232)
I0717 15:03:47.139720  6447 net.cpp:228] Memory required for data: 726088864
I0717 15:03:47.139735  6447 layer_factory.hpp:76] Creating layer conv1_3/SE_fc1/relu
I0717 15:03:47.139748  6447 net.cpp:144] Creating Layer conv1_3/SE_fc1/relu
I0717 15:03:47.139755  6447 net.cpp:488] conv1_3/SE_fc1/relu <- conv1_3/SE_fc1
I0717 15:03:47.139760  6447 net.cpp:177] This layer is inheriting previous layer's sync mode: 1
I0717 15:03:47.139763  6447 net.cpp:451] conv1_3/SE_fc1/relu -> conv1_3/SE_fc1 (in-place)
I0717 15:03:47.139771  6447 net.cpp:216] Setting up conv1_3/SE_fc1/relu
I0717 15:03:47.139775  6447 net.cpp:222] Top shape: 8 29 1 1 (232)
I0717 15:03:47.139777  6447 net.cpp:228] Memory required for data: 726089792
I0717 15:03:47.139780  6447 layer_factory.hpp:76] Creating layer conv1_3/SE_fc2
I0717 15:03:47.139791  6447 net.cpp:144] Creating Layer conv1_3/SE_fc2
I0717 15:03:47.139793  6447 net.cpp:488] conv1_3/SE_fc2 <- conv1_3/SE_fc1
I0717 15:03:47.139796  6447 net.cpp:177] This layer is inheriting previous layer's sync mode: 1
I0717 15:03:47.139801  6447 net.cpp:462] conv1_3/SE_fc2 -> conv1_3/SE_fc2
I0717 15:03:47.140278  6447 net.cpp:216] Setting up conv1_3/SE_fc2
I0717 15:03:47.140295  6447 net.cpp:222] Top shape: 8 116 1 1 (928)
I0717 15:03:47.140300  6447 net.cpp:228] Memory required for data: 726093504
I0717 15:03:47.140307  6447 layer_factory.hpp:76] Creating layer conv1_3/SE_weights
I0717 15:03:47.140316  6447 net.cpp:144] Creating Layer conv1_3/SE_weights
I0717 15:03:47.140321  6447 net.cpp:488] conv1_3/SE_weights <- conv1_3/SE_fc2
I0717 15:03:47.140327  6447 net.cpp:177] This layer is inheriting previous layer's sync mode: 1
I0717 15:03:47.140336  6447 net.cpp:451] conv1_3/SE_weights -> conv1_3/SE_fc2 (in-place)
I0717 15:03:47.140345  6447 net.cpp:216] Setting up conv1_3/SE_weights
I0717 15:03:47.140352  6447 net.cpp:222] Top shape: 8 116 1 1 (928)
I0717 15:03:47.140357  6447 net.cpp:228] Memory required for data: 726097216
I0717 15:03:47.140362  6447 layer_factory.hpp:76] Creating layer conv1_3/SE_weights/reshape
I0717 15:03:47.140369  6447 net.cpp:144] Creating Layer conv1_3/SE_weights/reshape
I0717 15:03:47.140374  6447 net.cpp:488] conv1_3/SE_weights/reshape <- conv1_3/SE_fc2
I0717 15:03:47.140380  6447 net.cpp:177] This layer is inheriting previous layer's sync mode: 1
I0717 15:03:47.140386  6447 net.cpp:462] conv1_3/SE_weights/reshape -> conv1_3/SE_weights/reshape
I0717 15:03:47.140424  6447 net.cpp:216] Setting up conv1_3/SE_weights/reshape
I0717 15:03:47.140434  6447 net.cpp:222] Top shape: 8 116 (928)
I0717 15:03:47.140437  6447 net.cpp:228] Memory required for data: 726100928
I0717 15:03:47.140442  6447 layer_factory.hpp:76] Creating layer conv1_3/scale
I0717 15:03:47.140453  6447 net.cpp:144] Creating Layer conv1_3/scale
I0717 15:03:47.140458  6447 net.cpp:488] conv1_3/scale <- conv1_3_conv1_3_0_split_1
I0717 15:03:47.140465  6447 net.cpp:488] conv1_3/scale <- conv1_3/SE_weights/reshape
I0717 15:03:47.140470  6447 net.cpp:177] This layer is inheriting previous layer's sync mode: 1
I0717 15:03:47.140478  6447 net.cpp:462] conv1_3/scale -> conv1_3/scale
I0717 15:03:47.140571  6447 net.cpp:216] Setting up conv1_3/scale
I0717 15:03:47.140581  6447 net.cpp:222] Top shape: 8 116 56 56 (2910208)
I0717 15:03:47.140585  6447 net.cpp:228] Memory required for data: 737741760
I0717 15:03:47.140590  6447 layer_factory.hpp:76] Creating layer conv1_4/slice
I0717 15:03:47.140601  6447 net.cpp:144] Creating Layer conv1_4/slice
I0717 15:03:47.140606  6447 net.cpp:488] conv1_4/slice <- conv1_3/scale
I0717 15:03:47.140612  6447 net.cpp:177] This layer is inheriting previous layer's sync mode: 1
I0717 15:03:47.140619  6447 net.cpp:462] conv1_4/slice -> conv1_4/split1
I0717 15:03:47.140627  6447 net.cpp:462] conv1_4/slice -> conv1_4/split2
I0717 15:03:47.140683  6447 net.cpp:216] Setting up conv1_4/slice
I0717 15:03:47.140694  6447 net.cpp:222] Top shape: 8 58 56 56 (1455104)
I0717 15:03:47.140700  6447 net.cpp:222] Top shape: 8 58 56 56 (1455104)
I0717 15:03:47.140705  6447 net.cpp:228] Memory required for data: 749382592
I0717 15:03:47.140710  6447 layer_factory.hpp:76] Creating layer conv1_4/conv1
I0717 15:03:47.140727  6447 net.cpp:144] Creating Layer conv1_4/conv1
I0717 15:03:47.140731  6447 net.cpp:488] conv1_4/conv1 <- conv1_4/split2
I0717 15:03:47.140738  6447 net.cpp:177] This layer is inheriting previous layer's sync mode: 1
I0717 15:03:47.140744  6447 net.cpp:462] conv1_4/conv1 -> conv1_4/conv1
I0717 15:03:47.141237  6447 net.cpp:216] Setting up conv1_4/conv1
I0717 15:03:47.141252  6447 net.cpp:222] Top shape: 8 58 56 56 (1455104)
I0717 15:03:47.141257  6447 net.cpp:228] Memory required for data: 755203008
I0717 15:03:47.141264  6447 layer_factory.hpp:76] Creating layer conv1_4/conv1/bn
I0717 15:03:47.141275  6447 net.cpp:144] Creating Layer conv1_4/conv1/bn
I0717 15:03:47.141280  6447 net.cpp:488] conv1_4/conv1/bn <- conv1_4/conv1
I0717 15:03:47.141288  6447 net.cpp:177] This layer is inheriting previous layer's sync mode: 1
I0717 15:03:47.141312  6447 net.cpp:462] conv1_4/conv1/bn -> conv1_4/conv1/bn
I0717 15:03:47.141530  6447 cudnn_batch_norm_layer.cpp:84] Using CuDNN BN engine.
I0717 15:03:47.141649  6447 net.cpp:216] Setting up conv1_4/conv1/bn
I0717 15:03:47.141662  6447 net.cpp:222] Top shape: 8 58 56 56 (1455104)
I0717 15:03:47.141667  6447 net.cpp:228] Memory required for data: 761023424
I0717 15:03:47.141680  6447 layer_factory.hpp:76] Creating layer conv1_4/conv1/relu
I0717 15:03:47.141688  6447 net.cpp:144] Creating Layer conv1_4/conv1/relu
I0717 15:03:47.141693  6447 net.cpp:488] conv1_4/conv1/relu <- conv1_4/conv1/bn
I0717 15:03:47.141700  6447 net.cpp:177] This layer is inheriting previous layer's sync mode: 1
I0717 15:03:47.141710  6447 net.cpp:451] conv1_4/conv1/relu -> conv1_4/conv1/bn (in-place)
I0717 15:03:47.141719  6447 net.cpp:216] Setting up conv1_4/conv1/relu
I0717 15:03:47.141726  6447 net.cpp:222] Top shape: 8 58 56 56 (1455104)
I0717 15:03:47.141731  6447 net.cpp:228] Memory required for data: 766843840
I0717 15:03:47.141736  6447 layer_factory.hpp:76] Creating layer conv1_4/dwconv2
I0717 15:03:47.141746  6447 net.cpp:144] Creating Layer conv1_4/dwconv2
I0717 15:03:47.141750  6447 net.cpp:488] conv1_4/dwconv2 <- conv1_4/conv1/bn
I0717 15:03:47.141755  6447 net.cpp:177] This layer is inheriting previous layer's sync mode: 1
I0717 15:03:47.141765  6447 net.cpp:462] conv1_4/dwconv2 -> conv1_4/dwconv2
I0717 15:03:47.142073  6447 net.cpp:216] Setting up conv1_4/dwconv2
I0717 15:03:47.142086  6447 net.cpp:222] Top shape: 8 58 56 56 (1455104)
I0717 15:03:47.142091  6447 net.cpp:228] Memory required for data: 772664256
I0717 15:03:47.142097  6447 layer_factory.hpp:76] Creating layer conv1_4/dwconv2/bn
I0717 15:03:47.142107  6447 net.cpp:144] Creating Layer conv1_4/dwconv2/bn
I0717 15:03:47.142113  6447 net.cpp:488] conv1_4/dwconv2/bn <- conv1_4/dwconv2
I0717 15:03:47.142118  6447 net.cpp:177] This layer is inheriting previous layer's sync mode: 1
I0717 15:03:47.142128  6447 net.cpp:462] conv1_4/dwconv2/bn -> conv1_4/dwconv2/bn
I0717 15:03:47.142297  6447 cudnn_batch_norm_layer.cpp:84] Using CuDNN BN engine.
I0717 15:03:47.142386  6447 net.cpp:216] Setting up conv1_4/dwconv2/bn
I0717 15:03:47.142395  6447 net.cpp:222] Top shape: 8 58 56 56 (1455104)
I0717 15:03:47.142400  6447 net.cpp:228] Memory required for data: 778484672
I0717 15:03:47.142412  6447 layer_factory.hpp:76] Creating layer conv1_4/conv3
I0717 15:03:47.142426  6447 net.cpp:144] Creating Layer conv1_4/conv3
I0717 15:03:47.142431  6447 net.cpp:488] conv1_4/conv3 <- conv1_4/dwconv2/bn
I0717 15:03:47.142436  6447 net.cpp:177] This layer is inheriting previous layer's sync mode: 1
I0717 15:03:47.142443  6447 net.cpp:462] conv1_4/conv3 -> conv1_4/conv3
I0717 15:03:47.142879  6447 net.cpp:216] Setting up conv1_4/conv3
I0717 15:03:47.142891  6447 net.cpp:222] Top shape: 8 58 56 56 (1455104)
I0717 15:03:47.142896  6447 net.cpp:228] Memory required for data: 784305088
I0717 15:03:47.142904  6447 layer_factory.hpp:76] Creating layer conv1_4/conv3/bn
I0717 15:03:47.142913  6447 net.cpp:144] Creating Layer conv1_4/conv3/bn
I0717 15:03:47.142918  6447 net.cpp:488] conv1_4/conv3/bn <- conv1_4/conv3
I0717 15:03:47.142925  6447 net.cpp:177] This layer is inheriting previous layer's sync mode: 1
I0717 15:03:47.142933  6447 net.cpp:462] conv1_4/conv3/bn -> conv1_4/conv3/bn
I0717 15:03:47.143107  6447 cudnn_batch_norm_layer.cpp:84] Using CuDNN BN engine.
I0717 15:03:47.143193  6447 net.cpp:216] Setting up conv1_4/conv3/bn
I0717 15:03:47.143203  6447 net.cpp:222] Top shape: 8 58 56 56 (1455104)
I0717 15:03:47.143208  6447 net.cpp:228] Memory required for data: 790125504
I0717 15:03:47.143220  6447 layer_factory.hpp:76] Creating layer conv1_4/conv3/relu
I0717 15:03:47.143242  6447 net.cpp:144] Creating Layer conv1_4/conv3/relu
I0717 15:03:47.143249  6447 net.cpp:488] conv1_4/conv3/relu <- conv1_4/conv3/bn
I0717 15:03:47.143254  6447 net.cpp:177] This layer is inheriting previous layer's sync mode: 1
I0717 15:03:47.143262  6447 net.cpp:451] conv1_4/conv3/relu -> conv1_4/conv3/bn (in-place)
I0717 15:03:47.143280  6447 net.cpp:216] Setting up conv1_4/conv3/relu
I0717 15:03:47.143287  6447 net.cpp:222] Top shape: 8 58 56 56 (1455104)
I0717 15:03:47.143291  6447 net.cpp:228] Memory required for data: 795945920
I0717 15:03:47.143296  6447 layer_factory.hpp:76] Creating layer conv1_4/concat
I0717 15:03:47.143303  6447 net.cpp:144] Creating Layer conv1_4/concat
I0717 15:03:47.143308  6447 net.cpp:488] conv1_4/concat <- conv1_4/split1
I0717 15:03:47.143314  6447 net.cpp:488] conv1_4/concat <- conv1_4/conv3/bn
I0717 15:03:47.143319  6447 net.cpp:177] This layer is inheriting previous layer's sync mode: 1
I0717 15:03:47.143326  6447 net.cpp:462] conv1_4/concat -> conv1_4/concat
I0717 15:03:47.143357  6447 net.cpp:216] Setting up conv1_4/concat
I0717 15:03:47.143365  6447 net.cpp:222] Top shape: 8 116 56 56 (2910208)
I0717 15:03:47.143370  6447 net.cpp:228] Memory required for data: 807586752
I0717 15:03:47.143374  6447 layer_factory.hpp:76] Creating layer conv1_4
I0717 15:03:47.143384  6447 net.cpp:144] Creating Layer conv1_4
I0717 15:03:47.143389  6447 net.cpp:488] conv1_4 <- conv1_4/concat
I0717 15:03:47.143394  6447 net.cpp:177] This layer is inheriting previous layer's sync mode: 1
I0717 15:03:47.143400  6447 net.cpp:462] conv1_4 -> conv1_4
I0717 15:03:47.143471  6447 net.cpp:216] Setting up conv1_4
I0717 15:03:47.143481  6447 net.cpp:222] Top shape: 8 116 56 56 (2910208)
I0717 15:03:47.143484  6447 net.cpp:228] Memory required for data: 819227584
I0717 15:03:47.143488  6447 layer_factory.hpp:76] Creating layer conv1_4_conv1_4_0_split
I0717 15:03:47.143497  6447 net.cpp:144] Creating Layer conv1_4_conv1_4_0_split
I0717 15:03:47.143502  6447 net.cpp:488] conv1_4_conv1_4_0_split <- conv1_4
I0717 15:03:47.143507  6447 net.cpp:177] This layer is inheriting previous layer's sync mode: 1
I0717 15:03:47.143512  6447 net.cpp:462] conv1_4_conv1_4_0_split -> conv1_4_conv1_4_0_split_0
I0717 15:03:47.143523  6447 net.cpp:462] conv1_4_conv1_4_0_split -> conv1_4_conv1_4_0_split_1
I0717 15:03:47.143579  6447 net.cpp:216] Setting up conv1_4_conv1_4_0_split
I0717 15:03:47.143586  6447 net.cpp:222] Top shape: 8 116 56 56 (2910208)
I0717 15:03:47.143592  6447 net.cpp:222] Top shape: 8 116 56 56 (2910208)
I0717 15:03:47.143597  6447 net.cpp:228] Memory required for data: 842509248
I0717 15:03:47.143601  6447 layer_factory.hpp:76] Creating layer conv1_4/SE_global_pool
I0717 15:03:47.143610  6447 net.cpp:144] Creating Layer conv1_4/SE_global_pool
I0717 15:03:47.143615  6447 net.cpp:488] conv1_4/SE_global_pool <- conv1_4_conv1_4_0_split_0
I0717 15:03:47.143620  6447 net.cpp:177] This layer is inheriting previous layer's sync mode: 1
I0717 15:03:47.143625  6447 net.cpp:462] conv1_4/SE_global_pool -> conv1_4/SE_global_pool
I0717 15:03:47.143657  6447 net.cpp:216] Setting up conv1_4/SE_global_pool
I0717 15:03:47.143666  6447 net.cpp:222] Top shape: 8 116 1 1 (928)
I0717 15:03:47.143671  6447 net.cpp:228] Memory required for data: 842512960
I0717 15:03:47.143674  6447 layer_factory.hpp:76] Creating layer conv1_4/SE_fc1
I0717 15:03:47.143687  6447 net.cpp:144] Creating Layer conv1_4/SE_fc1
I0717 15:03:47.143692  6447 net.cpp:488] conv1_4/SE_fc1 <- conv1_4/SE_global_pool
I0717 15:03:47.143698  6447 net.cpp:177] This layer is inheriting previous layer's sync mode: 1
I0717 15:03:47.143707  6447 net.cpp:462] conv1_4/SE_fc1 -> conv1_4/SE_fc1
I0717 15:03:47.144165  6447 net.cpp:216] Setting up conv1_4/SE_fc1
I0717 15:03:47.144176  6447 net.cpp:222] Top shape: 8 29 1 1 (232)
I0717 15:03:47.144181  6447 net.cpp:228] Memory required for data: 842513888
I0717 15:03:47.144189  6447 layer_factory.hpp:76] Creating layer conv1_4/SE_fc1/relu
I0717 15:03:47.144198  6447 net.cpp:144] Creating Layer conv1_4/SE_fc1/relu
I0717 15:03:47.144203  6447 net.cpp:488] conv1_4/SE_fc1/relu <- conv1_4/SE_fc1
I0717 15:03:47.144209  6447 net.cpp:177] This layer is inheriting previous layer's sync mode: 1
I0717 15:03:47.144217  6447 net.cpp:451] conv1_4/SE_fc1/relu -> conv1_4/SE_fc1 (in-place)
I0717 15:03:47.144227  6447 net.cpp:216] Setting up conv1_4/SE_fc1/relu
I0717 15:03:47.144234  6447 net.cpp:222] Top shape: 8 29 1 1 (232)
I0717 15:03:47.144238  6447 net.cpp:228] Memory required for data: 842514816
I0717 15:03:47.144243  6447 layer_factory.hpp:76] Creating layer conv1_4/SE_fc2
I0717 15:03:47.144269  6447 net.cpp:144] Creating Layer conv1_4/SE_fc2
I0717 15:03:47.144273  6447 net.cpp:488] conv1_4/SE_fc2 <- conv1_4/SE_fc1
I0717 15:03:47.144279  6447 net.cpp:177] This layer is inheriting previous layer's sync mode: 1
I0717 15:03:47.144294  6447 net.cpp:462] conv1_4/SE_fc2 -> conv1_4/SE_fc2
I0717 15:03:47.144768  6447 net.cpp:216] Setting up conv1_4/SE_fc2
I0717 15:03:47.144783  6447 net.cpp:222] Top shape: 8 116 1 1 (928)
I0717 15:03:47.144786  6447 net.cpp:228] Memory required for data: 842518528
I0717 15:03:47.144793  6447 layer_factory.hpp:76] Creating layer conv1_4/SE_weights
I0717 15:03:47.144801  6447 net.cpp:144] Creating Layer conv1_4/SE_weights
I0717 15:03:47.144806  6447 net.cpp:488] conv1_4/SE_weights <- conv1_4/SE_fc2
I0717 15:03:47.144812  6447 net.cpp:177] This layer is inheriting previous layer's sync mode: 1
I0717 15:03:47.144821  6447 net.cpp:451] conv1_4/SE_weights -> conv1_4/SE_fc2 (in-place)
I0717 15:03:47.144831  6447 net.cpp:216] Setting up conv1_4/SE_weights
I0717 15:03:47.144837  6447 net.cpp:222] Top shape: 8 116 1 1 (928)
I0717 15:03:47.144842  6447 net.cpp:228] Memory required for data: 842522240
I0717 15:03:47.144846  6447 layer_factory.hpp:76] Creating layer conv1_4/SE_weights/reshape
I0717 15:03:47.144855  6447 net.cpp:144] Creating Layer conv1_4/SE_weights/reshape
I0717 15:03:47.144860  6447 net.cpp:488] conv1_4/SE_weights/reshape <- conv1_4/SE_fc2
I0717 15:03:47.144865  6447 net.cpp:177] This layer is inheriting previous layer's sync mode: 1
I0717 15:03:47.144871  6447 net.cpp:462] conv1_4/SE_weights/reshape -> conv1_4/SE_weights/reshape
I0717 15:03:47.144912  6447 net.cpp:216] Setting up conv1_4/SE_weights/reshape
I0717 15:03:47.144922  6447 net.cpp:222] Top shape: 8 116 (928)
I0717 15:03:47.144924  6447 net.cpp:228] Memory required for data: 842525952
I0717 15:03:47.144929  6447 layer_factory.hpp:76] Creating layer conv1_4/scale
I0717 15:03:47.144945  6447 net.cpp:144] Creating Layer conv1_4/scale
I0717 15:03:47.144951  6447 net.cpp:488] conv1_4/scale <- conv1_4_conv1_4_0_split_1
I0717 15:03:47.144974  6447 net.cpp:488] conv1_4/scale <- conv1_4/SE_weights/reshape
I0717 15:03:47.144980  6447 net.cpp:177] This layer is inheriting previous layer's sync mode: 1
I0717 15:03:47.144989  6447 net.cpp:462] conv1_4/scale -> conv1_4/scale
I0717 15:03:47.145107  6447 net.cpp:216] Setting up conv1_4/scale
I0717 15:03:47.145117  6447 net.cpp:222] Top shape: 8 116 56 56 (2910208)
I0717 15:03:47.145123  6447 net.cpp:228] Memory required for data: 854166784
I0717 15:03:47.145128  6447 layer_factory.hpp:76] Creating layer conv1_4/scale_conv1_4/scale_0_split
I0717 15:03:47.145138  6447 net.cpp:144] Creating Layer conv1_4/scale_conv1_4/scale_0_split
I0717 15:03:47.145143  6447 net.cpp:488] conv1_4/scale_conv1_4/scale_0_split <- conv1_4/scale
I0717 15:03:47.145148  6447 net.cpp:177] This layer is inheriting previous layer's sync mode: 1
I0717 15:03:47.145155  6447 net.cpp:462] conv1_4/scale_conv1_4/scale_0_split -> conv1_4/scale_conv1_4/scale_0_split_0
I0717 15:03:47.145164  6447 net.cpp:462] conv1_4/scale_conv1_4/scale_0_split -> conv1_4/scale_conv1_4/scale_0_split_1
I0717 15:03:47.145220  6447 net.cpp:216] Setting up conv1_4/scale_conv1_4/scale_0_split
I0717 15:03:47.145229  6447 net.cpp:222] Top shape: 8 116 56 56 (2910208)
I0717 15:03:47.145236  6447 net.cpp:222] Top shape: 8 116 56 56 (2910208)
I0717 15:03:47.145241  6447 net.cpp:228] Memory required for data: 877448448
I0717 15:03:47.145246  6447 layer_factory.hpp:76] Creating layer conv2
I0717 15:03:47.145261  6447 net.cpp:144] Creating Layer conv2
I0717 15:03:47.145267  6447 net.cpp:488] conv2 <- conv1_4/scale_conv1_4/scale_0_split_0
I0717 15:03:47.145273  6447 net.cpp:177] This layer is inheriting previous layer's sync mode: 1
I0717 15:03:47.145280  6447 net.cpp:462] conv2 -> conv2
I0717 15:03:47.148701  6447 net.cpp:216] Setting up conv2
I0717 15:03:47.148721  6447 net.cpp:222] Top shape: 8 24 56 56 (602112)
I0717 15:03:47.148726  6447 net.cpp:228] Memory required for data: 879856896
I0717 15:03:47.148736  6447 layer_factory.hpp:76] Creating layer conv2/bn
I0717 15:03:47.148749  6447 net.cpp:144] Creating Layer conv2/bn
I0717 15:03:47.148756  6447 net.cpp:488] conv2/bn <- conv2
I0717 15:03:47.148761  6447 net.cpp:177] This layer is inheriting previous layer's sync mode: 1
I0717 15:03:47.148772  6447 net.cpp:462] conv2/bn -> conv2/bn
I0717 15:03:47.148967  6447 cudnn_batch_norm_layer.cpp:84] Using CuDNN BN engine.
I0717 15:03:47.149060  6447 net.cpp:216] Setting up conv2/bn
I0717 15:03:47.149070  6447 net.cpp:222] Top shape: 8 24 56 56 (602112)
I0717 15:03:47.149075  6447 net.cpp:228] Memory required for data: 882265344
I0717 15:03:47.149086  6447 layer_factory.hpp:76] Creating layer conv2/relu
I0717 15:03:47.149097  6447 net.cpp:144] Creating Layer conv2/relu
I0717 15:03:47.149103  6447 net.cpp:488] conv2/relu <- conv2/bn
I0717 15:03:47.149109  6447 net.cpp:177] This layer is inheriting previous layer's sync mode: 1
I0717 15:03:47.149116  6447 net.cpp:451] conv2/relu -> conv2/bn (in-place)
I0717 15:03:47.149124  6447 net.cpp:216] Setting up conv2/relu
I0717 15:03:47.149132  6447 net.cpp:222] Top shape: 8 24 56 56 (602112)
I0717 15:03:47.149135  6447 net.cpp:228] Memory required for data: 884673792
I0717 15:03:47.149138  6447 layer_factory.hpp:76] Creating layer conv2/bn_conv2/relu_0_split
I0717 15:03:47.149145  6447 net.cpp:144] Creating Layer conv2/bn_conv2/relu_0_split
I0717 15:03:47.149149  6447 net.cpp:488] conv2/bn_conv2/relu_0_split <- conv2/bn
I0717 15:03:47.149153  6447 net.cpp:177] This layer is inheriting previous layer's sync mode: 1
I0717 15:03:47.149161  6447 net.cpp:462] conv2/bn_conv2/relu_0_split -> conv2/bn_conv2/relu_0_split_0
I0717 15:03:47.149170  6447 net.cpp:462] conv2/bn_conv2/relu_0_split -> conv2/bn_conv2/relu_0_split_1
I0717 15:03:47.149227  6447 net.cpp:216] Setting up conv2/bn_conv2/relu_0_split
I0717 15:03:47.149238  6447 net.cpp:222] Top shape: 8 24 56 56 (602112)
I0717 15:03:47.149245  6447 net.cpp:222] Top shape: 8 24 56 56 (602112)
I0717 15:03:47.149250  6447 net.cpp:228] Memory required for data: 889490688
I0717 15:03:47.149255  6447 layer_factory.hpp:76] Creating layer conv2_1/branch1_dwconv1
I0717 15:03:47.149269  6447 net.cpp:144] Creating Layer conv2_1/branch1_dwconv1
I0717 15:03:47.149276  6447 net.cpp:488] conv2_1/branch1_dwconv1 <- conv2/bn_conv2/relu_0_split_0
I0717 15:03:47.149281  6447 net.cpp:177] This layer is inheriting previous layer's sync mode: 1
I0717 15:03:47.149288  6447 net.cpp:462] conv2_1/branch1_dwconv1 -> conv2_1/branch1_dwconv1
I0717 15:03:47.149605  6447 net.cpp:216] Setting up conv2_1/branch1_dwconv1
I0717 15:03:47.149616  6447 net.cpp:222] Top shape: 8 24 28 28 (150528)
I0717 15:03:47.149621  6447 net.cpp:228] Memory required for data: 890092800
I0717 15:03:47.149628  6447 layer_factory.hpp:76] Creating layer conv2_1/branch1_dwconv1/bn
I0717 15:03:47.149641  6447 net.cpp:144] Creating Layer conv2_1/branch1_dwconv1/bn
I0717 15:03:47.149646  6447 net.cpp:488] conv2_1/branch1_dwconv1/bn <- conv2_1/branch1_dwconv1
I0717 15:03:47.149652  6447 net.cpp:177] This layer is inheriting previous layer's sync mode: 1
I0717 15:03:47.149660  6447 net.cpp:462] conv2_1/branch1_dwconv1/bn -> conv2_1/branch1_dwconv1/bn
I0717 15:03:47.149835  6447 cudnn_batch_norm_layer.cpp:84] Using CuDNN BN engine.
I0717 15:03:47.149922  6447 net.cpp:216] Setting up conv2_1/branch1_dwconv1/bn
I0717 15:03:47.149931  6447 net.cpp:222] Top shape: 8 24 28 28 (150528)
I0717 15:03:47.149936  6447 net.cpp:228] Memory required for data: 890694912
I0717 15:03:47.149955  6447 layer_factory.hpp:76] Creating layer conv2_1/branch1_conv2
I0717 15:03:47.149971  6447 net.cpp:144] Creating Layer conv2_1/branch1_conv2
I0717 15:03:47.149976  6447 net.cpp:488] conv2_1/branch1_conv2 <- conv2_1/branch1_dwconv1/bn
I0717 15:03:47.149981  6447 net.cpp:177] This layer is inheriting previous layer's sync mode: 1
I0717 15:03:47.149988  6447 net.cpp:462] conv2_1/branch1_conv2 -> conv2_1/branch1_conv2
I0717 15:03:47.150369  6447 net.cpp:216] Setting up conv2_1/branch1_conv2
I0717 15:03:47.150380  6447 net.cpp:222] Top shape: 8 58 28 28 (363776)
I0717 15:03:47.150385  6447 net.cpp:228] Memory required for data: 892150016
I0717 15:03:47.150393  6447 layer_factory.hpp:76] Creating layer conv2_1/branch1_conv2/bn
I0717 15:03:47.150404  6447 net.cpp:144] Creating Layer conv2_1/branch1_conv2/bn
I0717 15:03:47.150410  6447 net.cpp:488] conv2_1/branch1_conv2/bn <- conv2_1/branch1_conv2
I0717 15:03:47.150416  6447 net.cpp:177] This layer is inheriting previous layer's sync mode: 1
I0717 15:03:47.150424  6447 net.cpp:462] conv2_1/branch1_conv2/bn -> conv2_1/branch1_conv2/bn
I0717 15:03:47.150609  6447 cudnn_batch_norm_layer.cpp:84] Using CuDNN BN engine.
I0717 15:03:47.150697  6447 net.cpp:216] Setting up conv2_1/branch1_conv2/bn
I0717 15:03:47.150707  6447 net.cpp:222] Top shape: 8 58 28 28 (363776)
I0717 15:03:47.150712  6447 net.cpp:228] Memory required for data: 893605120
I0717 15:03:47.150722  6447 layer_factory.hpp:76] Creating layer conv2_1/branch1_conv2/relu
I0717 15:03:47.150732  6447 net.cpp:144] Creating Layer conv2_1/branch1_conv2/relu
I0717 15:03:47.150737  6447 net.cpp:488] conv2_1/branch1_conv2/relu <- conv2_1/branch1_conv2/bn
I0717 15:03:47.150743  6447 net.cpp:177] This layer is inheriting previous layer's sync mode: 1
I0717 15:03:47.150748  6447 net.cpp:451] conv2_1/branch1_conv2/relu -> conv2_1/branch1_conv2/bn (in-place)
I0717 15:03:47.150758  6447 net.cpp:216] Setting up conv2_1/branch1_conv2/relu
I0717 15:03:47.150764  6447 net.cpp:222] Top shape: 8 58 28 28 (363776)
I0717 15:03:47.150769  6447 net.cpp:228] Memory required for data: 895060224
I0717 15:03:47.150774  6447 layer_factory.hpp:76] Creating layer conv2_1/brach2_conv1
I0717 15:03:47.150786  6447 net.cpp:144] Creating Layer conv2_1/brach2_conv1
I0717 15:03:47.150792  6447 net.cpp:488] conv2_1/brach2_conv1 <- conv2/bn_conv2/relu_0_split_1
I0717 15:03:47.150799  6447 net.cpp:177] This layer is inheriting previous layer's sync mode: 1
I0717 15:03:47.150805  6447 net.cpp:462] conv2_1/brach2_conv1 -> conv2_1/brach2_conv1
I0717 15:03:47.151183  6447 net.cpp:216] Setting up conv2_1/brach2_conv1
I0717 15:03:47.151197  6447 net.cpp:222] Top shape: 8 24 56 56 (602112)
I0717 15:03:47.151201  6447 net.cpp:228] Memory required for data: 897468672
I0717 15:03:47.151209  6447 layer_factory.hpp:76] Creating layer conv2_1/brach2_conv1/bn
I0717 15:03:47.151218  6447 net.cpp:144] Creating Layer conv2_1/brach2_conv1/bn
I0717 15:03:47.151223  6447 net.cpp:488] conv2_1/brach2_conv1/bn <- conv2_1/brach2_conv1
I0717 15:03:47.151229  6447 net.cpp:177] This layer is inheriting previous layer's sync mode: 1
I0717 15:03:47.151239  6447 net.cpp:462] conv2_1/brach2_conv1/bn -> conv2_1/brach2_conv1/bn
I0717 15:03:47.151427  6447 cudnn_batch_norm_layer.cpp:84] Using CuDNN BN engine.
I0717 15:03:47.151515  6447 net.cpp:216] Setting up conv2_1/brach2_conv1/bn
I0717 15:03:47.151525  6447 net.cpp:222] Top shape: 8 24 56 56 (602112)
I0717 15:03:47.151528  6447 net.cpp:228] Memory required for data: 899877120
I0717 15:03:47.151540  6447 layer_factory.hpp:76] Creating layer conv2_1/brach2_conv1/relu
I0717 15:03:47.151547  6447 net.cpp:144] Creating Layer conv2_1/brach2_conv1/relu
I0717 15:03:47.151552  6447 net.cpp:488] conv2_1/brach2_conv1/relu <- conv2_1/brach2_conv1/bn
I0717 15:03:47.151557  6447 net.cpp:177] This layer is inheriting previous layer's sync mode: 1
I0717 15:03:47.151566  6447 net.cpp:451] conv2_1/brach2_conv1/relu -> conv2_1/brach2_conv1/bn (in-place)
I0717 15:03:47.151574  6447 net.cpp:216] Setting up conv2_1/brach2_conv1/relu
I0717 15:03:47.151581  6447 net.cpp:222] Top shape: 8 24 56 56 (602112)
I0717 15:03:47.151585  6447 net.cpp:228] Memory required for data: 902285568
I0717 15:03:47.151589  6447 layer_factory.hpp:76] Creating layer conv2_1/brach2_dwconv2
I0717 15:03:47.151598  6447 net.cpp:144] Creating Layer conv2_1/brach2_dwconv2
I0717 15:03:47.151603  6447 net.cpp:488] conv2_1/brach2_dwconv2 <- conv2_1/brach2_conv1/bn
I0717 15:03:47.151608  6447 net.cpp:177] This layer is inheriting previous layer's sync mode: 1
I0717 15:03:47.151616  6447 net.cpp:462] conv2_1/brach2_dwconv2 -> conv2_1/brach2_dwconv2
I0717 15:03:47.151912  6447 net.cpp:216] Setting up conv2_1/brach2_dwconv2
I0717 15:03:47.151923  6447 net.cpp:222] Top shape: 8 24 28 28 (150528)
I0717 15:03:47.151927  6447 net.cpp:228] Memory required for data: 902887680
I0717 15:03:47.151933  6447 layer_factory.hpp:76] Creating layer conv2_1/brach2_dwconv2/bn
I0717 15:03:47.151947  6447 net.cpp:144] Creating Layer conv2_1/brach2_dwconv2/bn
I0717 15:03:47.151952  6447 net.cpp:488] conv2_1/brach2_dwconv2/bn <- conv2_1/brach2_dwconv2
I0717 15:03:47.151974  6447 net.cpp:177] This layer is inheriting previous layer's sync mode: 1
I0717 15:03:47.151983  6447 net.cpp:462] conv2_1/brach2_dwconv2/bn -> conv2_1/brach2_dwconv2/bn
I0717 15:03:47.152168  6447 cudnn_batch_norm_layer.cpp:84] Using CuDNN BN engine.
I0717 15:03:47.152257  6447 net.cpp:216] Setting up conv2_1/brach2_dwconv2/bn
I0717 15:03:47.152267  6447 net.cpp:222] Top shape: 8 24 28 28 (150528)
I0717 15:03:47.152272  6447 net.cpp:228] Memory required for data: 903489792
I0717 15:03:47.152298  6447 layer_factory.hpp:76] Creating layer conv2_1/brach2_conv3
I0717 15:03:47.152323  6447 net.cpp:144] Creating Layer conv2_1/brach2_conv3
I0717 15:03:47.152328  6447 net.cpp:488] conv2_1/brach2_conv3 <- conv2_1/brach2_dwconv2/bn
I0717 15:03:47.152334  6447 net.cpp:177] This layer is inheriting previous layer's sync mode: 1
I0717 15:03:47.152343  6447 net.cpp:462] conv2_1/brach2_conv3 -> conv2_1/brach2_conv3
I0717 15:03:47.152722  6447 net.cpp:216] Setting up conv2_1/brach2_conv3
I0717 15:03:47.152734  6447 net.cpp:222] Top shape: 8 58 28 28 (363776)
I0717 15:03:47.152740  6447 net.cpp:228] Memory required for data: 904944896
I0717 15:03:47.152746  6447 layer_factory.hpp:76] Creating layer conv2_1/brach2_conv3/bn
I0717 15:03:47.152756  6447 net.cpp:144] Creating Layer conv2_1/brach2_conv3/bn
I0717 15:03:47.152761  6447 net.cpp:488] conv2_1/brach2_conv3/bn <- conv2_1/brach2_conv3
I0717 15:03:47.152767  6447 net.cpp:177] This layer is inheriting previous layer's sync mode: 1
I0717 15:03:47.152773  6447 net.cpp:462] conv2_1/brach2_conv3/bn -> conv2_1/brach2_conv3/bn
I0717 15:03:47.152947  6447 cudnn_batch_norm_layer.cpp:84] Using CuDNN BN engine.
I0717 15:03:47.153038  6447 net.cpp:216] Setting up conv2_1/brach2_conv3/bn
I0717 15:03:47.153048  6447 net.cpp:222] Top shape: 8 58 28 28 (363776)
I0717 15:03:47.153053  6447 net.cpp:228] Memory required for data: 906400000
I0717 15:03:47.153064  6447 layer_factory.hpp:76] Creating layer conv2_1/brach2_conv3/relu
I0717 15:03:47.153071  6447 net.cpp:144] Creating Layer conv2_1/brach2_conv3/relu
I0717 15:03:47.153076  6447 net.cpp:488] conv2_1/brach2_conv3/relu <- conv2_1/brach2_conv3/bn
I0717 15:03:47.153082  6447 net.cpp:177] This layer is inheriting previous layer's sync mode: 1
I0717 15:03:47.153090  6447 net.cpp:451] conv2_1/brach2_conv3/relu -> conv2_1/brach2_conv3/bn (in-place)
I0717 15:03:47.153100  6447 net.cpp:216] Setting up conv2_1/brach2_conv3/relu
I0717 15:03:47.153105  6447 net.cpp:222] Top shape: 8 58 28 28 (363776)
I0717 15:03:47.153110  6447 net.cpp:228] Memory required for data: 907855104
I0717 15:03:47.153113  6447 layer_factory.hpp:76] Creating layer conv2_1/concat
I0717 15:03:47.153120  6447 net.cpp:144] Creating Layer conv2_1/concat
I0717 15:03:47.153128  6447 net.cpp:488] conv2_1/concat <- conv2_1/branch1_conv2/bn
I0717 15:03:47.153134  6447 net.cpp:488] conv2_1/concat <- conv2_1/brach2_conv3/bn
I0717 15:03:47.153141  6447 net.cpp:177] This layer is inheriting previous layer's sync mode: 1
I0717 15:03:47.153146  6447 net.cpp:462] conv2_1/concat -> conv2_1/concat
I0717 15:03:47.153178  6447 net.cpp:216] Setting up conv2_1/concat
I0717 15:03:47.153188  6447 net.cpp:222] Top shape: 8 116 28 28 (727552)
I0717 15:03:47.153192  6447 net.cpp:228] Memory required for data: 910765312
I0717 15:03:47.153198  6447 layer_factory.hpp:76] Creating layer conv2_1
I0717 15:03:47.153208  6447 net.cpp:144] Creating Layer conv2_1
I0717 15:03:47.153211  6447 net.cpp:488] conv2_1 <- conv2_1/concat
I0717 15:03:47.153218  6447 net.cpp:177] This layer is inheriting previous layer's sync mode: 1
I0717 15:03:47.153224  6447 net.cpp:462] conv2_1 -> conv2_1
I0717 15:03:47.153291  6447 net.cpp:216] Setting up conv2_1
I0717 15:03:47.153300  6447 net.cpp:222] Top shape: 8 116 28 28 (727552)
I0717 15:03:47.153302  6447 net.cpp:228] Memory required for data: 913675520
I0717 15:03:47.153307  6447 layer_factory.hpp:76] Creating layer conv2_1_conv2_1_0_split
I0717 15:03:47.153316  6447 net.cpp:144] Creating Layer conv2_1_conv2_1_0_split
I0717 15:03:47.153322  6447 net.cpp:488] conv2_1_conv2_1_0_split <- conv2_1
I0717 15:03:47.153328  6447 net.cpp:177] This layer is inheriting previous layer's sync mode: 1
I0717 15:03:47.153333  6447 net.cpp:462] conv2_1_conv2_1_0_split -> conv2_1_conv2_1_0_split_0
I0717 15:03:47.153342  6447 net.cpp:462] conv2_1_conv2_1_0_split -> conv2_1_conv2_1_0_split_1
I0717 15:03:47.153394  6447 net.cpp:216] Setting up conv2_1_conv2_1_0_split
I0717 15:03:47.153405  6447 net.cpp:222] Top shape: 8 116 28 28 (727552)
I0717 15:03:47.153410  6447 net.cpp:222] Top shape: 8 116 28 28 (727552)
I0717 15:03:47.153412  6447 net.cpp:228] Memory required for data: 919495936
I0717 15:03:47.153415  6447 layer_factory.hpp:76] Creating layer conv2_1/SE_global_pool
I0717 15:03:47.153422  6447 net.cpp:144] Creating Layer conv2_1/SE_global_pool
I0717 15:03:47.153425  6447 net.cpp:488] conv2_1/SE_global_pool <- conv2_1_conv2_1_0_split_0
I0717 15:03:47.153429  6447 net.cpp:177] This layer is inheriting previous layer's sync mode: 1
I0717 15:03:47.153434  6447 net.cpp:462] conv2_1/SE_global_pool -> conv2_1/SE_global_pool
I0717 15:03:47.153463  6447 net.cpp:216] Setting up conv2_1/SE_global_pool
I0717 15:03:47.153473  6447 net.cpp:222] Top shape: 8 116 1 1 (928)
I0717 15:03:47.153477  6447 net.cpp:228] Memory required for data: 919499648
I0717 15:03:47.153481  6447 layer_factory.hpp:76] Creating layer conv2_1/SE_fc1
I0717 15:03:47.153502  6447 net.cpp:144] Creating Layer conv2_1/SE_fc1
I0717 15:03:47.153509  6447 net.cpp:488] conv2_1/SE_fc1 <- conv2_1/SE_global_pool
I0717 15:03:47.153515  6447 net.cpp:177] This layer is inheriting previous layer's sync mode: 1
I0717 15:03:47.153524  6447 net.cpp:462] conv2_1/SE_fc1 -> conv2_1/SE_fc1
I0717 15:03:47.153993  6447 net.cpp:216] Setting up conv2_1/SE_fc1
I0717 15:03:47.154008  6447 net.cpp:222] Top shape: 8 29 1 1 (232)
I0717 15:03:47.154013  6447 net.cpp:228] Memory required for data: 919500576
I0717 15:03:47.154021  6447 layer_factory.hpp:76] Creating layer conv2_1/SE_fc1/relu
I0717 15:03:47.154031  6447 net.cpp:144] Creating Layer conv2_1/SE_fc1/relu
I0717 15:03:47.154036  6447 net.cpp:488] conv2_1/SE_fc1/relu <- conv2_1/SE_fc1
I0717 15:03:47.154042  6447 net.cpp:177] This layer is inheriting previous layer's sync mode: 1
I0717 15:03:47.154050  6447 net.cpp:451] conv2_1/SE_fc1/relu -> conv2_1/SE_fc1 (in-place)
I0717 15:03:47.154060  6447 net.cpp:216] Setting up conv2_1/SE_fc1/relu
I0717 15:03:47.154067  6447 net.cpp:222] Top shape: 8 29 1 1 (232)
I0717 15:03:47.154072  6447 net.cpp:228] Memory required for data: 919501504
I0717 15:03:47.154076  6447 layer_factory.hpp:76] Creating layer conv2_1/SE_fc2
I0717 15:03:47.154086  6447 net.cpp:144] Creating Layer conv2_1/SE_fc2
I0717 15:03:47.154091  6447 net.cpp:488] conv2_1/SE_fc2 <- conv2_1/SE_fc1
I0717 15:03:47.154096  6447 net.cpp:177] This layer is inheriting previous layer's sync mode: 1
I0717 15:03:47.154105  6447 net.cpp:462] conv2_1/SE_fc2 -> conv2_1/SE_fc2
I0717 15:03:47.154558  6447 net.cpp:216] Setting up conv2_1/SE_fc2
I0717 15:03:47.154570  6447 net.cpp:222] Top shape: 8 116 1 1 (928)
I0717 15:03:47.154574  6447 net.cpp:228] Memory required for data: 919505216
I0717 15:03:47.154582  6447 layer_factory.hpp:76] Creating layer conv2_1/SE_weights
I0717 15:03:47.154592  6447 net.cpp:144] Creating Layer conv2_1/SE_weights
I0717 15:03:47.154597  6447 net.cpp:488] conv2_1/SE_weights <- conv2_1/SE_fc2
I0717 15:03:47.154603  6447 net.cpp:177] This layer is inheriting previous layer's sync mode: 1
I0717 15:03:47.154609  6447 net.cpp:451] conv2_1/SE_weights -> conv2_1/SE_fc2 (in-place)
I0717 15:03:47.154618  6447 net.cpp:216] Setting up conv2_1/SE_weights
I0717 15:03:47.154626  6447 net.cpp:222] Top shape: 8 116 1 1 (928)
I0717 15:03:47.154630  6447 net.cpp:228] Memory required for data: 919508928
I0717 15:03:47.154634  6447 layer_factory.hpp:76] Creating layer conv2_1/SE_weights/reshape
I0717 15:03:47.154644  6447 net.cpp:144] Creating Layer conv2_1/SE_weights/reshape
I0717 15:03:47.154649  6447 net.cpp:488] conv2_1/SE_weights/reshape <- conv2_1/SE_fc2
I0717 15:03:47.154654  6447 net.cpp:177] This layer is inheriting previous layer's sync mode: 1
I0717 15:03:47.154660  6447 net.cpp:462] conv2_1/SE_weights/reshape -> conv2_1/SE_weights/reshape
I0717 15:03:47.154696  6447 net.cpp:216] Setting up conv2_1/SE_weights/reshape
I0717 15:03:47.154706  6447 net.cpp:222] Top shape: 8 116 (928)
I0717 15:03:47.154711  6447 net.cpp:228] Memory required for data: 919512640
I0717 15:03:47.154716  6447 layer_factory.hpp:76] Creating layer conv2_1/scale
I0717 15:03:47.154726  6447 net.cpp:144] Creating Layer conv2_1/scale
I0717 15:03:47.154731  6447 net.cpp:488] conv2_1/scale <- conv2_1_conv2_1_0_split_1
I0717 15:03:47.154737  6447 net.cpp:488] conv2_1/scale <- conv2_1/SE_weights/reshape
I0717 15:03:47.154742  6447 net.cpp:177] This layer is inheriting previous layer's sync mode: 1
I0717 15:03:47.154750  6447 net.cpp:462] conv2_1/scale -> conv2_1/scale
I0717 15:03:47.154846  6447 net.cpp:216] Setting up conv2_1/scale
I0717 15:03:47.154856  6447 net.cpp:222] Top shape: 8 116 28 28 (727552)
I0717 15:03:47.154861  6447 net.cpp:228] Memory required for data: 922422848
I0717 15:03:47.154866  6447 layer_factory.hpp:76] Creating layer conv2_2/slice
I0717 15:03:47.154876  6447 net.cpp:144] Creating Layer conv2_2/slice
I0717 15:03:47.154881  6447 net.cpp:488] conv2_2/slice <- conv2_1/scale
I0717 15:03:47.154886  6447 net.cpp:177] This layer is inheriting previous layer's sync mode: 1
I0717 15:03:47.154893  6447 net.cpp:462] conv2_2/slice -> conv2_2/split1
I0717 15:03:47.154902  6447 net.cpp:462] conv2_2/slice -> conv2_2/split2
I0717 15:03:47.154981  6447 net.cpp:216] Setting up conv2_2/slice
I0717 15:03:47.154991  6447 net.cpp:222] Top shape: 8 58 28 28 (363776)
I0717 15:03:47.154997  6447 net.cpp:222] Top shape: 8 58 28 28 (363776)
I0717 15:03:47.155011  6447 net.cpp:228] Memory required for data: 925333056
I0717 15:03:47.155016  6447 layer_factory.hpp:76] Creating layer conv2_2/conv1
I0717 15:03:47.155045  6447 net.cpp:144] Creating Layer conv2_2/conv1
I0717 15:03:47.155051  6447 net.cpp:488] conv2_2/conv1 <- conv2_2/split2
I0717 15:03:47.155057  6447 net.cpp:177] This layer is inheriting previous layer's sync mode: 1
I0717 15:03:47.155064  6447 net.cpp:462] conv2_2/conv1 -> conv2_2/conv1
I0717 15:03:47.155532  6447 net.cpp:216] Setting up conv2_2/conv1
I0717 15:03:47.155544  6447 net.cpp:222] Top shape: 8 58 28 28 (363776)
I0717 15:03:47.155549  6447 net.cpp:228] Memory required for data: 926788160
I0717 15:03:47.155555  6447 layer_factory.hpp:76] Creating layer conv2_2/conv1/bn
I0717 15:03:47.155565  6447 net.cpp:144] Creating Layer conv2_2/conv1/bn
I0717 15:03:47.155570  6447 net.cpp:488] conv2_2/conv1/bn <- conv2_2/conv1
I0717 15:03:47.155575  6447 net.cpp:177] This layer is inheriting previous layer's sync mode: 1
I0717 15:03:47.155583  6447 net.cpp:462] conv2_2/conv1/bn -> conv2_2/conv1/bn
I0717 15:03:47.155751  6447 cudnn_batch_norm_layer.cpp:84] Using CuDNN BN engine.
I0717 15:03:47.155843  6447 net.cpp:216] Setting up conv2_2/conv1/bn
I0717 15:03:47.155851  6447 net.cpp:222] Top shape: 8 58 28 28 (363776)
I0717 15:03:47.155856  6447 net.cpp:228] Memory required for data: 928243264
I0717 15:03:47.155867  6447 layer_factory.hpp:76] Creating layer conv2_2/conv1/relu
I0717 15:03:47.155874  6447 net.cpp:144] Creating Layer conv2_2/conv1/relu
I0717 15:03:47.155880  6447 net.cpp:488] conv2_2/conv1/relu <- conv2_2/conv1/bn
I0717 15:03:47.155885  6447 net.cpp:177] This layer is inheriting previous layer's sync mode: 1
I0717 15:03:47.155894  6447 net.cpp:451] conv2_2/conv1/relu -> conv2_2/conv1/bn (in-place)
I0717 15:03:47.155902  6447 net.cpp:216] Setting up conv2_2/conv1/relu
I0717 15:03:47.155908  6447 net.cpp:222] Top shape: 8 58 28 28 (363776)
I0717 15:03:47.155912  6447 net.cpp:228] Memory required for data: 929698368
I0717 15:03:47.155917  6447 layer_factory.hpp:76] Creating layer conv2_2/dwconv2
I0717 15:03:47.155925  6447 net.cpp:144] Creating Layer conv2_2/dwconv2
I0717 15:03:47.155930  6447 net.cpp:488] conv2_2/dwconv2 <- conv2_2/conv1/bn
I0717 15:03:47.155936  6447 net.cpp:177] This layer is inheriting previous layer's sync mode: 1
I0717 15:03:47.155949  6447 net.cpp:462] conv2_2/dwconv2 -> conv2_2/dwconv2
I0717 15:03:47.156200  6447 net.cpp:216] Setting up conv2_2/dwconv2
I0717 15:03:47.156210  6447 net.cpp:222] Top shape: 8 58 28 28 (363776)
I0717 15:03:47.156213  6447 net.cpp:228] Memory required for data: 931153472
I0717 15:03:47.156217  6447 layer_factory.hpp:76] Creating layer conv2_2/dwconv2/bn
I0717 15:03:47.156224  6447 net.cpp:144] Creating Layer conv2_2/dwconv2/bn
I0717 15:03:47.156229  6447 net.cpp:488] conv2_2/dwconv2/bn <- conv2_2/dwconv2
I0717 15:03:47.156231  6447 net.cpp:177] This layer is inheriting previous layer's sync mode: 1
I0717 15:03:47.156237  6447 net.cpp:462] conv2_2/dwconv2/bn -> conv2_2/dwconv2/bn
I0717 15:03:47.156353  6447 cudnn_batch_norm_layer.cpp:84] Using CuDNN BN engine.
I0717 15:03:47.156414  6447 net.cpp:216] Setting up conv2_2/dwconv2/bn
I0717 15:03:47.156419  6447 net.cpp:222] Top shape: 8 58 28 28 (363776)
I0717 15:03:47.156421  6447 net.cpp:228] Memory required for data: 932608576
I0717 15:03:47.156428  6447 layer_factory.hpp:76] Creating layer conv2_2/conv3
I0717 15:03:47.156437  6447 net.cpp:144] Creating Layer conv2_2/conv3
I0717 15:03:47.156440  6447 net.cpp:488] conv2_2/conv3 <- conv2_2/dwconv2/bn
I0717 15:03:47.156445  6447 net.cpp:177] This layer is inheriting previous layer's sync mode: 1
I0717 15:03:47.156448  6447 net.cpp:462] conv2_2/conv3 -> conv2_2/conv3
I0717 15:03:47.156765  6447 net.cpp:216] Setting up conv2_2/conv3
I0717 15:03:47.156774  6447 net.cpp:222] Top shape: 8 58 28 28 (363776)
I0717 15:03:47.156776  6447 net.cpp:228] Memory required for data: 934063680
I0717 15:03:47.156780  6447 layer_factory.hpp:76] Creating layer conv2_2/conv3/bn
I0717 15:03:47.156787  6447 net.cpp:144] Creating Layer conv2_2/conv3/bn
I0717 15:03:47.156790  6447 net.cpp:488] conv2_2/conv3/bn <- conv2_2/conv3
I0717 15:03:47.156795  6447 net.cpp:177] This layer is inheriting previous layer's sync mode: 1
I0717 15:03:47.156800  6447 net.cpp:462] conv2_2/conv3/bn -> conv2_2/conv3/bn
I0717 15:03:47.156951  6447 cudnn_batch_norm_layer.cpp:84] Using CuDNN BN engine.
I0717 15:03:47.157028  6447 net.cpp:216] Setting up conv2_2/conv3/bn
I0717 15:03:47.157034  6447 net.cpp:222] Top shape: 8 58 28 28 (363776)
I0717 15:03:47.157037  6447 net.cpp:228] Memory required for data: 935518784
I0717 15:03:47.157052  6447 layer_factory.hpp:76] Creating layer conv2_2/conv3/relu
I0717 15:03:47.157058  6447 net.cpp:144] Creating Layer conv2_2/conv3/relu
I0717 15:03:47.157061  6447 net.cpp:488] conv2_2/conv3/relu <- conv2_2/conv3/bn
I0717 15:03:47.157065  6447 net.cpp:177] This layer is inheriting previous layer's sync mode: 1
I0717 15:03:47.157070  6447 net.cpp:451] conv2_2/conv3/relu -> conv2_2/conv3/bn (in-place)
I0717 15:03:47.157076  6447 net.cpp:216] Setting up conv2_2/conv3/relu
I0717 15:03:47.157080  6447 net.cpp:222] Top shape: 8 58 28 28 (363776)
I0717 15:03:47.157083  6447 net.cpp:228] Memory required for data: 936973888
I0717 15:03:47.157085  6447 layer_factory.hpp:76] Creating layer conv2_2/concat
I0717 15:03:47.157090  6447 net.cpp:144] Creating Layer conv2_2/concat
I0717 15:03:47.157094  6447 net.cpp:488] conv2_2/concat <- conv2_2/split1
I0717 15:03:47.157097  6447 net.cpp:488] conv2_2/concat <- conv2_2/conv3/bn
I0717 15:03:47.157100  6447 net.cpp:177] This layer is inheriting previous layer's sync mode: 1
I0717 15:03:47.157126  6447 net.cpp:462] conv2_2/concat -> conv2_2/concat
I0717 15:03:47.157150  6447 net.cpp:216] Setting up conv2_2/concat
I0717 15:03:47.157155  6447 net.cpp:222] Top shape: 8 116 28 28 (727552)
I0717 15:03:47.157158  6447 net.cpp:228] Memory required for data: 939884096
I0717 15:03:47.157161  6447 layer_factory.hpp:76] Creating layer conv2_2
I0717 15:03:47.157172  6447 net.cpp:144] Creating Layer conv2_2
I0717 15:03:47.157176  6447 net.cpp:488] conv2_2 <- conv2_2/concat
I0717 15:03:47.157178  6447 net.cpp:177] This layer is inheriting previous layer's sync mode: 1
I0717 15:03:47.157184  6447 net.cpp:462] conv2_2 -> conv2_2
I0717 15:03:47.157235  6447 net.cpp:216] Setting up conv2_2
I0717 15:03:47.157241  6447 net.cpp:222] Top shape: 8 116 28 28 (727552)
I0717 15:03:47.157243  6447 net.cpp:228] Memory required for data: 942794304
I0717 15:03:47.157246  6447 layer_factory.hpp:76] Creating layer conv2_2_conv2_2_0_split
I0717 15:03:47.157253  6447 net.cpp:144] Creating Layer conv2_2_conv2_2_0_split
I0717 15:03:47.157256  6447 net.cpp:488] conv2_2_conv2_2_0_split <- conv2_2
I0717 15:03:47.157259  6447 net.cpp:177] This layer is inheriting previous layer's sync mode: 1
I0717 15:03:47.157263  6447 net.cpp:462] conv2_2_conv2_2_0_split -> conv2_2_conv2_2_0_split_0
I0717 15:03:47.157269  6447 net.cpp:462] conv2_2_conv2_2_0_split -> conv2_2_conv2_2_0_split_1
I0717 15:03:47.157304  6447 net.cpp:216] Setting up conv2_2_conv2_2_0_split
I0717 15:03:47.157308  6447 net.cpp:222] Top shape: 8 116 28 28 (727552)
I0717 15:03:47.157312  6447 net.cpp:222] Top shape: 8 116 28 28 (727552)
I0717 15:03:47.157315  6447 net.cpp:228] Memory required for data: 948614720
I0717 15:03:47.157317  6447 layer_factory.hpp:76] Creating layer conv2_2/SE_global_pool
I0717 15:03:47.157325  6447 net.cpp:144] Creating Layer conv2_2/SE_global_pool
I0717 15:03:47.157327  6447 net.cpp:488] conv2_2/SE_global_pool <- conv2_2_conv2_2_0_split_0
I0717 15:03:47.157331  6447 net.cpp:177] This layer is inheriting previous layer's sync mode: 1
I0717 15:03:47.157335  6447 net.cpp:462] conv2_2/SE_global_pool -> conv2_2/SE_global_pool
I0717 15:03:47.157359  6447 net.cpp:216] Setting up conv2_2/SE_global_pool
I0717 15:03:47.157366  6447 net.cpp:222] Top shape: 8 116 1 1 (928)
I0717 15:03:47.157367  6447 net.cpp:228] Memory required for data: 948618432
I0717 15:03:47.157371  6447 layer_factory.hpp:76] Creating layer conv2_2/SE_fc1
I0717 15:03:47.157379  6447 net.cpp:144] Creating Layer conv2_2/SE_fc1
I0717 15:03:47.157382  6447 net.cpp:488] conv2_2/SE_fc1 <- conv2_2/SE_global_pool
I0717 15:03:47.157387  6447 net.cpp:177] This layer is inheriting previous layer's sync mode: 1
I0717 15:03:47.157390  6447 net.cpp:462] conv2_2/SE_fc1 -> conv2_2/SE_fc1
I0717 15:03:47.157680  6447 net.cpp:216] Setting up conv2_2/SE_fc1
I0717 15:03:47.157690  6447 net.cpp:222] Top shape: 8 29 1 1 (232)
I0717 15:03:47.157691  6447 net.cpp:228] Memory required for data: 948619360
I0717 15:03:47.157696  6447 layer_factory.hpp:76] Creating layer conv2_2/SE_fc1/relu
I0717 15:03:47.157701  6447 net.cpp:144] Creating Layer conv2_2/SE_fc1/relu
I0717 15:03:47.157704  6447 net.cpp:488] conv2_2/SE_fc1/relu <- conv2_2/SE_fc1
I0717 15:03:47.157707  6447 net.cpp:177] This layer is inheriting previous layer's sync mode: 1
I0717 15:03:47.157711  6447 net.cpp:451] conv2_2/SE_fc1/relu -> conv2_2/SE_fc1 (in-place)
I0717 15:03:47.157716  6447 net.cpp:216] Setting up conv2_2/SE_fc1/relu
I0717 15:03:47.157721  6447 net.cpp:222] Top shape: 8 29 1 1 (232)
I0717 15:03:47.157723  6447 net.cpp:228] Memory required for data: 948620288
I0717 15:03:47.157726  6447 layer_factory.hpp:76] Creating layer conv2_2/SE_fc2
I0717 15:03:47.157733  6447 net.cpp:144] Creating Layer conv2_2/SE_fc2
I0717 15:03:47.157737  6447 net.cpp:488] conv2_2/SE_fc2 <- conv2_2/SE_fc1
I0717 15:03:47.157739  6447 net.cpp:177] This layer is inheriting previous layer's sync mode: 1
I0717 15:03:47.157747  6447 net.cpp:462] conv2_2/SE_fc2 -> conv2_2/SE_fc2
I0717 15:03:47.158067  6447 net.cpp:216] Setting up conv2_2/SE_fc2
I0717 15:03:47.158077  6447 net.cpp:222] Top shape: 8 116 1 1 (928)
I0717 15:03:47.158078  6447 net.cpp:228] Memory required for data: 948624000
I0717 15:03:47.158083  6447 layer_factory.hpp:76] Creating layer conv2_2/SE_weights
I0717 15:03:47.158090  6447 net.cpp:144] Creating Layer conv2_2/SE_weights
I0717 15:03:47.158094  6447 net.cpp:488] conv2_2/SE_weights <- conv2_2/SE_fc2
I0717 15:03:47.158097  6447 net.cpp:177] This layer is inheriting previous layer's sync mode: 1
I0717 15:03:47.158102  6447 net.cpp:451] conv2_2/SE_weights -> conv2_2/SE_fc2 (in-place)
I0717 15:03:47.158107  6447 net.cpp:216] Setting up conv2_2/SE_weights
I0717 15:03:47.158112  6447 net.cpp:222] Top shape: 8 116 1 1 (928)
I0717 15:03:47.158114  6447 net.cpp:228] Memory required for data: 948627712
I0717 15:03:47.158118  6447 layer_factory.hpp:76] Creating layer conv2_2/SE_weights/reshape
I0717 15:03:47.158123  6447 net.cpp:144] Creating Layer conv2_2/SE_weights/reshape
I0717 15:03:47.158125  6447 net.cpp:488] conv2_2/SE_weights/reshape <- conv2_2/SE_fc2
I0717 15:03:47.158128  6447 net.cpp:177] This layer is inheriting previous layer's sync mode: 1
I0717 15:03:47.158134  6447 net.cpp:462] conv2_2/SE_weights/reshape -> conv2_2/SE_weights/reshape
I0717 15:03:47.158160  6447 net.cpp:216] Setting up conv2_2/SE_weights/reshape
I0717 15:03:47.158166  6447 net.cpp:222] Top shape: 8 116 (928)
I0717 15:03:47.158169  6447 net.cpp:228] Memory required for data: 948631424
I0717 15:03:47.158172  6447 layer_factory.hpp:76] Creating layer conv2_2/scale
I0717 15:03:47.158180  6447 net.cpp:144] Creating Layer conv2_2/scale
I0717 15:03:47.158183  6447 net.cpp:488] conv2_2/scale <- conv2_2_conv2_2_0_split_1
I0717 15:03:47.158187  6447 net.cpp:488] conv2_2/scale <- conv2_2/SE_weights/reshape
I0717 15:03:47.158191  6447 net.cpp:177] This layer is inheriting previous layer's sync mode: 1
I0717 15:03:47.158197  6447 net.cpp:462] conv2_2/scale -> conv2_2/scale
I0717 15:03:47.158288  6447 net.cpp:216] Setting up conv2_2/scale
I0717 15:03:47.158294  6447 net.cpp:222] Top shape: 8 116 28 28 (727552)
I0717 15:03:47.158298  6447 net.cpp:228] Memory required for data: 951541632
I0717 15:03:47.158300  6447 layer_factory.hpp:76] Creating layer conv2_3/slice
I0717 15:03:47.158308  6447 net.cpp:144] Creating Layer conv2_3/slice
I0717 15:03:47.158310  6447 net.cpp:488] conv2_3/slice <- conv2_2/scale
I0717 15:03:47.158313  6447 net.cpp:177] This layer is inheriting previous layer's sync mode: 1
I0717 15:03:47.158319  6447 net.cpp:462] conv2_3/slice -> conv2_3/split1
I0717 15:03:47.158324  6447 net.cpp:462] conv2_3/slice -> conv2_3/split2
I0717 15:03:47.158361  6447 net.cpp:216] Setting up conv2_3/slice
I0717 15:03:47.158367  6447 net.cpp:222] Top shape: 8 58 28 28 (363776)
I0717 15:03:47.158370  6447 net.cpp:222] Top shape: 8 58 28 28 (363776)
I0717 15:03:47.158373  6447 net.cpp:228] Memory required for data: 954451840
I0717 15:03:47.158376  6447 layer_factory.hpp:76] Creating layer conv2_3/conv1
I0717 15:03:47.158385  6447 net.cpp:144] Creating Layer conv2_3/conv1
I0717 15:03:47.158388  6447 net.cpp:488] conv2_3/conv1 <- conv2_3/split2
I0717 15:03:47.158391  6447 net.cpp:177] This layer is inheriting previous layer's sync mode: 1
I0717 15:03:47.158396  6447 net.cpp:462] conv2_3/conv1 -> conv2_3/conv1
I0717 15:03:47.158689  6447 net.cpp:216] Setting up conv2_3/conv1
I0717 15:03:47.158696  6447 net.cpp:222] Top shape: 8 58 28 28 (363776)
I0717 15:03:47.158699  6447 net.cpp:228] Memory required for data: 955906944
I0717 15:03:47.158704  6447 layer_factory.hpp:76] Creating layer conv2_3/conv1/bn
I0717 15:03:47.158711  6447 net.cpp:144] Creating Layer conv2_3/conv1/bn
I0717 15:03:47.158715  6447 net.cpp:488] conv2_3/conv1/bn <- conv2_3/conv1
I0717 15:03:47.158718  6447 net.cpp:177] This layer is inheriting previous layer's sync mode: 1
I0717 15:03:47.158722  6447 net.cpp:462] conv2_3/conv1/bn -> conv2_3/conv1/bn
I0717 15:03:47.158843  6447 cudnn_batch_norm_layer.cpp:84] Using CuDNN BN engine.
I0717 15:03:47.158903  6447 net.cpp:216] Setting up conv2_3/conv1/bn
I0717 15:03:47.158910  6447 net.cpp:222] Top shape: 8 58 28 28 (363776)
I0717 15:03:47.158911  6447 net.cpp:228] Memory required for data: 957362048
I0717 15:03:47.158918  6447 layer_factory.hpp:76] Creating layer conv2_3/conv1/relu
I0717 15:03:47.158923  6447 net.cpp:144] Creating Layer conv2_3/conv1/relu
I0717 15:03:47.158927  6447 net.cpp:488] conv2_3/conv1/relu <- conv2_3/conv1/bn
I0717 15:03:47.158931  6447 net.cpp:177] This layer is inheriting previous layer's sync mode: 1
I0717 15:03:47.158933  6447 net.cpp:451] conv2_3/conv1/relu -> conv2_3/conv1/bn (in-place)
I0717 15:03:47.158946  6447 net.cpp:216] Setting up conv2_3/conv1/relu
I0717 15:03:47.158949  6447 net.cpp:222] Top shape: 8 58 28 28 (363776)
I0717 15:03:47.158952  6447 net.cpp:228] Memory required for data: 958817152
I0717 15:03:47.158972  6447 layer_factory.hpp:76] Creating layer conv2_3/dwconv2
I0717 15:03:47.158980  6447 net.cpp:144] Creating Layer conv2_3/dwconv2
I0717 15:03:47.158983  6447 net.cpp:488] conv2_3/dwconv2 <- conv2_3/conv1/bn
I0717 15:03:47.158987  6447 net.cpp:177] This layer is inheriting previous layer's sync mode: 1
I0717 15:03:47.158990  6447 net.cpp:462] conv2_3/dwconv2 -> conv2_3/dwconv2
I0717 15:03:47.159229  6447 net.cpp:216] Setting up conv2_3/dwconv2
I0717 15:03:47.159236  6447 net.cpp:222] Top shape: 8 58 28 28 (363776)
I0717 15:03:47.159238  6447 net.cpp:228] Memory required for data: 960272256
I0717 15:03:47.159243  6447 layer_factory.hpp:76] Creating layer conv2_3/dwconv2/bn
I0717 15:03:47.159251  6447 net.cpp:144] Creating Layer conv2_3/dwconv2/bn
I0717 15:03:47.159255  6447 net.cpp:488] conv2_3/dwconv2/bn <- conv2_3/dwconv2
I0717 15:03:47.159258  6447 net.cpp:177] This layer is inheriting previous layer's sync mode: 1
I0717 15:03:47.159262  6447 net.cpp:462] conv2_3/dwconv2/bn -> conv2_3/dwconv2/bn
I0717 15:03:47.159411  6447 cudnn_batch_norm_layer.cpp:84] Using CuDNN BN engine.
I0717 15:03:47.159471  6447 net.cpp:216] Setting up conv2_3/dwconv2/bn
I0717 15:03:47.159476  6447 net.cpp:222] Top shape: 8 58 28 28 (363776)
I0717 15:03:47.159478  6447 net.cpp:228] Memory required for data: 961727360
I0717 15:03:47.159485  6447 layer_factory.hpp:76] Creating layer conv2_3/conv3
I0717 15:03:47.159494  6447 net.cpp:144] Creating Layer conv2_3/conv3
I0717 15:03:47.159497  6447 net.cpp:488] conv2_3/conv3 <- conv2_3/dwconv2/bn
I0717 15:03:47.159502  6447 net.cpp:177] This layer is inheriting previous layer's sync mode: 1
I0717 15:03:47.159505  6447 net.cpp:462] conv2_3/conv3 -> conv2_3/conv3
I0717 15:03:47.159797  6447 net.cpp:216] Setting up conv2_3/conv3
I0717 15:03:47.159806  6447 net.cpp:222] Top shape: 8 58 28 28 (363776)
I0717 15:03:47.159808  6447 net.cpp:228] Memory required for data: 963182464
I0717 15:03:47.159812  6447 layer_factory.hpp:76] Creating layer conv2_3/conv3/bn
I0717 15:03:47.159821  6447 net.cpp:144] Creating Layer conv2_3/conv3/bn
I0717 15:03:47.159823  6447 net.cpp:488] conv2_3/conv3/bn <- conv2_3/conv3
I0717 15:03:47.159826  6447 net.cpp:177] This layer is inheriting previous layer's sync mode: 1
I0717 15:03:47.159832  6447 net.cpp:462] conv2_3/conv3/bn -> conv2_3/conv3/bn
I0717 15:03:47.160024  6447 cudnn_batch_norm_layer.cpp:84] Using CuDNN BN engine.
I0717 15:03:47.160117  6447 net.cpp:216] Setting up conv2_3/conv3/bn
I0717 15:03:47.160127  6447 net.cpp:222] Top shape: 8 58 28 28 (363776)
I0717 15:03:47.160131  6447 net.cpp:228] Memory required for data: 964637568
I0717 15:03:47.160142  6447 layer_factory.hpp:76] Creating layer conv2_3/conv3/relu
I0717 15:03:47.160149  6447 net.cpp:144] Creating Layer conv2_3/conv3/relu
I0717 15:03:47.160156  6447 net.cpp:488] conv2_3/conv3/relu <- conv2_3/conv3/bn
I0717 15:03:47.160161  6447 net.cpp:177] This layer is inheriting previous layer's sync mode: 1
I0717 15:03:47.160166  6447 net.cpp:451] conv2_3/conv3/relu -> conv2_3/conv3/bn (in-place)
I0717 15:03:47.160176  6447 net.cpp:216] Setting up conv2_3/conv3/relu
I0717 15:03:47.160181  6447 net.cpp:222] Top shape: 8 58 28 28 (363776)
I0717 15:03:47.160184  6447 net.cpp:228] Memory required for data: 966092672
I0717 15:03:47.160203  6447 layer_factory.hpp:76] Creating layer conv2_3/concat
I0717 15:03:47.160210  6447 net.cpp:144] Creating Layer conv2_3/concat
I0717 15:03:47.160213  6447 net.cpp:488] conv2_3/concat <- conv2_3/split1
I0717 15:03:47.160218  6447 net.cpp:488] conv2_3/concat <- conv2_3/conv3/bn
I0717 15:03:47.160223  6447 net.cpp:177] This layer is inheriting previous layer's sync mode: 1
I0717 15:03:47.160229  6447 net.cpp:462] conv2_3/concat -> conv2_3/concat
I0717 15:03:47.160261  6447 net.cpp:216] Setting up conv2_3/concat
I0717 15:03:47.160269  6447 net.cpp:222] Top shape: 8 116 28 28 (727552)
I0717 15:03:47.160272  6447 net.cpp:228] Memory required for data: 969002880
I0717 15:03:47.160275  6447 layer_factory.hpp:76] Creating layer conv2_3
I0717 15:03:47.160281  6447 net.cpp:144] Creating Layer conv2_3
I0717 15:03:47.160286  6447 net.cpp:488] conv2_3 <- conv2_3/concat
I0717 15:03:47.160291  6447 net.cpp:177] This layer is inheriting previous layer's sync mode: 1
I0717 15:03:47.160300  6447 net.cpp:462] conv2_3 -> conv2_3
I0717 15:03:47.160382  6447 net.cpp:216] Setting up conv2_3
I0717 15:03:47.160392  6447 net.cpp:222] Top shape: 8 116 28 28 (727552)
I0717 15:03:47.160398  6447 net.cpp:228] Memory required for data: 971913088
I0717 15:03:47.160403  6447 layer_factory.hpp:76] Creating layer conv2_3_conv2_3_0_split
I0717 15:03:47.160413  6447 net.cpp:144] Creating Layer conv2_3_conv2_3_0_split
I0717 15:03:47.160418  6447 net.cpp:488] conv2_3_conv2_3_0_split <- conv2_3
I0717 15:03:47.160423  6447 net.cpp:177] This layer is inheriting previous layer's sync mode: 1
I0717 15:03:47.160429  6447 net.cpp:462] conv2_3_conv2_3_0_split -> conv2_3_conv2_3_0_split_0
I0717 15:03:47.160440  6447 net.cpp:462] conv2_3_conv2_3_0_split -> conv2_3_conv2_3_0_split_1
I0717 15:03:47.161393  6447 net.cpp:216] Setting up conv2_3_conv2_3_0_split
I0717 15:03:47.161406  6447 net.cpp:222] Top shape: 8 116 28 28 (727552)
I0717 15:03:47.161412  6447 net.cpp:222] Top shape: 8 116 28 28 (727552)
I0717 15:03:47.161417  6447 net.cpp:228] Memory required for data: 977733504
I0717 15:03:47.161422  6447 layer_factory.hpp:76] Creating layer conv2_3/SE_global_pool
I0717 15:03:47.161432  6447 net.cpp:144] Creating Layer conv2_3/SE_global_pool
I0717 15:03:47.161437  6447 net.cpp:488] conv2_3/SE_global_pool <- conv2_3_conv2_3_0_split_0
I0717 15:03:47.161442  6447 net.cpp:177] This layer is inheriting previous layer's sync mode: 1
I0717 15:03:47.161448  6447 net.cpp:462] conv2_3/SE_global_pool -> conv2_3/SE_global_pool
I0717 15:03:47.161481  6447 net.cpp:216] Setting up conv2_3/SE_global_pool
I0717 15:03:47.161489  6447 net.cpp:222] Top shape: 8 116 1 1 (928)
I0717 15:03:47.161494  6447 net.cpp:228] Memory required for data: 977737216
I0717 15:03:47.161499  6447 layer_factory.hpp:76] Creating layer conv2_3/SE_fc1
I0717 15:03:47.161514  6447 net.cpp:144] Creating Layer conv2_3/SE_fc1
I0717 15:03:47.161518  6447 net.cpp:488] conv2_3/SE_fc1 <- conv2_3/SE_global_pool
I0717 15:03:47.161525  6447 net.cpp:177] This layer is inheriting previous layer's sync mode: 1
I0717 15:03:47.161530  6447 net.cpp:462] conv2_3/SE_fc1 -> conv2_3/SE_fc1
I0717 15:03:47.161996  6447 net.cpp:216] Setting up conv2_3/SE_fc1
I0717 15:03:47.162009  6447 net.cpp:222] Top shape: 8 29 1 1 (232)
I0717 15:03:47.162014  6447 net.cpp:228] Memory required for data: 977738144
I0717 15:03:47.162020  6447 layer_factory.hpp:76] Creating layer conv2_3/SE_fc1/relu
I0717 15:03:47.162029  6447 net.cpp:144] Creating Layer conv2_3/SE_fc1/relu
I0717 15:03:47.162034  6447 net.cpp:488] conv2_3/SE_fc1/relu <- conv2_3/SE_fc1
I0717 15:03:47.162039  6447 net.cpp:177] This layer is inheriting previous layer's sync mode: 1
I0717 15:03:47.162045  6447 net.cpp:451] conv2_3/SE_fc1/relu -> conv2_3/SE_fc1 (in-place)
I0717 15:03:47.162053  6447 net.cpp:216] Setting up conv2_3/SE_fc1/relu
I0717 15:03:47.162060  6447 net.cpp:222] Top shape: 8 29 1 1 (232)
I0717 15:03:47.162065  6447 net.cpp:228] Memory required for data: 977739072
I0717 15:03:47.162070  6447 layer_factory.hpp:76] Creating layer conv2_3/SE_fc2
I0717 15:03:47.162081  6447 net.cpp:144] Creating Layer conv2_3/SE_fc2
I0717 15:03:47.162086  6447 net.cpp:488] conv2_3/SE_fc2 <- conv2_3/SE_fc1
I0717 15:03:47.162091  6447 net.cpp:177] This layer is inheriting previous layer's sync mode: 1
I0717 15:03:47.162101  6447 net.cpp:462] conv2_3/SE_fc2 -> conv2_3/SE_fc2
I0717 15:03:47.162487  6447 net.cpp:216] Setting up conv2_3/SE_fc2
I0717 15:03:47.162498  6447 net.cpp:222] Top shape: 8 116 1 1 (928)
I0717 15:03:47.162501  6447 net.cpp:228] Memory required for data: 977742784
I0717 15:03:47.162523  6447 layer_factory.hpp:76] Creating layer conv2_3/SE_weights
I0717 15:03:47.162530  6447 net.cpp:144] Creating Layer conv2_3/SE_weights
I0717 15:03:47.162533  6447 net.cpp:488] conv2_3/SE_weights <- conv2_3/SE_fc2
I0717 15:03:47.162537  6447 net.cpp:177] This layer is inheriting previous layer's sync mode: 1
I0717 15:03:47.162541  6447 net.cpp:451] conv2_3/SE_weights -> conv2_3/SE_fc2 (in-place)
I0717 15:03:47.162549  6447 net.cpp:216] Setting up conv2_3/SE_weights
I0717 15:03:47.162552  6447 net.cpp:222] Top shape: 8 116 1 1 (928)
I0717 15:03:47.162555  6447 net.cpp:228] Memory required for data: 977746496
I0717 15:03:47.162557  6447 layer_factory.hpp:76] Creating layer conv2_3/SE_weights/reshape
I0717 15:03:47.162564  6447 net.cpp:144] Creating Layer conv2_3/SE_weights/reshape
I0717 15:03:47.162566  6447 net.cpp:488] conv2_3/SE_weights/reshape <- conv2_3/SE_fc2
I0717 15:03:47.162570  6447 net.cpp:177] This layer is inheriting previous layer's sync mode: 1
I0717 15:03:47.162576  6447 net.cpp:462] conv2_3/SE_weights/reshape -> conv2_3/SE_weights/reshape
I0717 15:03:47.166957  6447 net.cpp:216] Setting up conv2_3/SE_weights/reshape
I0717 15:03:47.166967  6447 net.cpp:222] Top shape: 8 116 (928)
I0717 15:03:47.166970  6447 net.cpp:228] Memory required for data: 977750208
I0717 15:03:47.166973  6447 layer_factory.hpp:76] Creating layer conv2_3/scale
I0717 15:03:47.166996  6447 net.cpp:144] Creating Layer conv2_3/scale
I0717 15:03:47.166999  6447 net.cpp:488] conv2_3/scale <- conv2_3_conv2_3_0_split_1
I0717 15:03:47.167004  6447 net.cpp:488] conv2_3/scale <- conv2_3/SE_weights/reshape
I0717 15:03:47.167007  6447 net.cpp:177] This layer is inheriting previous layer's sync mode: 1
I0717 15:03:47.167013  6447 net.cpp:462] conv2_3/scale -> conv2_3/scale
I0717 15:03:47.167095  6447 net.cpp:216] Setting up conv2_3/scale
I0717 15:03:47.167102  6447 net.cpp:222] Top shape: 8 116 28 28 (727552)
I0717 15:03:47.167105  6447 net.cpp:228] Memory required for data: 980660416
I0717 15:03:47.167109  6447 layer_factory.hpp:76] Creating layer conv2_4/slice
I0717 15:03:47.167116  6447 net.cpp:144] Creating Layer conv2_4/slice
I0717 15:03:47.167119  6447 net.cpp:488] conv2_4/slice <- conv2_3/scale
I0717 15:03:47.167124  6447 net.cpp:177] This layer is inheriting previous layer's sync mode: 1
I0717 15:03:47.167129  6447 net.cpp:462] conv2_4/slice -> conv2_4/split1
I0717 15:03:47.167135  6447 net.cpp:462] conv2_4/slice -> conv2_4/split2
I0717 15:03:47.167174  6447 net.cpp:216] Setting up conv2_4/slice
I0717 15:03:47.167181  6447 net.cpp:222] Top shape: 8 58 28 28 (363776)
I0717 15:03:47.167183  6447 net.cpp:222] Top shape: 8 58 28 28 (363776)
I0717 15:03:47.167186  6447 net.cpp:228] Memory required for data: 983570624
I0717 15:03:47.167189  6447 layer_factory.hpp:76] Creating layer conv2_4/conv1
I0717 15:03:47.167201  6447 net.cpp:144] Creating Layer conv2_4/conv1
I0717 15:03:47.167204  6447 net.cpp:488] conv2_4/conv1 <- conv2_4/split2
I0717 15:03:47.167207  6447 net.cpp:177] This layer is inheriting previous layer's sync mode: 1
I0717 15:03:47.167212  6447 net.cpp:462] conv2_4/conv1 -> conv2_4/conv1
I0717 15:03:47.167526  6447 net.cpp:216] Setting up conv2_4/conv1
I0717 15:03:47.167536  6447 net.cpp:222] Top shape: 8 58 28 28 (363776)
I0717 15:03:47.167537  6447 net.cpp:228] Memory required for data: 985025728
I0717 15:03:47.167558  6447 layer_factory.hpp:76] Creating layer conv2_4/conv1/bn
I0717 15:03:47.167567  6447 net.cpp:144] Creating Layer conv2_4/conv1/bn
I0717 15:03:47.167570  6447 net.cpp:488] conv2_4/conv1/bn <- conv2_4/conv1
I0717 15:03:47.167574  6447 net.cpp:177] This layer is inheriting previous layer's sync mode: 1
I0717 15:03:47.167578  6447 net.cpp:462] conv2_4/conv1/bn -> conv2_4/conv1/bn
I0717 15:03:47.167706  6447 cudnn_batch_norm_layer.cpp:84] Using CuDNN BN engine.
I0717 15:03:47.167769  6447 net.cpp:216] Setting up conv2_4/conv1/bn
I0717 15:03:47.167775  6447 net.cpp:222] Top shape: 8 58 28 28 (363776)
I0717 15:03:47.167778  6447 net.cpp:228] Memory required for data: 986480832
I0717 15:03:47.167784  6447 layer_factory.hpp:76] Creating layer conv2_4/conv1/relu
I0717 15:03:47.167790  6447 net.cpp:144] Creating Layer conv2_4/conv1/relu
I0717 15:03:47.167793  6447 net.cpp:488] conv2_4/conv1/relu <- conv2_4/conv1/bn
I0717 15:03:47.167798  6447 net.cpp:177] This layer is inheriting previous layer's sync mode: 1
I0717 15:03:47.167800  6447 net.cpp:451] conv2_4/conv1/relu -> conv2_4/conv1/bn (in-place)
I0717 15:03:47.167806  6447 net.cpp:216] Setting up conv2_4/conv1/relu
I0717 15:03:47.167810  6447 net.cpp:222] Top shape: 8 58 28 28 (363776)
I0717 15:03:47.167814  6447 net.cpp:228] Memory required for data: 987935936
I0717 15:03:47.167816  6447 layer_factory.hpp:76] Creating layer conv2_4/dwconv2
I0717 15:03:47.167824  6447 net.cpp:144] Creating Layer conv2_4/dwconv2
I0717 15:03:47.167827  6447 net.cpp:488] conv2_4/dwconv2 <- conv2_4/conv1/bn
I0717 15:03:47.167830  6447 net.cpp:177] This layer is inheriting previous layer's sync mode: 1
I0717 15:03:47.167834  6447 net.cpp:462] conv2_4/dwconv2 -> conv2_4/dwconv2
I0717 15:03:47.168077  6447 net.cpp:216] Setting up conv2_4/dwconv2
I0717 15:03:47.168085  6447 net.cpp:222] Top shape: 8 58 28 28 (363776)
I0717 15:03:47.168088  6447 net.cpp:228] Memory required for data: 989391040
I0717 15:03:47.168092  6447 layer_factory.hpp:76] Creating layer conv2_4/dwconv2/bn
I0717 15:03:47.168102  6447 net.cpp:144] Creating Layer conv2_4/dwconv2/bn
I0717 15:03:47.168104  6447 net.cpp:488] conv2_4/dwconv2/bn <- conv2_4/dwconv2
I0717 15:03:47.168108  6447 net.cpp:177] This layer is inheriting previous layer's sync mode: 1
I0717 15:03:47.168112  6447 net.cpp:462] conv2_4/dwconv2/bn -> conv2_4/dwconv2/bn
I0717 15:03:47.168252  6447 cudnn_batch_norm_layer.cpp:84] Using CuDNN BN engine.
I0717 15:03:47.168315  6447 net.cpp:216] Setting up conv2_4/dwconv2/bn
I0717 15:03:47.168321  6447 net.cpp:222] Top shape: 8 58 28 28 (363776)
I0717 15:03:47.168323  6447 net.cpp:228] Memory required for data: 990846144
I0717 15:03:47.168330  6447 layer_factory.hpp:76] Creating layer conv2_4/conv3
I0717 15:03:47.168337  6447 net.cpp:144] Creating Layer conv2_4/conv3
I0717 15:03:47.168341  6447 net.cpp:488] conv2_4/conv3 <- conv2_4/dwconv2/bn
I0717 15:03:47.168344  6447 net.cpp:177] This layer is inheriting previous layer's sync mode: 1
I0717 15:03:47.168351  6447 net.cpp:462] conv2_4/conv3 -> conv2_4/conv3
I0717 15:03:47.168676  6447 net.cpp:216] Setting up conv2_4/conv3
I0717 15:03:47.168684  6447 net.cpp:222] Top shape: 8 58 28 28 (363776)
I0717 15:03:47.168687  6447 net.cpp:228] Memory required for data: 992301248
I0717 15:03:47.168709  6447 layer_factory.hpp:76] Creating layer conv2_4/conv3/bn
I0717 15:03:47.168717  6447 net.cpp:144] Creating Layer conv2_4/conv3/bn
I0717 15:03:47.168721  6447 net.cpp:488] conv2_4/conv3/bn <- conv2_4/conv3
I0717 15:03:47.168725  6447 net.cpp:177] This layer is inheriting previous layer's sync mode: 1
I0717 15:03:47.168730  6447 net.cpp:462] conv2_4/conv3/bn -> conv2_4/conv3/bn
I0717 15:03:47.168849  6447 cudnn_batch_norm_layer.cpp:84] Using CuDNN BN engine.
I0717 15:03:47.168912  6447 net.cpp:216] Setting up conv2_4/conv3/bn
I0717 15:03:47.168917  6447 net.cpp:222] Top shape: 8 58 28 28 (363776)
I0717 15:03:47.168920  6447 net.cpp:228] Memory required for data: 993756352
I0717 15:03:47.168929  6447 layer_factory.hpp:76] Creating layer conv2_4/conv3/relu
I0717 15:03:47.168934  6447 net.cpp:144] Creating Layer conv2_4/conv3/relu
I0717 15:03:47.168937  6447 net.cpp:488] conv2_4/conv3/relu <- conv2_4/conv3/bn
I0717 15:03:47.168946  6447 net.cpp:177] This layer is inheriting previous layer's sync mode: 1
I0717 15:03:47.168949  6447 net.cpp:451] conv2_4/conv3/relu -> conv2_4/conv3/bn (in-place)
I0717 15:03:47.168956  6447 net.cpp:216] Setting up conv2_4/conv3/relu
I0717 15:03:47.168959  6447 net.cpp:222] Top shape: 8 58 28 28 (363776)
I0717 15:03:47.168962  6447 net.cpp:228] Memory required for data: 995211456
I0717 15:03:47.168965  6447 layer_factory.hpp:76] Creating layer conv2_4/concat
I0717 15:03:47.168970  6447 net.cpp:144] Creating Layer conv2_4/concat
I0717 15:03:47.168973  6447 net.cpp:488] conv2_4/concat <- conv2_4/split1
I0717 15:03:47.168977  6447 net.cpp:488] conv2_4/concat <- conv2_4/conv3/bn
I0717 15:03:47.168980  6447 net.cpp:177] This layer is inheriting previous layer's sync mode: 1
I0717 15:03:47.168985  6447 net.cpp:462] conv2_4/concat -> conv2_4/concat
I0717 15:03:47.169009  6447 net.cpp:216] Setting up conv2_4/concat
I0717 15:03:47.169014  6447 net.cpp:222] Top shape: 8 116 28 28 (727552)
I0717 15:03:47.169018  6447 net.cpp:228] Memory required for data: 998121664
I0717 15:03:47.169020  6447 layer_factory.hpp:76] Creating layer conv2_4
I0717 15:03:47.169025  6447 net.cpp:144] Creating Layer conv2_4
I0717 15:03:47.169028  6447 net.cpp:488] conv2_4 <- conv2_4/concat
I0717 15:03:47.169032  6447 net.cpp:177] This layer is inheriting previous layer's sync mode: 1
I0717 15:03:47.169037  6447 net.cpp:462] conv2_4 -> conv2_4
I0717 15:03:47.169091  6447 net.cpp:216] Setting up conv2_4
I0717 15:03:47.169097  6447 net.cpp:222] Top shape: 8 116 28 28 (727552)
I0717 15:03:47.169100  6447 net.cpp:228] Memory required for data: 1001031872
I0717 15:03:47.169103  6447 layer_factory.hpp:76] Creating layer conv2_4_conv2_4_0_split
I0717 15:03:47.169109  6447 net.cpp:144] Creating Layer conv2_4_conv2_4_0_split
I0717 15:03:47.169112  6447 net.cpp:488] conv2_4_conv2_4_0_split <- conv2_4
I0717 15:03:47.169116  6447 net.cpp:177] This layer is inheriting previous layer's sync mode: 1
I0717 15:03:47.169119  6447 net.cpp:462] conv2_4_conv2_4_0_split -> conv2_4_conv2_4_0_split_0
I0717 15:03:47.169124  6447 net.cpp:462] conv2_4_conv2_4_0_split -> conv2_4_conv2_4_0_split_1
I0717 15:03:47.169162  6447 net.cpp:216] Setting up conv2_4_conv2_4_0_split
I0717 15:03:47.169167  6447 net.cpp:222] Top shape: 8 116 28 28 (727552)
I0717 15:03:47.169170  6447 net.cpp:222] Top shape: 8 116 28 28 (727552)
I0717 15:03:47.169173  6447 net.cpp:228] Memory required for data: 1006852288
I0717 15:03:47.169175  6447 layer_factory.hpp:76] Creating layer conv2_4/SE_global_pool
I0717 15:03:47.169183  6447 net.cpp:144] Creating Layer conv2_4/SE_global_pool
I0717 15:03:47.169185  6447 net.cpp:488] conv2_4/SE_global_pool <- conv2_4_conv2_4_0_split_0
I0717 15:03:47.169189  6447 net.cpp:177] This layer is inheriting previous layer's sync mode: 1
I0717 15:03:47.169193  6447 net.cpp:462] conv2_4/SE_global_pool -> conv2_4/SE_global_pool
I0717 15:03:47.169215  6447 net.cpp:216] Setting up conv2_4/SE_global_pool
I0717 15:03:47.169220  6447 net.cpp:222] Top shape: 8 116 1 1 (928)
I0717 15:03:47.169224  6447 net.cpp:228] Memory required for data: 1006856000
I0717 15:03:47.169226  6447 layer_factory.hpp:76] Creating layer conv2_4/SE_fc1
I0717 15:03:47.169235  6447 net.cpp:144] Creating Layer conv2_4/SE_fc1
I0717 15:03:47.169239  6447 net.cpp:488] conv2_4/SE_fc1 <- conv2_4/SE_global_pool
I0717 15:03:47.169241  6447 net.cpp:177] This layer is inheriting previous layer's sync mode: 1
I0717 15:03:47.169246  6447 net.cpp:462] conv2_4/SE_fc1 -> conv2_4/SE_fc1
I0717 15:03:47.169541  6447 net.cpp:216] Setting up conv2_4/SE_fc1
I0717 15:03:47.169549  6447 net.cpp:222] Top shape: 8 29 1 1 (232)
I0717 15:03:47.169551  6447 net.cpp:228] Memory required for data: 1006856928
I0717 15:03:47.169556  6447 layer_factory.hpp:76] Creating layer conv2_4/SE_fc1/relu
I0717 15:03:47.169561  6447 net.cpp:144] Creating Layer conv2_4/SE_fc1/relu
I0717 15:03:47.169565  6447 net.cpp:488] conv2_4/SE_fc1/relu <- conv2_4/SE_fc1
I0717 15:03:47.169569  6447 net.cpp:177] This layer is inheriting previous layer's sync mode: 1
I0717 15:03:47.169572  6447 net.cpp:451] conv2_4/SE_fc1/relu -> conv2_4/SE_fc1 (in-place)
I0717 15:03:47.169579  6447 net.cpp:216] Setting up conv2_4/SE_fc1/relu
I0717 15:03:47.169582  6447 net.cpp:222] Top shape: 8 29 1 1 (232)
I0717 15:03:47.169584  6447 net.cpp:228] Memory required for data: 1006857856
I0717 15:03:47.169587  6447 layer_factory.hpp:76] Creating layer conv2_4/SE_fc2
I0717 15:03:47.169597  6447 net.cpp:144] Creating Layer conv2_4/SE_fc2
I0717 15:03:47.169600  6447 net.cpp:488] conv2_4/SE_fc2 <- conv2_4/SE_fc1
I0717 15:03:47.169603  6447 net.cpp:177] This layer is inheriting previous layer's sync mode: 1
I0717 15:03:47.169610  6447 net.cpp:462] conv2_4/SE_fc2 -> conv2_4/SE_fc2
I0717 15:03:47.169921  6447 net.cpp:216] Setting up conv2_4/SE_fc2
I0717 15:03:47.169929  6447 net.cpp:222] Top shape: 8 116 1 1 (928)
I0717 15:03:47.169932  6447 net.cpp:228] Memory required for data: 1006861568
I0717 15:03:47.169936  6447 layer_factory.hpp:76] Creating layer conv2_4/SE_weights
I0717 15:03:47.169948  6447 net.cpp:144] Creating Layer conv2_4/SE_weights
I0717 15:03:47.169951  6447 net.cpp:488] conv2_4/SE_weights <- conv2_4/SE_fc2
I0717 15:03:47.169955  6447 net.cpp:177] This layer is inheriting previous layer's sync mode: 1
I0717 15:03:47.169958  6447 net.cpp:451] conv2_4/SE_weights -> conv2_4/SE_fc2 (in-place)
I0717 15:03:47.169965  6447 net.cpp:216] Setting up conv2_4/SE_weights
I0717 15:03:47.169968  6447 net.cpp:222] Top shape: 8 116 1 1 (928)
I0717 15:03:47.169971  6447 net.cpp:228] Memory required for data: 1006865280
I0717 15:03:47.169975  6447 layer_factory.hpp:76] Creating layer conv2_4/SE_weights/reshape
I0717 15:03:47.169981  6447 net.cpp:144] Creating Layer conv2_4/SE_weights/reshape
I0717 15:03:47.169983  6447 net.cpp:488] conv2_4/SE_weights/reshape <- conv2_4/SE_fc2
I0717 15:03:47.169986  6447 net.cpp:177] This layer is inheriting previous layer's sync mode: 1
I0717 15:03:47.169992  6447 net.cpp:462] conv2_4/SE_weights/reshape -> conv2_4/SE_weights/reshape
I0717 15:03:47.170018  6447 net.cpp:216] Setting up conv2_4/SE_weights/reshape
I0717 15:03:47.170027  6447 net.cpp:222] Top shape: 8 116 (928)
I0717 15:03:47.170029  6447 net.cpp:228] Memory required for data: 1006868992
I0717 15:03:47.170032  6447 layer_factory.hpp:76] Creating layer conv2_4/scale
I0717 15:03:47.170037  6447 net.cpp:144] Creating Layer conv2_4/scale
I0717 15:03:47.170040  6447 net.cpp:488] conv2_4/scale <- conv2_4_conv2_4_0_split_1
I0717 15:03:47.170044  6447 net.cpp:488] conv2_4/scale <- conv2_4/SE_weights/reshape
I0717 15:03:47.170048  6447 net.cpp:177] This layer is inheriting previous layer's sync mode: 1
I0717 15:03:47.170053  6447 net.cpp:462] conv2_4/scale -> conv2_4/scale
I0717 15:03:47.170130  6447 net.cpp:216] Setting up conv2_4/scale
I0717 15:03:47.170135  6447 net.cpp:222] Top shape: 8 116 28 28 (727552)
I0717 15:03:47.170138  6447 net.cpp:228] Memory required for data: 1009779200
I0717 15:03:47.170141  6447 layer_factory.hpp:76] Creating layer conv2_4/scale_conv2_4/scale_0_split
I0717 15:03:47.170147  6447 net.cpp:144] Creating Layer conv2_4/scale_conv2_4/scale_0_split
I0717 15:03:47.170151  6447 net.cpp:488] conv2_4/scale_conv2_4/scale_0_split <- conv2_4/scale
I0717 15:03:47.170155  6447 net.cpp:177] This layer is inheriting previous layer's sync mode: 1
I0717 15:03:47.170158  6447 net.cpp:462] conv2_4/scale_conv2_4/scale_0_split -> conv2_4/scale_conv2_4/scale_0_split_0
I0717 15:03:47.170166  6447 net.cpp:462] conv2_4/scale_conv2_4/scale_0_split -> conv2_4/scale_conv2_4/scale_0_split_1
I0717 15:03:47.170171  6447 net.cpp:462] conv2_4/scale_conv2_4/scale_0_split -> conv2_4/scale_conv2_4/scale_0_split_2
I0717 15:03:47.170222  6447 net.cpp:216] Setting up conv2_4/scale_conv2_4/scale_0_split
I0717 15:03:47.170226  6447 net.cpp:222] Top shape: 8 116 28 28 (727552)
I0717 15:03:47.170230  6447 net.cpp:222] Top shape: 8 116 28 28 (727552)
I0717 15:03:47.170233  6447 net.cpp:222] Top shape: 8 116 28 28 (727552)
I0717 15:03:47.170236  6447 net.cpp:228] Memory required for data: 1018509824
I0717 15:03:47.170239  6447 layer_factory.hpp:76] Creating layer conv3_1/branch1_dwconv1
I0717 15:03:47.170248  6447 net.cpp:144] Creating Layer conv3_1/branch1_dwconv1
I0717 15:03:47.170250  6447 net.cpp:488] conv3_1/branch1_dwconv1 <- conv2_4/scale_conv2_4/scale_0_split_0
I0717 15:03:47.170253  6447 net.cpp:177] This layer is inheriting previous layer's sync mode: 1
I0717 15:03:47.170258  6447 net.cpp:462] conv3_1/branch1_dwconv1 -> conv3_1/branch1_dwconv1
I0717 15:03:47.170478  6447 net.cpp:216] Setting up conv3_1/branch1_dwconv1
I0717 15:03:47.170485  6447 net.cpp:222] Top shape: 8 116 14 14 (181888)
I0717 15:03:47.170487  6447 net.cpp:228] Memory required for data: 1019237376
I0717 15:03:47.170492  6447 layer_factory.hpp:76] Creating layer conv3_1/branch1_dwconv1/bn
I0717 15:03:47.170500  6447 net.cpp:144] Creating Layer conv3_1/branch1_dwconv1/bn
…
I0717 15:03:47.221335  6447 net.cpp:222] Top shape: 8 232 7 7 (90944)
I0717 15:03:47.221338  6447 net.cpp:228] Memory required for data: 1168047744
I0717 15:03:47.221340  6447 layer_factory.hpp:76] Creating layer conv4_3/conv1
I0717 15:03:47.221349  6447 net.cpp:144] Creating Layer conv4_3/conv1
I0717 15:03:47.221351  6447 net.cpp:488] conv4_3/conv1 <- conv4_3/split2
I0717 15:03:47.221355  6447 net.cpp:177] This layer is inheriting previous layer's sync mode: 1
I0717 15:03:47.221359  6447 net.cpp:462] conv4_3/conv1 -> conv4_3/conv1
I0717 15:03:47.222919  6447 net.cpp:216] Setting up conv4_3/conv1
I0717 15:03:47.222929  6447 net.cpp:222] Top shape: 8 232 7 7 (90944)
I0717 15:03:47.222930  6447 net.cpp:228] Memory required for data: 1168411520
I0717 15:03:47.222934  6447 layer_factory.hpp:76] Creating layer conv4_3/conv1/bn
I0717 15:03:47.222946  6447 net.cpp:144] Creating Layer conv4_3/conv1/bn
I0717 15:03:47.222950  6447 net.cpp:488] conv4_3/conv1/bn <- conv4_3/conv1
I0717 15:03:47.222970  6447 net.cpp:177] This layer is inheriting previous layer's sync mode: 1
I0717 15:03:47.222973  6447 net.cpp:462] conv4_3/conv1/bn -> conv4_3/conv1/bn
I0717 15:03:47.223103  6447 cudnn_batch_norm_layer.cpp:84] Using CuDNN BN engine.
I0717 15:03:47.223166  6447 net.cpp:216] Setting up conv4_3/conv1/bn
I0717 15:03:47.223172  6447 net.cpp:222] Top shape: 8 232 7 7 (90944)
I0717 15:03:47.223175  6447 net.cpp:228] Memory required for data: 1168775296
I0717 15:03:47.223181  6447 layer_factory.hpp:76] Creating layer conv4_3/conv1/relu
I0717 15:03:47.223187  6447 net.cpp:144] Creating Layer conv4_3/conv1/relu
I0717 15:03:47.223191  6447 net.cpp:488] conv4_3/conv1/relu <- conv4_3/conv1/bn
I0717 15:03:47.223194  6447 net.cpp:177] This layer is inheriting previous layer's sync mode: 1
I0717 15:03:47.223197  6447 net.cpp:451] conv4_3/conv1/relu -> conv4_3/conv1/bn (in-place)
I0717 15:03:47.223203  6447 net.cpp:216] Setting up conv4_3/conv1/relu
I0717 15:03:47.223207  6447 net.cpp:222] Top shape: 8 232 7 7 (90944)
I0717 15:03:47.223209  6447 net.cpp:228] Memory required for data: 1169139072
I0717 15:03:47.223212  6447 layer_factory.hpp:76] Creating layer conv4_3/dwconv2
I0717 15:03:47.223219  6447 net.cpp:144] Creating Layer conv4_3/dwconv2
I0717 15:03:47.223223  6447 net.cpp:488] conv4_3/dwconv2 <- conv4_3/conv1/bn
I0717 15:03:47.223227  6447 net.cpp:177] This layer is inheriting previous layer's sync mode: 1
I0717 15:03:47.223230  6447 net.cpp:462] conv4_3/dwconv2 -> conv4_3/dwconv2
I0717 15:03:47.223492  6447 net.cpp:216] Setting up conv4_3/dwconv2
I0717 15:03:47.223500  6447 net.cpp:222] Top shape: 8 232 7 7 (90944)
I0717 15:03:47.223501  6447 net.cpp:228] Memory required for data: 1169502848
I0717 15:03:47.223505  6447 layer_factory.hpp:76] Creating layer conv4_3/dwconv2/bn
I0717 15:03:47.223513  6447 net.cpp:144] Creating Layer conv4_3/dwconv2/bn
I0717 15:03:47.223516  6447 net.cpp:488] conv4_3/dwconv2/bn <- conv4_3/dwconv2
I0717 15:03:47.223520  6447 net.cpp:177] This layer is inheriting previous layer's sync mode: 1
I0717 15:03:47.223523  6447 net.cpp:462] conv4_3/dwconv2/bn -> conv4_3/dwconv2/bn
I0717 15:03:47.223637  6447 cudnn_batch_norm_layer.cpp:84] Using CuDNN BN engine.
I0717 15:03:47.223696  6447 net.cpp:216] Setting up conv4_3/dwconv2/bn
I0717 15:03:47.223702  6447 net.cpp:222] Top shape: 8 232 7 7 (90944)
I0717 15:03:47.223704  6447 net.cpp:228] Memory required for data: 1169866624
I0717 15:03:47.223711  6447 layer_factory.hpp:76] Creating layer conv4_3/conv3
I0717 15:03:47.223723  6447 net.cpp:144] Creating Layer conv4_3/conv3
I0717 15:03:47.223727  6447 net.cpp:488] conv4_3/conv3 <- conv4_3/dwconv2/bn
I0717 15:03:47.223731  6447 net.cpp:177] This layer is inheriting previous layer's sync mode: 1
I0717 15:03:47.223737  6447 net.cpp:462] conv4_3/conv3 -> conv4_3/conv3
I0717 15:03:47.225440  6447 net.cpp:216] Setting up conv4_3/conv3
I0717 15:03:47.225448  6447 net.cpp:222] Top shape: 8 232 7 7 (90944)
I0717 15:03:47.225452  6447 net.cpp:228] Memory required for data: 1170230400
I0717 15:03:47.225456  6447 layer_factory.hpp:76] Creating layer conv4_3/conv3/bn
I0717 15:03:47.225463  6447 net.cpp:144] Creating Layer conv4_3/conv3/bn
I0717 15:03:47.225467  6447 net.cpp:488] conv4_3/conv3/bn <- conv4_3/conv3
I0717 15:03:47.225471  6447 net.cpp:177] This layer is inheriting previous layer's sync mode: 1
I0717 15:03:47.225476  6447 net.cpp:462] conv4_3/conv3/bn -> conv4_3/conv3/bn
I0717 15:03:47.225600  6447 cudnn_batch_norm_layer.cpp:84] Using CuDNN BN engine.
I0717 15:03:47.225656  6447 net.cpp:216] Setting up conv4_3/conv3/bn
I0717 15:03:47.225662  6447 net.cpp:222] Top shape: 8 232 7 7 (90944)
I0717 15:03:47.225664  6447 net.cpp:228] Memory required for data: 1170594176
I0717 15:03:47.225672  6447 layer_factory.hpp:76] Creating layer conv4_3/conv3/relu
I0717 15:03:47.225677  6447 net.cpp:144] Creating Layer conv4_3/conv3/relu
I0717 15:03:47.225680  6447 net.cpp:488] conv4_3/conv3/relu <- conv4_3/conv3/bn
I0717 15:03:47.225683  6447 net.cpp:177] This layer is inheriting previous layer's sync mode: 1
I0717 15:03:47.225687  6447 net.cpp:451] conv4_3/conv3/relu -> conv4_3/conv3/bn (in-place)
I0717 15:03:47.225692  6447 net.cpp:216] Setting up conv4_3/conv3/relu
I0717 15:03:47.225697  6447 net.cpp:222] Top shape: 8 232 7 7 (90944)
I0717 15:03:47.225698  6447 net.cpp:228] Memory required for data: 1170957952
I0717 15:03:47.225702  6447 layer_factory.hpp:76] Creating layer conv4_3/concat
I0717 15:03:47.225706  6447 net.cpp:144] Creating Layer conv4_3/concat
I0717 15:03:47.225709  6447 net.cpp:488] conv4_3/concat <- conv4_3/split1
I0717 15:03:47.225713  6447 net.cpp:488] conv4_3/concat <- conv4_3/conv3/bn
I0717 15:03:47.225716  6447 net.cpp:177] This layer is inheriting previous layer's sync mode: 1
I0717 15:03:47.225723  6447 net.cpp:462] conv4_3/concat -> conv4_3/concat
I0717 15:03:47.225746  6447 net.cpp:216] Setting up conv4_3/concat
I0717 15:03:47.225752  6447 net.cpp:222] Top shape: 8 464 7 7 (181888)
I0717 15:03:47.225755  6447 net.cpp:228] Memory required for data: 1171685504
I0717 15:03:47.225757  6447 layer_factory.hpp:76] Creating layer conv4_3
I0717 15:03:47.225762  6447 net.cpp:144] Creating Layer conv4_3
I0717 15:03:47.225766  6447 net.cpp:488] conv4_3 <- conv4_3/concat
I0717 15:03:47.225769  6447 net.cpp:177] This layer is inheriting previous layer's sync mode: 1
I0717 15:03:47.225775  6447 net.cpp:462] conv4_3 -> conv4_3
I0717 15:03:47.225829  6447 net.cpp:216] Setting up conv4_3
I0717 15:03:47.225834  6447 net.cpp:222] Top shape: 8 464 7 7 (181888)
I0717 15:03:47.225837  6447 net.cpp:228] Memory required for data: 1172413056
I0717 15:03:47.225841  6447 layer_factory.hpp:76] Creating layer conv4_3_conv4_3_0_split
I0717 15:03:47.225847  6447 net.cpp:144] Creating Layer conv4_3_conv4_3_0_split
I0717 15:03:47.225849  6447 net.cpp:488] conv4_3_conv4_3_0_split <- conv4_3
I0717 15:03:47.225852  6447 net.cpp:177] This layer is inheriting previous layer's sync mode: 1
I0717 15:03:47.225857  6447 net.cpp:462] conv4_3_conv4_3_0_split -> conv4_3_conv4_3_0_split_0
I0717 15:03:47.225862  6447 net.cpp:462] conv4_3_conv4_3_0_split -> conv4_3_conv4_3_0_split_1
I0717 15:03:47.225898  6447 net.cpp:216] Setting up conv4_3_conv4_3_0_split
I0717 15:03:47.225903  6447 net.cpp:222] Top shape: 8 464 7 7 (181888)
I0717 15:03:47.225906  6447 net.cpp:222] Top shape: 8 464 7 7 (181888)
I0717 15:03:47.225909  6447 net.cpp:228] Memory required for data: 1173868160
I0717 15:03:47.225911  6447 layer_factory.hpp:76] Creating layer conv4_3/SE_global_pool
I0717 15:03:47.225919  6447 net.cpp:144] Creating Layer conv4_3/SE_global_pool
I0717 15:03:47.225922  6447 net.cpp:488] conv4_3/SE_global_pool <- conv4_3_conv4_3_0_split_0
I0717 15:03:47.225925  6447 net.cpp:177] This layer is inheriting previous layer's sync mode: 1
I0717 15:03:47.225931  6447 net.cpp:462] conv4_3/SE_global_pool -> conv4_3/SE_global_pool
I0717 15:03:47.225960  6447 net.cpp:216] Setting up conv4_3/SE_global_pool
I0717 15:03:47.225965  6447 net.cpp:222] Top shape: 8 464 1 1 (3712)
I0717 15:03:47.225967  6447 net.cpp:228] Memory required for data: 1173883008
I0717 15:03:47.225970  6447 layer_factory.hpp:76] Creating layer conv4_3/SE_fc1
I0717 15:03:47.225980  6447 net.cpp:144] Creating Layer conv4_3/SE_fc1
I0717 15:03:47.225983  6447 net.cpp:488] conv4_3/SE_fc1 <- conv4_3/SE_global_pool
I0717 15:03:47.225987  6447 net.cpp:177] This layer is inheriting previous layer's sync mode: 1
I0717 15:03:47.225991  6447 net.cpp:462] conv4_3/SE_fc1 -> conv4_3/SE_fc1
I0717 15:03:47.226537  6447 net.cpp:216] Setting up conv4_3/SE_fc1
I0717 15:03:47.226546  6447 net.cpp:222] Top shape: 8 29 1 1 (232)
I0717 15:03:47.226547  6447 net.cpp:228] Memory required for data: 1173883936
I0717 15:03:47.226552  6447 layer_factory.hpp:76] Creating layer conv4_3/SE_fc1/relu
I0717 15:03:47.226557  6447 net.cpp:144] Creating Layer conv4_3/SE_fc1/relu
I0717 15:03:47.226560  6447 net.cpp:488] conv4_3/SE_fc1/relu <- conv4_3/SE_fc1
I0717 15:03:47.226564  6447 net.cpp:177] This layer is inheriting previous layer's sync mode: 1
I0717 15:03:47.226567  6447 net.cpp:451] conv4_3/SE_fc1/relu -> conv4_3/SE_fc1 (in-place)
I0717 15:03:47.226573  6447 net.cpp:216] Setting up conv4_3/SE_fc1/relu
I0717 15:03:47.226577  6447 net.cpp:222] Top shape: 8 29 1 1 (232)
I0717 15:03:47.226579  6447 net.cpp:228] Memory required for data: 1173884864
I0717 15:03:47.226583  6447 layer_factory.hpp:76] Creating layer conv4_3/SE_fc2
I0717 15:03:47.226590  6447 net.cpp:144] Creating Layer conv4_3/SE_fc2
I0717 15:03:47.226595  6447 net.cpp:488] conv4_3/SE_fc2 <- conv4_3/SE_fc1
I0717 15:03:47.226598  6447 net.cpp:177] This layer is inheriting previous layer's sync mode: 1
I0717 15:03:47.226603  6447 net.cpp:462] conv4_3/SE_fc2 -> conv4_3/SE_fc2
I0717 15:03:47.228857  6447 net.cpp:216] Setting up conv4_3/SE_fc2
I0717 15:03:47.228873  6447 net.cpp:222] Top shape: 8 464 1 1 (3712)
I0717 15:03:47.228875  6447 net.cpp:228] Memory required for data: 1173899712
I0717 15:03:47.228880  6447 layer_factory.hpp:76] Creating layer conv4_3/SE_weights
I0717 15:03:47.228886  6447 net.cpp:144] Creating Layer conv4_3/SE_weights
I0717 15:03:47.228890  6447 net.cpp:488] conv4_3/SE_weights <- conv4_3/SE_fc2
I0717 15:03:47.228894  6447 net.cpp:177] This layer is inheriting previous layer's sync mode: 1
I0717 15:03:47.228899  6447 net.cpp:451] conv4_3/SE_weights -> conv4_3/SE_fc2 (in-place)
I0717 15:03:47.228907  6447 net.cpp:216] Setting up conv4_3/SE_weights
I0717 15:03:47.228911  6447 net.cpp:222] Top shape: 8 464 1 1 (3712)
I0717 15:03:47.228914  6447 net.cpp:228] Memory required for data: 1173914560
I0717 15:03:47.228916  6447 layer_factory.hpp:76] Creating layer conv4_3/SE_weights/reshape
I0717 15:03:47.228922  6447 net.cpp:144] Creating Layer conv4_3/SE_weights/reshape
I0717 15:03:47.228925  6447 net.cpp:488] conv4_3/SE_weights/reshape <- conv4_3/SE_fc2
I0717 15:03:47.228929  6447 net.cpp:177] This layer is inheriting previous layer's sync mode: 1
I0717 15:03:47.228935  6447 net.cpp:462] conv4_3/SE_weights/reshape -> conv4_3/SE_weights/reshape
I0717 15:03:47.229001  6447 net.cpp:216] Setting up conv4_3/SE_weights/reshape
I0717 15:03:47.229008  6447 net.cpp:222] Top shape: 8 464 (3712)
I0717 15:03:47.229010  6447 net.cpp:228] Memory required for data: 1173929408
I0717 15:03:47.229013  6447 layer_factory.hpp:76] Creating layer conv4_3/scale
I0717 15:03:47.229022  6447 net.cpp:144] Creating Layer conv4_3/scale
I0717 15:03:47.229025  6447 net.cpp:488] conv4_3/scale <- conv4_3_conv4_3_0_split_1
I0717 15:03:47.229029  6447 net.cpp:488] conv4_3/scale <- conv4_3/SE_weights/reshape
I0717 15:03:47.229033  6447 net.cpp:177] This layer is inheriting previous layer's sync mode: 1
I0717 15:03:47.229038  6447 net.cpp:462] conv4_3/scale -> conv4_3/scale
I0717 15:03:47.229115  6447 net.cpp:216] Setting up conv4_3/scale
I0717 15:03:47.229121  6447 net.cpp:222] Top shape: 8 464 7 7 (181888)
I0717 15:03:47.229125  6447 net.cpp:228] Memory required for data: 1174656960
I0717 15:03:47.229127  6447 layer_factory.hpp:76] Creating layer conv4_4/slice
I0717 15:03:47.229135  6447 net.cpp:144] Creating Layer conv4_4/slice
I0717 15:03:47.229138  6447 net.cpp:488] conv4_4/slice <- conv4_3/scale
I0717 15:03:47.229141  6447 net.cpp:177] This layer is inheriting previous layer's sync mode: 1
I0717 15:03:47.229146  6447 net.cpp:462] conv4_4/slice -> conv4_4/split1
I0717 15:03:47.229152  6447 net.cpp:462] conv4_4/slice -> conv4_4/split2
I0717 15:03:47.229193  6447 net.cpp:216] Setting up conv4_4/slice
I0717 15:03:47.229200  6447 net.cpp:222] Top shape: 8 232 7 7 (90944)
I0717 15:03:47.229203  6447 net.cpp:222] Top shape: 8 232 7 7 (90944)
I0717 15:03:47.229207  6447 net.cpp:228] Memory required for data: 1175384512
I0717 15:03:47.229209  6447 layer_factory.hpp:76] Creating layer conv4_4/conv1
I0717 15:03:47.229219  6447 net.cpp:144] Creating Layer conv4_4/conv1
I0717 15:03:47.229223  6447 net.cpp:488] conv4_4/conv1 <- conv4_4/split2
I0717 15:03:47.229228  6447 net.cpp:177] This layer is inheriting previous layer's sync mode: 1
I0717 15:03:47.229231  6447 net.cpp:462] conv4_4/conv1 -> conv4_4/conv1
I0717 15:03:47.230825  6447 net.cpp:216] Setting up conv4_4/conv1
I0717 15:03:47.230834  6447 net.cpp:222] Top shape: 8 232 7 7 (90944)
I0717 15:03:47.230836  6447 net.cpp:228] Memory required for data: 1175748288
I0717 15:03:47.230841  6447 layer_factory.hpp:76] Creating layer conv4_4/conv1/bn
I0717 15:03:47.230847  6447 net.cpp:144] Creating Layer conv4_4/conv1/bn
I0717 15:03:47.230851  6447 net.cpp:488] conv4_4/conv1/bn <- conv4_4/conv1
I0717 15:03:47.230854  6447 net.cpp:177] This layer is inheriting previous layer's sync mode: 1
I0717 15:03:47.230860  6447 net.cpp:462] conv4_4/conv1/bn -> conv4_4/conv1/bn
I0717 15:03:47.231005  6447 cudnn_batch_norm_layer.cpp:84] Using CuDNN BN engine.
I0717 15:03:47.231070  6447 net.cpp:216] Setting up conv4_4/conv1/bn
I0717 15:03:47.231076  6447 net.cpp:222] Top shape: 8 232 7 7 (90944)
I0717 15:03:47.231079  6447 net.cpp:228] Memory required for data: 1176112064
I0717 15:03:47.231086  6447 layer_factory.hpp:76] Creating layer conv4_4/conv1/relu
I0717 15:03:47.231091  6447 net.cpp:144] Creating Layer conv4_4/conv1/relu
I0717 15:03:47.231096  6447 net.cpp:488] conv4_4/conv1/relu <- conv4_4/conv1/bn
I0717 15:03:47.231098  6447 net.cpp:177] This layer is inheriting previous layer's sync mode: 1
I0717 15:03:47.231104  6447 net.cpp:451] conv4_4/conv1/relu -> conv4_4/conv1/bn (in-place)
I0717 15:03:47.231109  6447 net.cpp:216] Setting up conv4_4/conv1/relu
I0717 15:03:47.231113  6447 net.cpp:222] Top shape: 8 232 7 7 (90944)
I0717 15:03:47.231117  6447 net.cpp:228] Memory required for data: 1176475840
I0717 15:03:47.231118  6447 layer_factory.hpp:76] Creating layer conv4_4/dwconv2
I0717 15:03:47.231124  6447 net.cpp:144] Creating Layer conv4_4/dwconv2
I0717 15:03:47.231127  6447 net.cpp:488] conv4_4/dwconv2 <- conv4_4/conv1/bn
I0717 15:03:47.231130  6447 net.cpp:177] This layer is inheriting previous layer's sync mode: 1
I0717 15:03:47.231142  6447 net.cpp:462] conv4_4/dwconv2 -> conv4_4/dwconv2
I0717 15:03:47.231429  6447 net.cpp:216] Setting up conv4_4/dwconv2
I0717 15:03:47.231436  6447 net.cpp:222] Top shape: 8 232 7 7 (90944)
I0717 15:03:47.231438  6447 net.cpp:228] Memory required for data: 1176839616
I0717 15:03:47.231442  6447 layer_factory.hpp:76] Creating layer conv4_4/dwconv2/bn
I0717 15:03:47.231463  6447 net.cpp:144] Creating Layer conv4_4/dwconv2/bn
I0717 15:03:47.231467  6447 net.cpp:488] conv4_4/dwconv2/bn <- conv4_4/dwconv2
I0717 15:03:47.231470  6447 net.cpp:177] This layer is inheriting previous layer's sync mode: 1
I0717 15:03:47.231477  6447 net.cpp:462] conv4_4/dwconv2/bn -> conv4_4/dwconv2/bn
I0717 15:03:47.231593  6447 cudnn_batch_norm_layer.cpp:84] Using CuDNN BN engine.
I0717 15:03:47.231654  6447 net.cpp:216] Setting up conv4_4/dwconv2/bn
I0717 15:03:47.231659  6447 net.cpp:222] Top shape: 8 232 7 7 (90944)
I0717 15:03:47.231662  6447 net.cpp:228] Memory required for data: 1177203392
I0717 15:03:47.231668  6447 layer_factory.hpp:76] Creating layer conv4_4/conv3
I0717 15:03:47.231678  6447 net.cpp:144] Creating Layer conv4_4/conv3
I0717 15:03:47.231680  6447 net.cpp:488] conv4_4/conv3 <- conv4_4/dwconv2/bn
I0717 15:03:47.231684  6447 net.cpp:177] This layer is inheriting previous layer's sync mode: 1
I0717 15:03:47.231688  6447 net.cpp:462] conv4_4/conv3 -> conv4_4/conv3
I0717 15:03:47.233475  6447 net.cpp:216] Setting up conv4_4/conv3
I0717 15:03:47.233484  6447 net.cpp:222] Top shape: 8 232 7 7 (90944)
I0717 15:03:47.233485  6447 net.cpp:228] Memory required for data: 1177567168
I0717 15:03:47.233490  6447 layer_factory.hpp:76] Creating layer conv4_4/conv3/bn
I0717 15:03:47.233512  6447 net.cpp:144] Creating Layer conv4_4/conv3/bn
I0717 15:03:47.233515  6447 net.cpp:488] conv4_4/conv3/bn <- conv4_4/conv3
I0717 15:03:47.233520  6447 net.cpp:177] This layer is inheriting previous layer's sync mode: 1
I0717 15:03:47.233525  6447 net.cpp:462] conv4_4/conv3/bn -> conv4_4/conv3/bn
I0717 15:03:47.233647  6447 cudnn_batch_norm_layer.cpp:84] Using CuDNN BN engine.
I0717 15:03:47.233707  6447 net.cpp:216] Setting up conv4_4/conv3/bn
I0717 15:03:47.233713  6447 net.cpp:222] Top shape: 8 232 7 7 (90944)
I0717 15:03:47.233716  6447 net.cpp:228] Memory required for data: 1177930944
I0717 15:03:47.233722  6447 layer_factory.hpp:76] Creating layer conv4_4/conv3/relu
I0717 15:03:47.233727  6447 net.cpp:144] Creating Layer conv4_4/conv3/relu
I0717 15:03:47.233731  6447 net.cpp:488] conv4_4/conv3/relu <- conv4_4/conv3/bn
I0717 15:03:47.233734  6447 net.cpp:177] This layer is inheriting previous layer's sync mode: 1
I0717 15:03:47.233739  6447 net.cpp:451] conv4_4/conv3/relu -> conv4_4/conv3/bn (in-place)
I0717 15:03:47.233744  6447 net.cpp:216] Setting up conv4_4/conv3/relu
I0717 15:03:47.233748  6447 net.cpp:222] Top shape: 8 232 7 7 (90944)
I0717 15:03:47.233750  6447 net.cpp:228] Memory required for data: 1178294720
I0717 15:03:47.233753  6447 layer_factory.hpp:76] Creating layer conv4_4/concat
I0717 15:03:47.233757  6447 net.cpp:144] Creating Layer conv4_4/concat
I0717 15:03:47.233760  6447 net.cpp:488] conv4_4/concat <- conv4_4/split1
I0717 15:03:47.233764  6447 net.cpp:488] conv4_4/concat <- conv4_4/conv3/bn
I0717 15:03:47.233767  6447 net.cpp:177] This layer is inheriting previous layer's sync mode: 1
I0717 15:03:47.233772  6447 net.cpp:462] conv4_4/concat -> conv4_4/concat
I0717 15:03:47.233793  6447 net.cpp:216] Setting up conv4_4/concat
I0717 15:03:47.233799  6447 net.cpp:222] Top shape: 8 464 7 7 (181888)
I0717 15:03:47.233801  6447 net.cpp:228] Memory required for data: 1179022272
I0717 15:03:47.233804  6447 layer_factory.hpp:76] Creating layer conv4_4
I0717 15:03:47.233810  6447 net.cpp:144] Creating Layer conv4_4
I0717 15:03:47.233814  6447 net.cpp:488] conv4_4 <- conv4_4/concat
I0717 15:03:47.233816  6447 net.cpp:177] This layer is inheriting previous layer's sync mode: 1
I0717 15:03:47.233820  6447 net.cpp:462] conv4_4 -> conv4_4
I0717 15:03:47.233875  6447 net.cpp:216] Setting up conv4_4
I0717 15:03:47.233880  6447 net.cpp:222] Top shape: 8 464 7 7 (181888)
I0717 15:03:47.233883  6447 net.cpp:228] Memory required for data: 1179749824
I0717 15:03:47.233886  6447 layer_factory.hpp:76] Creating layer conv4_4_conv4_4_0_split
I0717 15:03:47.233897  6447 net.cpp:144] Creating Layer conv4_4_conv4_4_0_split
I0717 15:03:47.233901  6447 net.cpp:488] conv4_4_conv4_4_0_split <- conv4_4
I0717 15:03:47.233903  6447 net.cpp:177] This layer is inheriting previous layer's sync mode: 1
I0717 15:03:47.233907  6447 net.cpp:462] conv4_4_conv4_4_0_split -> conv4_4_conv4_4_0_split_0
I0717 15:03:47.233914  6447 net.cpp:462] conv4_4_conv4_4_0_split -> conv4_4_conv4_4_0_split_1
I0717 15:03:47.233954  6447 net.cpp:216] Setting up conv4_4_conv4_4_0_split
I0717 15:03:47.233959  6447 net.cpp:222] Top shape: 8 464 7 7 (181888)
I0717 15:03:47.233963  6447 net.cpp:222] Top shape: 8 464 7 7 (181888)
I0717 15:03:47.233965  6447 net.cpp:228] Memory required for data: 1181204928
I0717 15:03:47.233968  6447 layer_factory.hpp:76] Creating layer conv4_4/SE_global_pool
I0717 15:03:47.233973  6447 net.cpp:144] Creating Layer conv4_4/SE_global_pool
I0717 15:03:47.233976  6447 net.cpp:488] conv4_4/SE_global_pool <- conv4_4_conv4_4_0_split_0
I0717 15:03:47.233979  6447 net.cpp:177] This layer is inheriting previous layer's sync mode: 1
I0717 15:03:47.233983  6447 net.cpp:462] conv4_4/SE_global_pool -> conv4_4/SE_global_pool
I0717 15:03:47.234009  6447 net.cpp:216] Setting up conv4_4/SE_global_pool
I0717 15:03:47.234014  6447 net.cpp:222] Top shape: 8 464 1 1 (3712)
I0717 15:03:47.234016  6447 net.cpp:228] Memory required for data: 1181219776
I0717 15:03:47.234019  6447 layer_factory.hpp:76] Creating layer conv4_4/SE_fc1
I0717 15:03:47.234028  6447 net.cpp:144] Creating Layer conv4_4/SE_fc1
I0717 15:03:47.234032  6447 net.cpp:488] conv4_4/SE_fc1 <- conv4_4/SE_global_pool
I0717 15:03:47.234035  6447 net.cpp:177] This layer is inheriting previous layer's sync mode: 1
I0717 15:03:47.234040  6447 net.cpp:462] conv4_4/SE_fc1 -> conv4_4/SE_fc1
I0717 15:03:47.234583  6447 net.cpp:216] Setting up conv4_4/SE_fc1
I0717 15:03:47.234591  6447 net.cpp:222] Top shape: 8 29 1 1 (232)
I0717 15:03:47.234593  6447 net.cpp:228] Memory required for data: 1181220704
I0717 15:03:47.234598  6447 layer_factory.hpp:76] Creating layer conv4_4/SE_fc1/relu
I0717 15:03:47.234603  6447 net.cpp:144] Creating Layer conv4_4/SE_fc1/relu
I0717 15:03:47.234607  6447 net.cpp:488] conv4_4/SE_fc1/relu <- conv4_4/SE_fc1
I0717 15:03:47.234611  6447 net.cpp:177] This layer is inheriting previous layer's sync mode: 1
I0717 15:03:47.234616  6447 net.cpp:451] conv4_4/SE_fc1/relu -> conv4_4/SE_fc1 (in-place)
I0717 15:03:47.234622  6447 net.cpp:216] Setting up conv4_4/SE_fc1/relu
I0717 15:03:47.234624  6447 net.cpp:222] Top shape: 8 29 1 1 (232)
I0717 15:03:47.234627  6447 net.cpp:228] Memory required for data: 1181221632
I0717 15:03:47.234629  6447 layer_factory.hpp:76] Creating layer conv4_4/SE_fc2
I0717 15:03:47.234637  6447 net.cpp:144] Creating Layer conv4_4/SE_fc2
I0717 15:03:47.234639  6447 net.cpp:488] conv4_4/SE_fc2 <- conv4_4/SE_fc1
I0717 15:03:47.234642  6447 net.cpp:177] This layer is inheriting previous layer's sync mode: 1
I0717 15:03:47.234648  6447 net.cpp:462] conv4_4/SE_fc2 -> conv4_4/SE_fc2
I0717 15:03:47.235226  6447 net.cpp:216] Setting up conv4_4/SE_fc2
I0717 15:03:47.235250  6447 net.cpp:222] Top shape: 8 464 1 1 (3712)
I0717 15:03:47.235252  6447 net.cpp:228] Memory required for data: 1181236480
I0717 15:03:47.235257  6447 layer_factory.hpp:76] Creating layer conv4_4/SE_weights
I0717 15:03:47.235261  6447 net.cpp:144] Creating Layer conv4_4/SE_weights
I0717 15:03:47.235265  6447 net.cpp:488] conv4_4/SE_weights <- conv4_4/SE_fc2
I0717 15:03:47.235268  6447 net.cpp:177] This layer is inheriting previous layer's sync mode: 1
I0717 15:03:47.235273  6447 net.cpp:451] conv4_4/SE_weights -> conv4_4/SE_fc2 (in-place)
I0717 15:03:47.235280  6447 net.cpp:216] Setting up conv4_4/SE_weights
I0717 15:03:47.235282  6447 net.cpp:222] Top shape: 8 464 1 1 (3712)
I0717 15:03:47.235285  6447 net.cpp:228] Memory required for data: 1181251328
I0717 15:03:47.235288  6447 layer_factory.hpp:76] Creating layer conv4_4/SE_weights/reshape
I0717 15:03:47.235293  6447 net.cpp:144] Creating Layer conv4_4/SE_weights/reshape
I0717 15:03:47.235296  6447 net.cpp:488] conv4_4/SE_weights/reshape <- conv4_4/SE_fc2
I0717 15:03:47.235299  6447 net.cpp:177] This layer is inheriting previous layer's sync mode: 1
I0717 15:03:47.235302  6447 net.cpp:462] conv4_4/SE_weights/reshape -> conv4_4/SE_weights/reshape
I0717 15:03:47.235328  6447 net.cpp:216] Setting up conv4_4/SE_weights/reshape
I0717 15:03:47.235334  6447 net.cpp:222] Top shape: 8 464 (3712)
I0717 15:03:47.235337  6447 net.cpp:228] Memory required for data: 1181266176
I0717 15:03:47.235339  6447 layer_factory.hpp:76] Creating layer conv4_4/scale
I0717 15:03:47.235347  6447 net.cpp:144] Creating Layer conv4_4/scale
I0717 15:03:47.235349  6447 net.cpp:488] conv4_4/scale <- conv4_4_conv4_4_0_split_1
I0717 15:03:47.235353  6447 net.cpp:488] conv4_4/scale <- conv4_4/SE_weights/reshape
I0717 15:03:47.235357  6447 net.cpp:177] This layer is inheriting previous layer's sync mode: 1
I0717 15:03:47.235363  6447 net.cpp:462] conv4_4/scale -> conv4_4/scale
I0717 15:03:47.235429  6447 net.cpp:216] Setting up conv4_4/scale
I0717 15:03:47.235433  6447 net.cpp:222] Top shape: 8 464 7 7 (181888)
I0717 15:03:47.235436  6447 net.cpp:228] Memory required for data: 1181993728
I0717 15:03:47.235440  6447 layer_factory.hpp:76] Creating layer conv5/1x1
I0717 15:03:47.235450  6447 net.cpp:144] Creating Layer conv5/1x1
I0717 15:03:47.235453  6447 net.cpp:488] conv5/1x1 <- conv4_4/scale
I0717 15:03:47.235456  6447 net.cpp:177] This layer is inheriting previous layer's sync mode: 1
I0717 15:03:47.235461  6447 net.cpp:462] conv5/1x1 -> conv5/1x1
I0717 15:03:47.249655  6447 net.cpp:216] Setting up conv5/1x1
I0717 15:03:47.249672  6447 net.cpp:222] Top shape: 8 1024 7 7 (401408)
I0717 15:03:47.249692  6447 net.cpp:228] Memory required for data: 1183599360
I0717 15:03:47.249699  6447 layer_factory.hpp:76] Creating layer conv5/1x1/bn
I0717 15:03:47.249708  6447 net.cpp:144] Creating Layer conv5/1x1/bn
I0717 15:03:47.249713  6447 net.cpp:488] conv5/1x1/bn <- conv5/1x1
I0717 15:03:47.249717  6447 net.cpp:177] This layer is inheriting previous layer's sync mode: 1
I0717 15:03:47.249723  6447 net.cpp:462] conv5/1x1/bn -> conv5/1x1/bn
I0717 15:03:47.249866  6447 cudnn_batch_norm_layer.cpp:84] Using CuDNN BN engine.
I0717 15:03:47.249931  6447 net.cpp:216] Setting up conv5/1x1/bn
I0717 15:03:47.249943  6447 net.cpp:222] Top shape: 8 1024 7 7 (401408)
I0717 15:03:47.249945  6447 net.cpp:228] Memory required for data: 1185204992
I0717 15:03:47.249953  6447 layer_factory.hpp:76] Creating layer conv5/1x1/relu
I0717 15:03:47.249960  6447 net.cpp:144] Creating Layer conv5/1x1/relu
I0717 15:03:47.249964  6447 net.cpp:488] conv5/1x1/relu <- conv5/1x1/bn
I0717 15:03:47.249969  6447 net.cpp:177] This layer is inheriting previous layer's sync mode: 1
I0717 15:03:47.249971  6447 net.cpp:451] conv5/1x1/relu -> conv5/1x1/bn (in-place)
I0717 15:03:47.249977  6447 net.cpp:216] Setting up conv5/1x1/relu
I0717 15:03:47.249981  6447 net.cpp:222] Top shape: 8 1024 7 7 (401408)
I0717 15:03:47.249984  6447 net.cpp:228] Memory required for data: 1186810624
I0717 15:03:47.249986  6447 layer_factory.hpp:76] Creating layer feature7
I0717 15:03:47.249996  6447 net.cpp:144] Creating Layer feature7
I0717 15:03:47.250000  6447 net.cpp:488] feature7 <- conv5/1x1/bn
I0717 15:03:47.250002  6447 net.cpp:177] This layer is inheriting previous layer's sync mode: 1
I0717 15:03:47.250007  6447 net.cpp:462] feature7 -> feature7
I0717 15:03:47.253552  6447 net.cpp:216] Setting up feature7
I0717 15:03:47.253566  6447 net.cpp:222] Top shape: 8 64 7 7 (25088)
I0717 15:03:47.253568  6447 net.cpp:228] Memory required for data: 1186910976
I0717 15:03:47.253590  6447 layer_factory.hpp:76] Creating layer feature7_56
I0717 15:03:47.253604  6447 net.cpp:144] Creating Layer feature7_56
I0717 15:03:47.253608  6447 net.cpp:488] feature7_56 <- feature7
I0717 15:03:47.253612  6447 net.cpp:177] This layer is inheriting previous layer's sync mode: 1
I0717 15:03:47.253618  6447 net.cpp:462] feature7_56 -> feature7_56
I0717 15:03:47.254575  6447 net.cpp:216] Setting up feature7_56
I0717 15:03:47.254585  6447 net.cpp:222] Top shape: 8 64 56 56 (1605632)
I0717 15:03:47.254586  6447 net.cpp:228] Memory required for data: 1193333504
I0717 15:03:47.254607  6447 layer_factory.hpp:76] Creating layer feature14
I0717 15:03:47.254617  6447 net.cpp:144] Creating Layer feature14
I0717 15:03:47.254621  6447 net.cpp:488] feature14 <- conv3_8/scale_conv3_8/scale_0_split_2
I0717 15:03:47.254626  6447 net.cpp:177] This layer is inheriting previous layer's sync mode: 1
I0717 15:03:47.254629  6447 net.cpp:462] feature14 -> feature14
I0717 15:03:47.255271  6447 net.cpp:216] Setting up feature14
I0717 15:03:47.255280  6447 net.cpp:222] Top shape: 8 64 14 14 (100352)
I0717 15:03:47.255283  6447 net.cpp:228] Memory required for data: 1193734912
I0717 15:03:47.255304  6447 layer_factory.hpp:76] Creating layer feature14_56
I0717 15:03:47.255311  6447 net.cpp:144] Creating Layer feature14_56
I0717 15:03:47.255316  6447 net.cpp:488] feature14_56 <- feature14
I0717 15:03:47.255319  6447 net.cpp:177] This layer is inheriting previous layer's sync mode: 1
I0717 15:03:47.255326  6447 net.cpp:462] feature14_56 -> feature14_56
I0717 15:03:47.255780  6447 net.cpp:216] Setting up feature14_56
I0717 15:03:47.255787  6447 net.cpp:222] Top shape: 8 64 56 56 (1605632)
I0717 15:03:47.255790  6447 net.cpp:228] Memory required for data: 1200157440
I0717 15:03:47.255811  6447 layer_factory.hpp:76] Creating layer feature28
I0717 15:03:47.255818  6447 net.cpp:144] Creating Layer feature28
I0717 15:03:47.255822  6447 net.cpp:488] feature28 <- conv2_4/scale_conv2_4/scale_0_split_2
I0717 15:03:47.255826  6447 net.cpp:177] This layer is inheriting previous layer's sync mode: 1
I0717 15:03:47.255833  6447 net.cpp:462] feature28 -> feature28
I0717 15:03:47.256327  6447 net.cpp:216] Setting up feature28
I0717 15:03:47.256335  6447 net.cpp:222] Top shape: 8 64 28 28 (401408)
I0717 15:03:47.256337  6447 net.cpp:228] Memory required for data: 1201763072
I0717 15:03:47.256359  6447 layer_factory.hpp:76] Creating layer feature28_56
I0717 15:03:47.256366  6447 net.cpp:144] Creating Layer feature28_56
I0717 15:03:47.256369  6447 net.cpp:488] feature28_56 <- feature28
I0717 15:03:47.256372  6447 net.cpp:177] This layer is inheriting previous layer's sync mode: 1
I0717 15:03:47.256379  6447 net.cpp:462] feature28_56 -> feature28_56
I0717 15:03:47.256642  6447 net.cpp:216] Setting up feature28_56
I0717 15:03:47.256649  6447 net.cpp:222] Top shape: 8 64 56 56 (1605632)
I0717 15:03:47.256651  6447 net.cpp:228] Memory required for data: 1208185600
I0717 15:03:47.256655  6447 layer_factory.hpp:76] Creating layer feature56
I0717 15:03:47.256665  6447 net.cpp:144] Creating Layer feature56
I0717 15:03:47.256669  6447 net.cpp:488] feature56 <- conv1_4/scale_conv1_4/scale_0_split_1
I0717 15:03:47.256673  6447 net.cpp:177] This layer is inheriting previous layer's sync mode: 1
I0717 15:03:47.256677  6447 net.cpp:462] feature56 -> feature56
I0717 15:03:47.257117  6447 net.cpp:216] Setting up feature56
I0717 15:03:47.257125  6447 net.cpp:222] Top shape: 8 64 56 56 (1605632)
I0717 15:03:47.257128  6447 net.cpp:228] Memory required for data: 1214608128
I0717 15:03:47.257149  6447 layer_factory.hpp:76] Creating layer sum56
I0717 15:03:47.257159  6447 net.cpp:144] Creating Layer sum56
I0717 15:03:47.257163  6447 net.cpp:488] sum56 <- feature7_56
I0717 15:03:47.257166  6447 net.cpp:488] sum56 <- feature14_56
I0717 15:03:47.257170  6447 net.cpp:488] sum56 <- feature28_56
I0717 15:03:47.257174  6447 net.cpp:488] sum56 <- feature56
I0717 15:03:47.257176  6447 net.cpp:177] This layer is inheriting previous layer's sync mode: 1
I0717 15:03:47.257182  6447 net.cpp:462] sum56 -> sum56
I0717 15:03:47.257230  6447 net.cpp:216] Setting up sum56
I0717 15:03:47.257236  6447 net.cpp:222] Top shape: 8 64 56 56 (1605632)
I0717 15:03:47.257238  6447 net.cpp:228] Memory required for data: 1221030656
I0717 15:03:47.257241  6447 layer_factory.hpp:76] Creating layer sum56_sum56_0_split
I0717 15:03:47.257247  6447 net.cpp:144] Creating Layer sum56_sum56_0_split
I0717 15:03:47.257251  6447 net.cpp:488] sum56_sum56_0_split <- sum56
I0717 15:03:47.257254  6447 net.cpp:177] This layer is inheriting previous layer's sync mode: 1
I0717 15:03:47.257275  6447 net.cpp:462] sum56_sum56_0_split -> sum56_sum56_0_split_0
I0717 15:03:47.257280  6447 net.cpp:462] sum56_sum56_0_split -> sum56_sum56_0_split_1
I0717 15:03:47.257285  6447 net.cpp:462] sum56_sum56_0_split -> sum56_sum56_0_split_2
I0717 15:03:47.257340  6447 net.cpp:216] Setting up sum56_sum56_0_split
I0717 15:03:47.257346  6447 net.cpp:222] Top shape: 8 64 56 56 (1605632)
I0717 15:03:47.257349  6447 net.cpp:222] Top shape: 8 64 56 56 (1605632)
I0717 15:03:47.257352  6447 net.cpp:222] Top shape: 8 64 56 56 (1605632)
I0717 15:03:47.257355  6447 net.cpp:228] Memory required for data: 1240298240
I0717 15:03:47.257357  6447 layer_factory.hpp:76] Creating layer shuffle56
I0717 15:03:47.257366  6447 net.cpp:144] Creating Layer shuffle56
I0717 15:03:47.257369  6447 net.cpp:488] shuffle56 <- sum56_sum56_0_split_0
I0717 15:03:47.257374  6447 net.cpp:177] This layer is inheriting previous layer's sync mode: 1
I0717 15:03:47.257378  6447 net.cpp:462] shuffle56 -> shuffle56
I0717 15:03:47.257645  6447 net.cpp:216] Setting up shuffle56
I0717 15:03:47.257668  6447 net.cpp:222] Top shape: 8 32 56 56 (802816)
I0717 15:03:47.257671  6447 net.cpp:228] Memory required for data: 1243509504
I0717 15:03:47.257691  6447 layer_factory.hpp:76] Creating layer shuffle56_bn
I0717 15:03:47.257699  6447 net.cpp:144] Creating Layer shuffle56_bn
I0717 15:03:47.257702  6447 net.cpp:488] shuffle56_bn <- shuffle56
I0717 15:03:47.257706  6447 net.cpp:177] This layer is inheriting previous layer's sync mode: 1
I0717 15:03:47.257710  6447 net.cpp:462] shuffle56_bn -> shuffle56_bn
I0717 15:03:47.257846  6447 cudnn_batch_norm_layer.cpp:84] Using CuDNN BN engine.
I0717 15:03:47.257911  6447 net.cpp:216] Setting up shuffle56_bn
I0717 15:03:47.257917  6447 net.cpp:222] Top shape: 8 32 56 56 (802816)
I0717 15:03:47.257920  6447 net.cpp:228] Memory required for data: 1246720768
I0717 15:03:47.257926  6447 layer_factory.hpp:76] Creating layer shuffle56/relu
I0717 15:03:47.257932  6447 net.cpp:144] Creating Layer shuffle56/relu
I0717 15:03:47.257936  6447 net.cpp:488] shuffle56/relu <- shuffle56_bn
I0717 15:03:47.257942  6447 net.cpp:177] This layer is inheriting previous layer's sync mode: 1
I0717 15:03:47.257946  6447 net.cpp:451] shuffle56/relu -> shuffle56_bn (in-place)
I0717 15:03:47.257952  6447 net.cpp:216] Setting up shuffle56/relu
I0717 15:03:47.257972  6447 net.cpp:222] Top shape: 8 32 56 56 (802816)
I0717 15:03:47.257974  6447 net.cpp:228] Memory required for data: 1249932032
I0717 15:03:47.257977  6447 layer_factory.hpp:76] Creating layer squeeze56
I0717 15:03:47.257987  6447 net.cpp:144] Creating Layer squeeze56
I0717 15:03:47.257990  6447 net.cpp:488] squeeze56 <- shuffle56_bn
I0717 15:03:47.257993  6447 net.cpp:177] This layer is inheriting previous layer's sync mode: 1
I0717 15:03:47.257997  6447 net.cpp:462] squeeze56 -> squeeze56
I0717 15:03:47.258411  6447 net.cpp:216] Setting up squeeze56
I0717 15:03:47.258420  6447 net.cpp:222] Top shape: 8 16 56 56 (401408)
I0717 15:03:47.258422  6447 net.cpp:228] Memory required for data: 1251537664
I0717 15:03:47.258427  6447 layer_factory.hpp:76] Creating layer feature448
I0717 15:03:47.258435  6447 net.cpp:144] Creating Layer feature448
I0717 15:03:47.258440  6447 net.cpp:488] feature448 <- squeeze56
I0717 15:03:47.258443  6447 net.cpp:177] This layer is inheriting previous layer's sync mode: 1
I0717 15:03:47.258450  6447 net.cpp:462] feature448 -> feature448
I0717 15:03:47.258826  6447 net.cpp:216] Setting up feature448
I0717 15:03:47.258833  6447 net.cpp:222] Top shape: 8 16 448 448 (25690112)
I0717 15:03:47.258836  6447 net.cpp:228] Memory required for data: 1354298112
I0717 15:03:47.258841  6447 layer_factory.hpp:76] Creating layer outputcls
I0717 15:03:47.258849  6447 net.cpp:144] Creating Layer outputcls
I0717 15:03:47.258852  6447 net.cpp:488] outputcls <- feature448
I0717 15:03:47.258855  6447 net.cpp:177] This layer is inheriting previous layer's sync mode: 1
I0717 15:03:47.258862  6447 net.cpp:462] outputcls -> outputcls
I0717 15:03:47.259105  6447 net.cpp:216] Setting up outputcls
I0717 15:03:47.259114  6447 net.cpp:222] Top shape: 8 2 448 448 (3211264)
I0717 15:03:47.259117  6447 net.cpp:228] Memory required for data: 1367143168
I0717 15:03:47.259121  6447 layer_factory.hpp:76] Creating layer shuffle56reg
I0717 15:03:47.259129  6447 net.cpp:144] Creating Layer shuffle56reg
I0717 15:03:47.259132  6447 net.cpp:488] shuffle56reg <- sum56_sum56_0_split_1
I0717 15:03:47.259136  6447 net.cpp:177] This layer is inheriting previous layer's sync mode: 1
I0717 15:03:47.259146  6447 net.cpp:462] shuffle56reg -> shuffle56reg
I0717 15:03:47.259435  6447 net.cpp:216] Setting up shuffle56reg
I0717 15:03:47.259443  6447 net.cpp:222] Top shape: 8 32 56 56 (802816)
I0717 15:03:47.259445  6447 net.cpp:228] Memory required for data: 1370354432
I0717 15:03:47.259450  6447 layer_factory.hpp:76] Creating layer shuffle56_bnreg
I0717 15:03:47.259456  6447 net.cpp:144] Creating Layer shuffle56_bnreg
I0717 15:03:47.259460  6447 net.cpp:488] shuffle56_bnreg <- shuffle56reg
I0717 15:03:47.259465  6447 net.cpp:177] This layer is inheriting previous layer's sync mode: 1
I0717 15:03:47.259469  6447 net.cpp:462] shuffle56_bnreg -> shuffle56_bnreg
I0717 15:03:47.259596  6447 cudnn_batch_norm_layer.cpp:84] Using CuDNN BN engine.
I0717 15:03:47.259660  6447 net.cpp:216] Setting up shuffle56_bnreg
I0717 15:03:47.259665  6447 net.cpp:222] Top shape: 8 32 56 56 (802816)
I0717 15:03:47.259667  6447 net.cpp:228] Memory required for data: 1373565696
I0717 15:03:47.259675  6447 layer_factory.hpp:76] Creating layer shuffle56/relureg
I0717 15:03:47.259682  6447 net.cpp:144] Creating Layer shuffle56/relureg
I0717 15:03:47.259686  6447 net.cpp:488] shuffle56/relureg <- shuffle56_bnreg
I0717 15:03:47.259690  6447 net.cpp:177] This layer is inheriting previous layer's sync mode: 1
I0717 15:03:47.259692  6447 net.cpp:451] shuffle56/relureg -> shuffle56_bnreg (in-place)
I0717 15:03:47.259698  6447 net.cpp:216] Setting up shuffle56/relureg
I0717 15:03:47.259702  6447 net.cpp:222] Top shape: 8 32 56 56 (802816)
I0717 15:03:47.259704  6447 net.cpp:228] Memory required for data: 1376776960
I0717 15:03:47.259707  6447 layer_factory.hpp:76] Creating layer squeeze56reg
I0717 15:03:47.259716  6447 net.cpp:144] Creating Layer squeeze56reg
I0717 15:03:47.259719  6447 net.cpp:488] squeeze56reg <- shuffle56_bnreg
I0717 15:03:47.259722  6447 net.cpp:177] This layer is inheriting previous layer's sync mode: 1
I0717 15:03:47.259727  6447 net.cpp:462] squeeze56reg -> squeeze56reg
I0717 15:03:47.260082  6447 net.cpp:216] Setting up squeeze56reg
I0717 15:03:47.260090  6447 net.cpp:222] Top shape: 8 16 56 56 (401408)
I0717 15:03:47.260093  6447 net.cpp:228] Memory required for data: 1378382592
I0717 15:03:47.260098  6447 layer_factory.hpp:76] Creating layer feature448reg
I0717 15:03:47.260107  6447 net.cpp:144] Creating Layer feature448reg
I0717 15:03:47.260109  6447 net.cpp:488] feature448reg <- squeeze56reg
I0717 15:03:47.260113  6447 net.cpp:177] This layer is inheriting previous layer's sync mode: 1
I0717 15:03:47.260118  6447 net.cpp:462] feature448reg -> feature448reg
I0717 15:03:47.260509  6447 net.cpp:216] Setting up feature448reg
I0717 15:03:47.260515  6447 net.cpp:222] Top shape: 8 16 448 448 (25690112)
I0717 15:03:47.260519  6447 net.cpp:228] Memory required for data: 1481143040
I0717 15:03:47.260522  6447 layer_factory.hpp:76] Creating layer outputreg
I0717 15:03:47.260530  6447 net.cpp:144] Creating Layer outputreg
I0717 15:03:47.260535  6447 net.cpp:488] outputreg <- feature448reg
I0717 15:03:47.260537  6447 net.cpp:177] This layer is inheriting previous layer's sync mode: 1
I0717 15:03:47.260542  6447 net.cpp:462] outputreg -> outputreg
I0717 15:03:47.260772  6447 net.cpp:216] Setting up outputreg
I0717 15:03:47.260781  6447 net.cpp:222] Top shape: 8 2 448 448 (3211264)
I0717 15:03:47.260782  6447 net.cpp:228] Memory required for data: 1493988096
I0717 15:03:47.260787  6447 layer_factory.hpp:76] Creating layer shuffle56seg
I0717 15:03:47.260797  6447 net.cpp:144] Creating Layer shuffle56seg
I0717 15:03:47.260800  6447 net.cpp:488] shuffle56seg <- sum56_sum56_0_split_2
I0717 15:03:47.260803  6447 net.cpp:177] This layer is inheriting previous layer's sync mode: 1
I0717 15:03:47.260810  6447 net.cpp:462] shuffle56seg -> shuffle56seg
I0717 15:03:47.261158  6447 net.cpp:216] Setting up shuffle56seg
I0717 15:03:47.261168  6447 net.cpp:222] Top shape: 8 64 56 56 (1605632)
I0717 15:03:47.261169  6447 net.cpp:228] Memory required for data: 1500410624
I0717 15:03:47.261174  6447 layer_factory.hpp:76] Creating layer shuffle56_bnseg
I0717 15:03:47.261180  6447 net.cpp:144] Creating Layer shuffle56_bnseg
I0717 15:03:47.261184  6447 net.cpp:488] shuffle56_bnseg <- shuffle56seg
I0717 15:03:47.261188  6447 net.cpp:177] This layer is inheriting previous layer's sync mode: 1
I0717 15:03:47.261194  6447 net.cpp:462] shuffle56_bnseg -> shuffle56_bnseg
I0717 15:03:47.261338  6447 cudnn_batch_norm_layer.cpp:84] Using CuDNN BN engine.
I0717 15:03:47.261400  6447 net.cpp:216] Setting up shuffle56_bnseg
I0717 15:03:47.261406  6447 net.cpp:222] Top shape: 8 64 56 56 (1605632)
I0717 15:03:47.261409  6447 net.cpp:228] Memory required for data: 1506833152
I0717 15:03:47.261415  6447 layer_factory.hpp:76] Creating layer shuffle56/reluseg
I0717 15:03:47.261422  6447 net.cpp:144] Creating Layer shuffle56/reluseg
I0717 15:03:47.261426  6447 net.cpp:488] shuffle56/reluseg <- shuffle56_bnseg
I0717 15:03:47.261430  6447 net.cpp:177] This layer is inheriting previous layer's sync mode: 1
I0717 15:03:47.261432  6447 net.cpp:451] shuffle56/reluseg -> shuffle56_bnseg (in-place)
I0717 15:03:47.261438  6447 net.cpp:216] Setting up shuffle56/reluseg
I0717 15:03:47.261442  6447 net.cpp:222] Top shape: 8 64 56 56 (1605632)
I0717 15:03:47.261445  6447 net.cpp:228] Memory required for data: 1513255680
I0717 15:03:47.261447  6447 layer_factory.hpp:76] Creating layer squeeze56seg
I0717 15:03:47.261454  6447 net.cpp:144] Creating Layer squeeze56seg
I0717 15:03:47.261457  6447 net.cpp:488] squeeze56seg <- shuffle56_bnseg
I0717 15:03:47.261461  6447 net.cpp:177] This layer is inheriting previous layer's sync mode: 1
I0717 15:03:47.261466  6447 net.cpp:462] squeeze56seg -> squeeze56seg
I0717 15:03:47.261945  6447 net.cpp:216] Setting up squeeze56seg
I0717 15:03:47.261970  6447 net.cpp:222] Top shape: 8 16 56 56 (401408)
I0717 15:03:47.261972  6447 net.cpp:228] Memory required for data: 1514861312
I0717 15:03:47.261977  6447 layer_factory.hpp:76] Creating layer feature448seg
I0717 15:03:47.261986  6447 net.cpp:144] Creating Layer feature448seg
I0717 15:03:47.262006  6447 net.cpp:488] feature448seg <- squeeze56seg
I0717 15:03:47.262010  6447 net.cpp:177] This layer is inheriting previous layer's sync mode: 1
I0717 15:03:47.262014  6447 net.cpp:462] feature448seg -> feature448seg
I0717 15:03:47.262431  6447 net.cpp:216] Setting up feature448seg
I0717 15:03:47.262439  6447 net.cpp:222] Top shape: 8 16 448 448 (25690112)
I0717 15:03:47.262442  6447 net.cpp:228] Memory required for data: 1617621760
I0717 15:03:47.262446  6447 layer_factory.hpp:76] Creating layer outputseg
I0717 15:03:47.262455  6447 net.cpp:144] Creating Layer outputseg
I0717 15:03:47.262459  6447 net.cpp:488] outputseg <- feature448seg
I0717 15:03:47.262462  6447 net.cpp:177] This layer is inheriting previous layer's sync mode: 1
I0717 15:03:47.262467  6447 net.cpp:462] outputseg -> outputseg
I0717 15:03:47.262707  6447 net.cpp:216] Setting up outputseg
I0717 15:03:47.262715  6447 net.cpp:222] Top shape: 8 6 448 448 (9633792)
I0717 15:03:47.262717  6447 net.cpp:228] Memory required for data: 1656156928
I0717 15:03:47.262722  6447 layer_factory.hpp:76] Creating layer balancecls
I0717 15:03:47.262735  6447 net.cpp:144] Creating Layer balancecls
I0717 15:03:47.262739  6447 net.cpp:488] balancecls <- outputcls
I0717 15:03:47.262744  6447 net.cpp:488] balancecls <- clslabel_slice_2_split_0
I0717 15:03:47.262748  6447 net.cpp:177] This layer is inheriting previous layer's sync mode: 1
I0717 15:03:47.262751  6447 net.cpp:462] balancecls -> balancecls
I0717 15:03:47.262760  6447 net.cpp:462] balancecls -> dummy
I0717 15:03:47.262802  6447 net.cpp:216] Setting up balancecls
I0717 15:03:47.262809  6447 net.cpp:222] Top shape: 8 2 448 448 (3211264)
I0717 15:03:47.262814  6447 net.cpp:222] Top shape: 8 1 448 448 (1605632)
I0717 15:03:47.262816  6447 net.cpp:228] Memory required for data: 1675424512
I0717 15:03:47.262820  6447 layer_factory.hpp:76] Creating layer expandlabel
I0717 15:03:47.262828  6447 net.cpp:144] Creating Layer expandlabel
I0717 15:03:47.262831  6447 net.cpp:488] expandlabel <- clslabel_slice_2_split_1
I0717 15:03:47.262835  6447 net.cpp:177] This layer is inheriting previous layer's sync mode: 1
I0717 15:03:47.262838  6447 net.cpp:462] expandlabel -> expandlabel
I0717 15:03:47.262847  6447 net.cpp:462] expandlabel -> mask
I0717 15:03:47.262887  6447 net.cpp:216] Setting up expandlabel
I0717 15:03:47.262893  6447 net.cpp:222] Top shape: 8 2 448 448 (3211264)
I0717 15:03:47.262897  6447 net.cpp:222] Top shape: 8 1 448 448 (1605632)
I0717 15:03:47.262899  6447 net.cpp:228] Memory required for data: 1694692096
I0717 15:03:47.262902  6447 layer_factory.hpp:76] Creating layer maskcls
I0717 15:03:47.262912  6447 net.cpp:144] Creating Layer maskcls
I0717 15:03:47.262914  6447 net.cpp:488] maskcls <- balancecls
I0717 15:03:47.262918  6447 net.cpp:488] maskcls <- mask
I0717 15:03:47.262922  6447 net.cpp:177] This layer is inheriting previous layer's sync mode: 1
I0717 15:03:47.262924  6447 net.cpp:462] maskcls -> maskcls
I0717 15:03:47.262956  6447 net.cpp:216] Setting up maskcls
I0717 15:03:47.262962  6447 net.cpp:222] Top shape: 8 2 448 448 (3211264)
I0717 15:03:47.262964  6447 net.cpp:228] Memory required for data: 1707537152
I0717 15:03:47.262967  6447 layer_factory.hpp:76] Creating layer losscls
I0717 15:03:47.262976  6447 net.cpp:144] Creating Layer losscls
I0717 15:03:47.262979  6447 net.cpp:488] losscls <- maskcls
I0717 15:03:47.262984  6447 net.cpp:488] losscls <- expandlabel
I0717 15:03:47.262986  6447 net.cpp:177] This layer is inheriting previous layer's sync mode: 1
…
I0717 15:03:47.263108  6447 net.cpp:216] Setting up silence
I0717 15:03:47.263110  6447 net.cpp:228] Memory required for data: 1707537156
I0717 15:03:47.263113  6447 layer_factory.hpp:76] Creating layer maskreg
I0717 15:03:47.263119  6447 net.cpp:144] Creating Layer maskreg
I0717 15:03:47.263123  6447 net.cpp:488] maskreg <- outputreg
I0717 15:03:47.263125  6447 net.cpp:488] maskreg <- regmask
I0717 15:03:47.263128  6447 net.cpp:177] This layer is inheriting previous layer's sync mode: 1
I0717 15:03:47.263133  6447 net.cpp:462] maskreg -> maskreg
I0717 15:03:47.263156  6447 net.cpp:216] Setting up maskreg
I0717 15:03:47.263162  6447 net.cpp:222] Top shape: 8 2 448 448 (3211264)
I0717 15:03:47.263165  6447 net.cpp:228] Memory required for data: 1720382212
I0717 15:03:47.263167  6447 layer_factory.hpp:76] Creating layer lossreg
I0717 15:03:47.263176  6447 net.cpp:144] Creating Layer lossreg
I0717 15:03:47.263180  6447 net.cpp:488] lossreg <- maskreg
I0717 15:03:47.263183  6447 net.cpp:488] lossreg <- reglabel
I0717 15:03:47.263186  6447 net.cpp:177] This layer is inheriting previous layer's sync mode: 1
I0717 15:03:47.263190  6447 net.cpp:462] lossreg -> lossreg
I0717 15:03:47.294646  6447 net.cpp:216] Setting up lossreg
I0717 15:03:47.294688  6447 net.cpp:222] Top shape: (1)
I0717 15:03:47.294693  6447 net.cpp:224]     with loss weight 1
I0717 15:03:47.294708  6447 net.cpp:228] Memory required for data: 1720382216
I0717 15:03:47.294716  6447 layer_factory.hpp:76] Creating layer balanceseg
I0717 15:03:47.294733  6447 net.cpp:144] Creating Layer balanceseg
I0717 15:03:47.295018  6447 net.cpp:488] balanceseg <- outputseg
I0717 15:03:47.295028  6447 net.cpp:488] balanceseg <- seglabel
I0717 15:03:47.295033  6447 net.cpp:177] This layer is inheriting previous layer's sync mode: 1
I0717 15:03:47.295040  6447 net.cpp:462] balanceseg -> balanceseg
I0717 15:03:47.295054  6447 net.cpp:462] balanceseg -> adjustseglabel
I0717 15:03:47.295114  6447 net.cpp:216] Setting up balanceseg
I0717 15:03:47.295120  6447 net.cpp:222] Top shape: 8 6 448 448 (9633792)
I0717 15:03:47.295125  6447 net.cpp:222] Top shape: 8 1 448 448 (1605632)
I0717 15:03:47.295127  6447 net.cpp:228] Memory required for data: 1765339912
I0717 15:03:47.295130  6447 layer_factory.hpp:76] Creating layer expandseglabel
I0717 15:03:47.295140  6447 net.cpp:144] Creating Layer expandseglabel
I0717 15:03:47.295142  6447 net.cpp:488] expandseglabel <- adjustseglabel
I0717 15:03:47.295145  6447 net.cpp:177] This layer is inheriting previous layer's sync mode: 1
I0717 15:03:47.295150  6447 net.cpp:462] expandseglabel -> expandseglabel
I0717 15:03:47.295157  6447 net.cpp:462] expandseglabel -> segmask
I0717 15:03:47.295197  6447 net.cpp:216] Setting up expandseglabel
I0717 15:03:47.295202  6447 net.cpp:222] Top shape: 8 6 448 448 (9633792)
I0717 15:03:47.295205  6447 net.cpp:222] Top shape: 8 1 448 448 (1605632)
I0717 15:03:47.295207  6447 net.cpp:228] Memory required for data: 1810297608
I0717 15:03:47.295210  6447 layer_factory.hpp:76] Creating layer maskoutputseg
I0717 15:03:47.295215  6447 net.cpp:144] Creating Layer maskoutputseg
I0717 15:03:47.295218  6447 net.cpp:488] maskoutputseg <- balanceseg
I0717 15:03:47.295222  6447 net.cpp:488] maskoutputseg <- segmask
I0717 15:03:47.295225  6447 net.cpp:177] This layer is inheriting previous layer's sync mode: 1
I0717 15:03:47.295229  6447 net.cpp:462] maskoutputseg -> maskoutputseg
I0717 15:03:47.295258  6447 net.cpp:216] Setting up maskoutputseg
I0717 15:03:47.295264  6447 net.cpp:222] Top shape: 8 6 448 448 (9633792)
I0717 15:03:47.295266  6447 net.cpp:228] Memory required for data: 1848832776
I0717 15:03:47.295269  6447 layer_factory.hpp:76] Creating layer lossseg
I0717 15:03:47.295277  6447 net.cpp:144] Creating Layer lossseg
I0717 15:03:47.295280  6447 net.cpp:488] lossseg <- maskoutputseg
I0717 15:03:47.295284  6447 net.cpp:488] lossseg <- expandseglabel
I0717 15:03:47.295287  6447 net.cpp:177] This layer is inheriting previous layer's sync mode: 1
…
