…
      resize_type: NEAREST
      data_scale: 1
      src_type: IMAGE
      default_pad_value: 255
      keep_aspect_ratio: false
      use_color_aug: false
    }
    topinfo {
      channels: 4
      width: 470
      height: 470
      src_type: HEATMAP
      value_radius: 7
      ignore_radius: 7
    }
    batch_size: 8
    shuffle: true
    use_distrib: true
    distrib_angle: 0
    distrib_scale: 0
    distrib_x: 0
    distrib_y: 0
    source_splitflag: "||"
    use_flip: true
    coloraug_hsv_h: 0
    use_crop: false
    crop_x: 1
    crop_y: 1
  }
}
layer {
  name: "concatdatalabel"
  type: "Concat"
  bottom: "orgdata"
  bottom: "orgseglabel"
  bottom: "orgpointlabel"
  top: "concatdatalabel"
}
layer {
  name: "cropdatalabel"
  type: "SuperCrop"
  bottom: "concatdatalabel"
  top: "cropdatalabel"
  super_crop_param {
    type: RANDOM
    crop_w: 448
    crop_h: 448
  }
}
layer {
  name: "slice"
  type: "Slice"
  bottom: "cropdatalabel"
  top: "data"
  top: "seglabel"
  top: "clslabel"
  top: "reglabel"
  top: "regmask"
  slice_param {
    slice_point: 3
    slice_point: 4
    slice_point: 5
    slice_point: 7
  }
}
layer {
  name: "conv1"
  type: "Convolution"
  bottom: "data"
  top: "conv1"
  param {
    lr_mult: 1
    decay_mult: 1
  }
  convolution_param {
    num_output: 24
    bias_term: false
    pad: 1
    kernel_size: 3
    stride: 2
    weight_filler {
      type: "msra"
    }
  }
}
layer {
  name: "conv1/bn"
  type: "CuDNNBatchNorm"
  bottom: "conv1"
  top: "conv1/bn"
  param {
    lr_mult: 1
    decay_mult: 0
  }
  param {
    lr_mult: 1
    decay_mult: 0
  }
  param {
    lr_mult: 0
    decay_mult: 0
  }
  param {
    lr_mult: 0
    decay_mult: 0
  }
  batch_norm_param {
    frozen: false
    momentum: 0.95
    scale_filler {
      type: "constant"
      value: 1
    }
    bias_filler {
      type: "constant"
      value: 0
    }
  }
}
layer {
  name: "conv1/relu"
  type: "ReLU"
  bottom: "conv1/bn"
  top: "conv1/bn"
}
layer {
  name: "pool1"
  type: "Pooling"
  bottom: "conv1/bn"
  top: "pool1"
  pooling_param {
    pool: MAX
    kernel_size: 3
    stride: 2
  }
}
layer {
  name: "conv1_1/branch1_dwconv1"
  type: "DepthwiseConvolution"
  bottom: "pool1"
  top: "conv1_1/branch1_dwconv1"
  param {
    lr_mult: 1
    decay_mult: 1
  }
  convolution_param {
    num_output: 24
    bias_term: false
    pad: 1
    kernel_size: 3
    group: 24
    stride: 2
    weight_filler {
      type: "msra"
    }
  }
}
layer {
  name: "conv1_1/branch1_dwconv1/bn"
  type: "CuDNNBatchNorm"
  bottom: "conv1_1/branch1_dwconv1"
  top: "conv1_1/branch1_dwconv1/bn"
  param {
    lr_mult: 1
    decay_mult: 0
  }
  param {
    lr_mult: 1
    decay_mult: 0
  }
  param {
    lr_mult: 0
    decay_mult: 0
  }
  param {
    lr_mult: 0
    decay_mult: 0
  }
  batch_norm_param {
    frozen: false
    momentum: 0.95
    scale_filler {
      type: "constant"
      value: 1
    }
    bias_filler {
      type: "constant"
      value: 0
    }
  }
}
layer {
  name: "conv1_1/branch1_conv2"
  type: "Convolution"
  bottom: "conv1_1/branch1_dwconv1/bn"
  top: "conv1_1/branch1_conv2"
  param {
    lr_mult: 1
    decay_mult: 1
  }
  convolution_param {
    num_output: 58
    bias_term: false
    pad: 0
    kernel_size: 1
    stride: 1
    weight_filler {
      type: "msra"
    }
  }
}
layer {
  name: "conv1_1/branch1_conv2/bn"
  type: "CuDNNBatchNorm"
  bottom: "conv1_1/branch1_conv2"
  top: "conv1_1/branch1_conv2/bn"
  param {
    lr_mult: 1
    decay_mult: 0
  }
  param {
    lr_mult: 1
    decay_mult: 0
  }
  param {
    lr_mult: 0
    decay_mult: 0
  }
  param {
    lr_mult: 0
    decay_mult: 0
  }
  batch_norm_param {
    frozen: false
    momentum: 0.95
    scale_filler {
      type: "constant"
      value: 1
    }
    bias_filler {
      type: "constant"
      value: 0
    }
  }
}
layer {
  name: "conv1_1/branch1_conv2/relu"
  type: "ReLU"
  bottom: "conv1_1/branch1_conv2/bn"
  top: "conv1_1/branch1_conv2/bn"
}
layer {
  name: "conv1_1/brach2_conv1"
  type: "Convolution"
  bottom: "pool1"
  top: "conv1_1/brach2_conv1"
  param {
    lr_mult: 1
    decay_mult: 1
  }
  convolution_param {
    num_output: 24
    bias_term: false
    pad: 0
    kernel_size: 1
    stride: 1
    weight_filler {
      type: "msra"
    }
  }
}
layer {
  name: "conv1_1/brach2_conv1/bn"
  type: "CuDNNBatchNorm"
  bottom: "conv1_1/brach2_conv1"
  top: "conv1_1/brach2_conv1/bn"
  param {
    lr_mult: 1
    decay_mult: 0
  }
  param {
    lr_mult: 1
    decay_mult: 0
  }
  param {
    lr_mult: 0
    decay_mult: 0
  }
  param {
    lr_mult: 0
    decay_mult: 0
  }
  batch_norm_param {
    frozen: false
    momentum: 0.95
    scale_filler {
      type: "constant"
      value: 1
    }
    bias_filler {
      type: "constant"
      value: 0
    }
  }
}
layer {
  name: "conv1_1/brach2_conv1/relu"
  type: "ReLU"
  bottom: "conv1_1/brach2_conv1/bn"
  top: "conv1_1/brach2_conv1/bn"
}
layer {
  name: "conv1_1/brach2_dwconv2"
  type: "DepthwiseConvolution"
  bottom: "conv1_1/brach2_conv1/bn"
  top: "conv1_1/brach2_dwconv2"
  param {
    lr_mult: 1
    decay_mult: 1
  }
  convolution_param {
    num_output: 24
    bias_term: false
    pad: 1
    kernel_size: 3
    group: 24
    stride: 2
    weight_filler {
      type: "msra"
    }
  }
}
layer {
  name: "conv1_1/brach2_dwconv2/bn"
  type: "CuDNNBatchNorm"
  bottom: "conv1_1/brach2_dwconv2"
  top: "conv1_1/brach2_dwconv2/bn"
  param {
    lr_mult: 1
    decay_mult: 0
  }
  param {
    lr_mult: 1
    decay_mult: 0
  }
  param {
    lr_mult: 0
    decay_mult: 0
  }
  param {
    lr_mult: 0
    decay_mult: 0
  }
  batch_norm_param {
    frozen: false
    momentum: 0.95
    scale_filler {
      type: "constant"
      value: 1
    }
    bias_filler {
      type: "constant"
      value: 0
    }
  }
}
layer {
  name: "conv1_1/brach2_conv3"
  type: "Convolution"
  bottom: "conv1_1/brach2_dwconv2/bn"
  top: "conv1_1/brach2_conv3"
  param {
    lr_mult: 1
    decay_mult: 1
  }
  convolution_param {
    num_output: 58
    bias_term: false
    pad: 0
    kernel_size: 1
    stride: 1
    weight_filler {
      type: "msra"
    }
  }
}
layer {
  name: "conv1_1/brach2_conv3/bn"
  type: "CuDNNBatchNorm"
  bottom: "conv1_1/brach2_conv3"
  top: "conv1_1/brach2_conv3/bn"
  param {
    lr_mult: 1
    decay_mult: 0
  }
  param {
    lr_mult: 1
    decay_mult: 0
  }
  param {
    lr_mult: 0
    decay_mult: 0
  }
  param {
    lr_mult: 0
    decay_mult: 0
  }
  batch_norm_param {
    frozen: false
    momentum: 0.95
    scale_filler {
      type: "constant"
      value: 1
    }
    bias_filler {
      type: "constant"
      value: 0
    }
  }
}
layer {
  name: "conv1_1/brach2_conv3/relu"
  type: "ReLU"
  bottom: "conv1_1/brach2_conv3/bn"
  top: "conv1_1/brach2_conv3/bn"
}
layer {
  name: "conv1_1/concat"
  type: "Concat"
  bottom: "conv1_1/branch1_conv2/bn"
  bottom: "conv1_1/brach2_conv3/bn"
  top: "conv1_1/concat"
}
layer {
  name: "conv1_1"
  type: "ShuffleChannel"
  bottom: "conv1_1/concat"
  top: "conv1_1"
  shuffle_channel_param {
    group: 2
  }
}
layer {
  name: "conv1_1/SE_global_pool"
  type: "Pooling"
  bottom: "conv1_1"
  top: "conv1_1/SE_global_pool"
  pooling_param {
    pool: AVE
    engine: CAFFE
    global_pooling: true
  }
}
layer {
  name: "conv1_1/SE_fc1"
  type: "Convolution"
  bottom: "conv1_1/SE_global_pool"
  top: "conv1_1/SE_fc1"
  param {
    lr_mult: 1
    decay_mult: 1
  }
  convolution_param {
    num_output: 29
    bias_term: false
    pad: 0
    kernel_size: 1
    stride: 1
    weight_filler {
      type: "gaussian"
      std: 0.01
    }
  }
}
layer {
  name: "conv1_1/SE_fc1/relu"
  type: "ReLU"
  bottom: "conv1_1/SE_fc1"
  top: "conv1_1/SE_fc1"
}
layer {
  name: "conv1_1/SE_fc2"
  type: "Convolution"
  bottom: "conv1_1/SE_fc1"
  top: "conv1_1/SE_fc2"
  param {
    lr_mult: 1
    decay_mult: 1
  }
  convolution_param {
    num_output: 116
    bias_term: false
    pad: 0
    kernel_size: 1
    stride: 1
    weight_filler {
      type: "gaussian"
      std: 0.01
    }
  }
}
layer {
  name: "conv1_1/SE_weights"
  type: "Sigmoid"
  bottom: "conv1_1/SE_fc2"
  top: "conv1_1/SE_fc2"
}
layer {
  name: "conv1_1/SE_weights/reshape"
  type: "Reshape"
  bottom: "conv1_1/SE_fc2"
  top: "conv1_1/SE_weights/reshape"
  reshape_param {
    shape {
      dim: 0
      dim: 0
    }
  }
}
layer {
  name: "conv1_1/scale"
  type: "Scale"
  bottom: "conv1_1"
  bottom: "conv1_1/SE_weights/reshape"
  top: "conv1_1/scale"
  scale_param {
    axis: 0
    bias_term: false
  }
}
layer {
  name: "conv1_2/slice"
  type: "Slice"
  bottom: "conv1_1/scale"
  top: "conv1_2/split1"
  top: "conv1_2/split2"
  slice_param {
    slice_point: 58
  }
}
layer {
  name: "conv1_2/conv1"
  type: "Convolution"
  bottom: "conv1_2/split2"
  top: "conv1_2/conv1"
  param {
    lr_mult: 1
    decay_mult: 1
  }
  convolution_param {
    num_output: 58
    bias_term: false
    pad: 0
    kernel_size: 1
    stride: 1
    weight_filler {
      type: "msra"
    }
  }
}
layer {
  name: "conv1_2/conv1/bn"
  type: "CuDNNBatchNorm"
  bottom: "conv1_2/conv1"
  top: "conv1_2/conv1/bn"
  param {
    lr_mult: 1
    decay_mult: 0
  }
  param {
    lr_mult: 1
    decay_mult: 0
  }
  param {
    lr_mult: 0
    decay_mult: 0
  }
  param {
    lr_mult: 0
    decay_mult: 0
  }
  batch_norm_param {
    frozen: false
    momentum: 0.95
    scale_filler {
      type: "constant"
      value: 1
    }
    bias_filler {
      type: "constant"
      value: 0
    }
  }
}
layer {
  name: "conv1_2/conv1/relu"
  type: "ReLU"
  bottom: "conv1_2/conv1/bn"
  top: "conv1_2/conv1/bn"
}
layer {
  name: "conv1_2/dwconv2"
  type: "DepthwiseConvolution"
  bottom: "conv1_2/conv1/bn"
  top: "conv1_2/dwconv2"
  param {
    lr_mult: 1
    decay_mult: 1
  }
  convolution_param {
    num_output: 58
    bias_term: false
    pad: 1
    kernel_size: 3
    group: 58
    stride: 1
    weight_filler {
      type: "msra"
    }
  }
}
layer {
  name: "conv1_2/dwconv2/bn"
  type: "CuDNNBatchNorm"
  bottom: "conv1_2/dwconv2"
  top: "conv1_2/dwconv2/bn"
  param {
    lr_mult: 1
    decay_mult: 0
  }
  param {
    lr_mult: 1
    decay_mult: 0
  }
  param {
    lr_mult: 0
    decay_mult: 0
  }
  param {
    lr_mult: 0
    decay_mult: 0
  }
  batch_norm_param {
    frozen: false
    momentum: 0.95
    scale_filler {
      type: "constant"
      value: 1
    }
    bias_filler {
      type: "constant"
      value: 0
    }
  }
}
layer {
  name: "conv1_2/conv3"
  type: "Convolution"
  bottom: "conv1_2/dwconv2/bn"
  top: "conv1_2/conv3"
  param {
    lr_mult: 1
    decay_mult: 1
  }
  convolution_param {
    num_output: 58
    bias_term: false
    pad: 0
    kernel_size: 1
    stride: 1
    weight_filler {
      type: "msra"
    }
  }
}
layer {
  name: "conv1_2/conv3/bn"
  type: "CuDNNBatchNorm"
  bottom: "conv1_2/conv3"
  top: "conv1_2/conv3/bn"
  param {
    lr_mult: 1
    decay_mult: 0
  }
  param {
    lr_mult: 1
    decay_mult: 0
  }
  param {
    lr_mult: 0
    decay_mult: 0
  }
  param {
    lr_mult: 0
    decay_mult: 0
  }
  batch_norm_param {
    frozen: false
    momentum: 0.95
    scale_filler {
      type: "constant"
      value: 1
    }
    bias_filler {
      type: "constant"
      value: 0
    }
  }
}
layer {
  name: "conv1_2/conv3/relu"
  type: "ReLU"
  bottom: "conv1_2/conv3/bn"
  top: "conv1_2/conv3/bn"
}
layer {
  name: "conv1_2/concat"
  type: "Concat"
  bottom: "conv1_2/split1"
  bottom: "conv1_2/conv3/bn"
  top: "conv1_2/concat"
}
layer {
  name: "conv1_2"
  type: "ShuffleChannel"
  bottom: "conv1_2/concat"
  top: "conv1_2"
  shuffle_channel_param {
    group: 2
  }
}
layer {
  name: "conv1_2/SE_global_pool"
  type: "Pooling"
  bottom: "conv1_2"
  top: "conv1_2/SE_global_pool"
  pooling_param {
    pool: AVE
    engine: CAFFE
    global_pooling: true
  }
}
layer {
  name: "conv1_2/SE_fc1"
  type: "Convolution"
  bottom: "conv1_2/SE_global_pool"
  top: "conv1_2/SE_fc1"
  param {
    lr_mult: 1
    decay_mult: 1
  }
  convolution_param {
    num_output: 29
    bias_term: false
    pad: 0
    kernel_size: 1
    stride: 1
    weight_filler {
      type: "gaussian"
      std: 0.01
    }
  }
}
layer {
  name: "conv1_2/SE_fc1/relu"
  type: "ReLU"
  bottom: "conv1_2/SE_fc1"
  top: "conv1_2/SE_fc1"
}
layer {
  name: "conv1_2/SE_fc2"
  type: "Convolution"
  bottom: "conv1_2/SE_fc1"
  top: "conv1_2/SE_fc2"
  param {
    lr_mult: 1
    decay_mult: 1
  }
  convolution_param {
    num_output: 116
    bias_term: false
    pad: 0
    kernel_size: 1
    stride: 1
    weight_filler {
      type: "gaussian"
      std: 0.01
    }
  }
}
layer {
  name: "conv1_2/SE_weights"
  type: "Sigmoid"
  bottom: "conv1_2/SE_fc2"
  top: "conv1_2/SE_fc2"
}
layer {
  name: "conv1_2/SE_weights/reshape"
  type: "Reshape"
  bottom: "conv1_2/SE_fc2"
  top: "conv1_2/SE_weights/reshape"
  reshape_param {
    shape {
      dim: 0
      dim: 0
    }
  }
}
layer {
  name: "conv1_2/scale"
  type: "Scale"
  bottom: "conv1_2"
  bottom: "conv1_2/SE_weights/reshape"
  top: "conv1_2/scale"
  scale_param {
    axis: 0
    bias_term: false
  }
}
layer {
  name: "conv1_3/slice"
  type: "Slice"
  bottom: "conv1_2/scale"
  top: "conv1_3/split1"
  top: "conv1_3/split2"
  slice_param {
    slice_point: 58
  }
}
layer {
  name: "conv1_3/conv1"
  type: "Convolution"
  bottom: "conv1_3/split2"
  top: "conv1_3/conv1"
  param {
    lr_mult: 1
    decay_mult: 1
  }
  convolution_param {
    num_output: 58
    bias_term: false
    pad: 0
    kernel_size: 1
    stride: 1
    weight_filler {
      type: "msra"
    }
  }
}
layer {
  name: "conv1_3/conv1/bn"
  type: "CuDNNBatchNorm"
  bottom: "conv1_3/conv1"
  top: "conv1_3/conv1/bn"
  param {
    lr_mult: 1
    decay_mult: 0
  }
  param {
    lr_mult: 1
    decay_mult: 0
  }
  param {
    lr_mult: 0
    decay_mult: 0
  }
  param {
    lr_mult: 0
    decay_mult: 0
  }
  batch_norm_param {
    frozen: false
    momentum: 0.95
    scale_filler {
      type: "constant"
      value: 1
    }
    bias_filler {
      type: "constant"
      value: 0
    }
  }
}
layer {
  name: "conv1_3/conv1/relu"
  type: "ReLU"
  bottom: "conv1_3/conv1/bn"
  top: "conv1_3/conv1/bn"
}
layer {
  name: "conv1_3/dwconv2"
  type: "DepthwiseConvolution"
  bottom: "conv1_3/conv1/bn"
  top: "conv1_3/dwconv2"
  param {
    lr_mult: 1
    decay_mult: 1
  }
  convolution_param {
    num_output: 58
    bias_term: false
    pad: 1
    kernel_size: 3
    group: 58
    stride: 1
    weight_filler {
      type: "msra"
    }
  }
}
layer {
  name: "conv1_3/dwconv2/bn"
  type: "CuDNNBatchNorm"
  bottom: "conv1_3/dwconv2"
  top: "conv1_3/dwconv2/bn"
  param {
    lr_mult: 1
    decay_mult: 0
  }
  param {
    lr_mult: 1
    decay_mult: 0
  }
  param {
    lr_mult: 0
    decay_mult: 0
  }
  param {
    lr_mult: 0
    decay_mult: 0
  }
  batch_norm_param {
    frozen: false
    momentum: 0.95
    scale_filler {
      type: "constant"
      value: 1
    }
    bias_filler {
      type: "constant"
      value: 0
    }
  }
}
layer {
  name: "conv1_3/conv3"
  type: "Convolution"
  bottom: "conv1_3/dwconv2/bn"
  top: "conv1_3/conv3"
  param {
    lr_mult: 1
    decay_mult: 1
  }
  convolution_param {
    num_output: 58
    bias_term: false
    pad: 0
    kernel_size: 1
    stride: 1
    weight_filler {
      type: "msra"
    }
  }
}
layer {
  name: "conv1_3/conv3/bn"
  type: "CuDNNBatchNorm"
  bottom: "conv1_3/conv3"
  top: "conv1_3/conv3/bn"
  param {
    lr_mult: 1
    decay_mult: 0
  }
  param {
    lr_mult: 1
    decay_mult: 0
  }
  param {
    lr_mult: 0
    decay_mult: 0
  }
  param {
    lr_mult: 0
    decay_mult: 0
  }
  batch_norm_param {
    frozen: false
    momentum: 0.95
    scale_filler {
      type: "constant"
      value: 1
    }
    bias_filler {
      type: "constant"
      value: 0
    }
  }
}
layer {
  name: "conv1_3/conv3/relu"
  type: "ReLU"
  bottom: "conv1_3/conv3/bn"
  top: "conv1_3/conv3/bn"
}
layer {
  name: "conv1_3/concat"
  type: "Concat"
  bottom: "conv1_3/split1"
  bottom: "conv1_3/conv3/bn"
  top: "conv1_3/concat"
}
layer {
  name: "conv1_3"
  type: "ShuffleChannel"
  bottom: "conv1_3/concat"
  top: "conv1_3"
  shuffle_channel_param {
    group: 2
  }
}
layer {
  name: "conv1_3/SE_global_pool"
  type: "Pooling"
  bottom: "conv1_3"
  top: "conv1_3/SE_global_pool"
  pooling_param {
    pool: AVE
    engine: CAFFE
    global_pooling: true
  }
}
layer {
  name: "conv1_3/SE_fc1"
  type: "Convolution"
  bottom: "conv1_3/SE_global_pool"
  top: "conv1_3/SE_fc1"
  param {
    lr_mult: 1
    decay_mult: 1
  }
  convolution_param {
    num_output: 29
    bias_term: false
    pad: 0
    kernel_size: 1
    stride: 1
    weight_filler {
      type: "gaussian"
      std: 0.01
    }
  }
}
layer {
  name: "conv1_3/SE_fc1/relu"
  type: "ReLU"
  bottom: "conv1_3/SE_fc1"
  top: "conv1_3/SE_fc1"
}
layer {
  name: "conv1_3/SE_fc2"
  type: "Convolution"
  bottom: "conv1_3/SE_fc1"
  top: "conv1_3/SE_fc2"
  param {
    lr_mult: 1
    decay_mult: 1
  }
  convolution_param {
    num_output: 116
    bias_term: false
    pad: 0
    kernel_size: 1
    stride: 1
    weight_filler {
      type: "gaussian"
      std: 0.01
    }
  }
}
layer {
  name: "conv1_3/SE_weights"
  type: "Sigmoid"
  bottom: "conv1_3/SE_fc2"
  top: "conv1_3/SE_fc2"
}
layer {
  name: "conv1_3/SE_weights/reshape"
  type: "Reshape"
  bottom: "conv1_3/SE_fc2"
  top: "conv1_3/SE_weights/reshape"
  reshape_param {
    shape {
      dim: 0
      dim: 0
    }
  }
}
layer {
  name: "conv1_3/scale"
  type: "Scale"
  bottom: "conv1_3"
  bottom: "conv1_3/SE_weights/reshape"
  top: "conv1_3/scale"
  scale_param {
    axis: 0
    bias_term: false
  }
}
layer {
  name: "conv1_4/slice"
  type: "Slice"
  bottom: "conv1_3/scale"
  top: "conv1_4/split1"
  top: "conv1_4/split2"
  slice_param {
    slice_point: 58
  }
}
layer {
  name: "conv1_4/conv1"
  type: "Convolution"
  bottom: "conv1_4/split2"
  top: "conv1_4/conv1"
  param {
    lr_mult: 1
    decay_mult: 1
  }
  convolution_param {
    num_output: 58
    bias_term: false
    pad: 0
    kernel_size: 1
    stride: 1
    weight_filler {
      type: "msra"
    }
  }
}
layer {
  name: "conv1_4/conv1/bn"
  type: "CuDNNBatchNorm"
  bottom: "conv1_4/conv1"
  top: "conv1_4/conv1/bn"
  param {
    lr_mult: 1
    decay_mult: 0
  }
  param {
    lr_mult: 1
    decay_mult: 0
  }
  param {
    lr_mult: 0
    decay_mult: 0
  }
  param {
    lr_mult: 0
    decay_mult: 0
  }
  batch_norm_param {
    frozen: false
    momentum: 0.95
    scale_filler {
      type: "constant"
      value: 1
    }
    bias_filler {
      type: "constant"
      value: 0
    }
  }
}
layer {
  name: "conv1_4/conv1/relu"
  type: "ReLU"
  bottom: "conv1_4/conv1/bn"
  top: "conv1_4/conv1/bn"
}
layer {
  name: "conv1_4/dwconv2"
  type: "DepthwiseConvolution"
  bottom: "conv1_4/conv1/bn"
  top: "conv1_4/dwconv2"
  param {
    lr_mult: 1
    decay_mult: 1
  }
  convolution_param {
    num_output: 58
    bias_term: false
    pad: 1
    kernel_size: 3
    group: 58
    stride: 1
    weight_filler {
      type: "msra"
    }
  }
}
layer {
  name: "conv1_4/dwconv2/bn"
  type: "CuDNNBatchNorm"
  bottom: "conv1_4/dwconv2"
  top: "conv1_4/dwconv2/bn"
  param {
    lr_mult: 1
    decay_mult: 0
  }
  param {
    lr_mult: 1
    decay_mult: 0
  }
  param {
    lr_mult: 0
    decay_mult: 0
  }
  param {
    lr_mult: 0
    decay_mult: 0
  }
  batch_norm_param {
    frozen: false
    momentum: 0.95
    scale_filler {
      type: "constant"
      value: 1
    }
    bias_filler {
      type: "constant"
      value: 0
    }
  }
}
layer {
  name: "conv1_4/conv3"
  type: "Convolution"
  bottom: "conv1_4/dwconv2/bn"
  top: "conv1_4/conv3"
  param {
    lr_mult: 1
    decay_mult: 1
  }
  convolution_param {
    num_output: 58
    bias_term: false
    pad: 0
    kernel_size: 1
    stride: 1
    weight_filler {
      type: "msra"
    }
  }
}
layer {
  name: "conv1_4/conv3/bn"
  type: "CuDNNBatchNorm"
  bottom: "conv1_4/conv3"
  top: "conv1_4/conv3/bn"
  param {
    lr_mult: 1
    decay_mult: 0
  }
  param {
    lr_mult: 1
    decay_mult: 0
  }
  param {
    lr_mult: 0
    decay_mult: 0
  }
  param {
    lr_mult: 0
    decay_mult: 0
  }
  batch_norm_param {
    frozen: false
    momentum: 0.95
    scale_filler {
      type: "constant"
      value: 1
    }
    bias_filler {
      type: "constant"
      value: 0
    }
  }
}
layer {
  name: "conv1_4/conv3/relu"
  type: "ReLU"
  bottom: "conv1_4/conv3/bn"
  top: "conv1_4/conv3/bn"
}
layer {
  name: "conv1_4/concat"
  type: "Concat"
  bottom: "conv1_4/split1"
  bottom: "conv1_4/conv3/bn"
  top: "conv1_4/concat"
}
layer {
  name: "conv1_4"
  type: "ShuffleChannel"
  bottom: "conv1_4/concat"
  top: "conv1_4"
  shuffle_channel_param {
    group: 2
  }
}
layer {
  name: "conv1_4/SE_global_pool"
  type: "Pooling"
  bottom: "conv1_4"
  top: "conv1_4/SE_global_pool"
  pooling_param {
    pool: AVE
    engine: CAFFE
    global_pooling: true
  }
}
layer {
  name: "conv1_4/SE_fc1"
  type: "Convolution"
  bottom: "conv1_4/SE_global_pool"
  top: "conv1_4/SE_fc1"
  param {
    lr_mult: 1
    decay_mult: 1
  }
  convolution_param {
    num_output: 29
    bias_term: false
    pad: 0
    kernel_size: 1
    stride: 1
    weight_filler {
      type: "gaussian"
      std: 0.01
    }
  }
}
layer {
  name: "conv1_4/SE_fc1/relu"
  type: "ReLU"
  bottom: "conv1_4/SE_fc1"
  top: "conv1_4/SE_fc1"
}
layer {
  name: "conv1_4/SE_fc2"
  type: "Convolution"
  bottom: "conv1_4/SE_fc1"
  top: "conv1_4/SE_fc2"
  param {
    lr_mult: 1
    decay_mult: 1
  }
  convolution_param {
    num_output: 116
    bias_term: false
    pad: 0
    kernel_size: 1
    stride: 1
    weight_filler {
      type: "gaussian"
      std: 0.01
    }
  }
}
layer {
  name: "conv1_4/SE_weights"
  type: "Sigmoid"
  bottom: "conv1_4/SE_fc2"
  top: "conv1_4/SE_fc2"
}
layer {
  name: "conv1_4/SE_weights/reshape"
  type: "Reshape"
  bottom: "conv1_4/SE_fc2"
  top: "conv1_4/SE_weights/reshape"
  reshape_param {
    shape {
      dim: 0
      dim: 0
    }
  }
}
layer {
  name: "conv1_4/scale"
  type: "Scale"
  bottom: "conv1_4"
  bottom: "conv1_4/SE_weights/reshape"
  top: "conv1_4/scale"
  scale_param {
    axis: 0
    bias_term: false
  }
}
layer {
  name: "conv2"
  type: "Convolution"
  bottom: "conv1_4/scale"
  top: "conv2"
  param {
    lr_mult: 1
    decay_mult: 1
  }
  convolution_param {
    num_output: 24
    bias_term: false
    pad: 1
    kernel_size: 3
    stride: 1
    weight_filler {
      type: "msra"
    }
  }
}
layer {
  name: "conv2/bn"
  type: "CuDNNBatchNorm"
  bottom: "conv2"
  top: "conv2/bn"
  param {
    lr_mult: 1
    decay_mult: 0
  }
  param {
    lr_mult: 1
    decay_mult: 0
  }
  param {
    lr_mult: 0
    decay_mult: 0
  }
  param {
    lr_mult: 0
    decay_mult: 0
  }
  batch_norm_param {
    frozen: false
    momentum: 0.95
    scale_filler {
      type: "constant"
      value: 1
    }
    bias_filler {
      type: "constant"
      value: 0
    }
  }
}
layer {
  name: "conv2/relu"
  type: "ReLU"
  bottom: "conv2/bn"
  top: "conv2/bn"
}
layer {
  name: "conv2_1/branch1_dwconv1"
  type: "DepthwiseConvolution"
  bottom: "conv2/bn"
  top: "conv2_1/branch1_dwconv1"
  param {
    lr_mult: 1
    decay_mult: 1
  }
  convolution_param {
    num_output: 24
    bias_term: false
    pad: 1
    kernel_size: 3
    group: 24
    stride: 2
    weight_filler {
      type: "msra"
    }
  }
}
layer {
  name: "conv2_1/branch1_dwconv1/bn"
  type: "CuDNNBatchNorm"
  bottom: "conv2_1/branch1_dwconv1"
  top: "conv2_1/branch1_dwconv1/bn"
  param {
    lr_mult: 1
    decay_mult: 0
  }
  param {
    lr_mult: 1
    decay_mult: 0
  }
  param {
    lr_mult: 0
    decay_mult: 0
  }
  param {
    lr_mult: 0
    decay_mult: 0
  }
  batch_norm_param {
    frozen: false
    momentum: 0.95
    scale_filler {
      type: "constant"
      value: 1
    }
    bias_filler {
      type: "constant"
      value: 0
    }
  }
}
layer {
  name: "conv2_1/branch1_conv2"
  type: "Convolution"
  bottom: "conv2_1/branch1_dwconv1/bn"
  top: "conv2_1/branch1_conv2"
  param {
    lr_mult: 1
    decay_mult: 1
  }
  convolution_param {
    num_output: 58
    bias_term: false
    pad: 0
    kernel_size: 1
    stride: 1
    weight_filler {
      type: "msra"
    }
  }
}
layer {
  name: "conv2_1/branch1_conv2/bn"
  type: "CuDNNBatchNorm"
  bottom: "conv2_1/branch1_conv2"
  top: "conv2_1/branch1_conv2/bn"
  param {
    lr_mult: 1
    decay_mult: 0
  }
  param {
    lr_mult: 1
    decay_mult: 0
  }
  param {
    lr_mult: 0
    decay_mult: 0
  }
  param {
    lr_mult: 0
    decay_mult: 0
  }
  batch_norm_param {
    frozen: false
    momentum: 0.95
    scale_filler {
      type: "constant"
      value: 1
    }
    bias_filler {
      type: "constant"
      value: 0
    }
  }
}
layer {
  name: "conv2_1/branch1_conv2/relu"
  type: "ReLU"
  bottom: "conv2_1/branch1_conv2/bn"
  top: "conv2_1/branch1_conv2/bn"
}
layer {
  name: "conv2_1/brach2_conv1"
  type: "Convolution"
  bottom: "conv2/bn"
  top: "conv2_1/brach2_conv1"
  param {
    lr_mult: 1
    decay_mult: 1
  }
  convolution_param {
    num_output: 24
    bias_term: false
    pad: 0
    kernel_size: 1
    stride: 1
    weight_filler {
      type: "msra"
    }
  }
}
layer {
  name: "conv2_1/brach2_conv1/bn"
  type: "CuDNNBatchNorm"
  bottom: "conv2_1/brach2_conv1"
  top: "conv2_1/brach2_conv1/bn"
  param {
    lr_mult: 1
    decay_mult: 0
  }
  param {
    lr_mult: 1
    decay_mult: 0
  }
  param {
    lr_mult: 0
    decay_mult: 0
  }
  param {
    lr_mult: 0
    decay_mult: 0
  }
  batch_norm_param {
    frozen: false
    momentum: 0.95
    scale_filler {
      type: "constant"
      value: 1
    }
    bias_filler {
      type: "constant"
      value: 0
    }
  }
}
layer {
  name: "conv2_1/brach2_conv1/relu"
  type: "ReLU"
  bottom: "conv2_1/brach2_conv1/bn"
  top: "conv2_1/brach2_conv1/bn"
}
layer {
  name: "conv2_1/brach2_dwconv2"
  type: "DepthwiseConvolution"
  bottom: "conv2_1/brach2_conv1/bn"
  top: "conv2_1/brach2_dwconv2"
  param {
    lr_mult: 1
    decay_mult: 1
  }
  convolution_param {
    num_output: 24
    bias_term: false
    pad: 1
    kernel_size: 3
    group: 24
    stride: 2
    weight_filler {
      type: "msra"
    }
  }
}
layer {
  name: "conv2_1/brach2_dwconv2/bn"
  type: "CuDNNBatchNorm"
  bottom: "conv2_1/brach2_dwconv2"
  top: "conv2_1/brach2_dwconv2/bn"
  param {
    lr_mult: 1
    decay_mult: 0
  }
  param {
    lr_mult: 1
    decay_mult: 0
  }
  param {
    lr_mult: 0
    decay_mult: 0
  }
  param {
    lr_mult: 0
    decay_mult: 0
  }
  batch_norm_param {
    frozen: false
    momentum: 0.95
    scale_filler {
      type: "constant"
      value: 1
    }
    bias_filler {
      type: "constant"
      value: 0
    }
  }
}
layer {
  name: "conv2_1/brach2_conv3"
  type: "Convolution"
  bottom: "conv2_1/brach2_dwconv2/bn"
  top: "conv2_1/brach2_conv3"
  param {
    lr_mult: 1
    decay_mult: 1
  }
  convolution_param {
    num_output: 58
    bias_term: false
    pad: 0
    kernel_size: 1
    stride: 1
    weight_filler {
      type: "msra"
    }
  }
}
layer {
  name: "conv2_1/brach2_conv3/bn"
  type: "CuDNNBatchNorm"
  bottom: "conv2_1/brach2_conv3"
  top: "conv2_1/brach2_conv3/bn"
  param {
    lr_mult: 1
    decay_mult: 0
  }
  param {
    lr_mult: 1
    decay_mult: 0
  }
  param {
    lr_mult: 0
    decay_mult: 0
  }
  param {
    lr_mult: 0
    decay_mult: 0
  }
  batch_norm_param {
    frozen: false
    momentum: 0.95
    scale_filler {
      type: "constant"
      value: 1
    }
    bias_filler {
      type: "constant"
      value: 0
    }
  }
}
layer {
  name: "conv2_1/brach2_conv3/relu"
  type: "ReLU"
  bottom: "conv2_1/brach2_conv3/bn"
  top: "conv2_1/brach2_conv3/bn"
}
layer {
  name: "conv2_1/concat"
  type: "Concat"
  bottom: "conv2_1/branch1_conv2/bn"
  bottom: "conv2_1/brach2_conv3/bn"
  top: "conv2_1/concat"
}
layer {
  name: "conv2_1"
  type: "ShuffleChannel"
  bottom: "conv2_1/concat"
  top: "conv2_1"
  shuffle_channel_param {
    group: 2
  }
}
layer {
  name: "conv2_1/SE_global_pool"
  type: "Pooling"
  bottom: "conv2_1"
  top: "conv2_1/SE_global_pool"
  pooling_param {
    pool: AVE
    engine: CAFFE
    global_pooling: true
  }
}
layer {
  name: "conv2_1/SE_fc1"
  type: "Convolution"
  bottom: "conv2_1/SE_global_pool"
  top: "conv2_1/SE_fc1"
  param {
    lr_mult: 1
    decay_mult: 1
  }
  convolution_param {
    num_output: 29
    bias_term: false
    pad: 0
    kernel_size: 1
    stride: 1
    weight_filler {
      type: "gaussian"
      std: 0.01
    }
  }
}
layer {
  name: "conv2_1/SE_fc1/relu"
  type: "ReLU"
  bottom: "conv2_1/SE_fc1"
  top: "conv2_1/SE_fc1"
}
layer {
  name: "conv2_1/SE_fc2"
  type: "Convolution"
  bottom: "conv2_1/SE_fc1"
  top: "conv2_1/SE_fc2"
  param {
    lr_mult: 1
    decay_mult: 1
  }
  convolution_param {
    num_output: 116
    bias_term: false
    pad: 0
    kernel_size: 1
    stride: 1
    weight_filler {
      type: "gaussian"
      std: 0.01
    }
  }
}
layer {
  name: "conv2_1/SE_weights"
  type: "Sigmoid"
  bottom: "conv2_1/SE_fc2"
  top: "conv2_1/SE_fc2"
}
layer {
  name: "conv2_1/SE_weights/reshape"
  type: "Reshape"
  bottom: "conv2_1/SE_fc2"
  top: "conv2_1/SE_weights/reshape"
  reshape_param {
    shape {
      dim: 0
      dim: 0
    }
  }
}
layer {
  name: "conv2_1/scale"
  type: "Scale"
  bottom: "conv2
I0720 18:16:34.790633 32827 layer_factory.hpp:76] Creating layer data
I0720 18:16:34.805477 32827 net.cpp:144] Creating Layer data
I0720 18:16:34.805523 32827 net.cpp:462] data -> orgdata
I0720 18:16:34.805578 32827 net.cpp:462] data -> orgseglabel
I0720 18:16:34.805596 32827 net.cpp:462] data -> orgpointlabel
I0720 18:16:34.805704 32827 segment_data_layer.cpp:169] output data #0 size: 8,3,470,470
I0720 18:16:34.805753 32827 segment_data_layer.cpp:169] output data #1 size: 8,1,470,470
I0720 18:16:34.805796 32827 segment_data_layer.cpp:169] output data #2 size: 8,4,470,470
I0720 18:16:34.805800 32827 segment_data_layer.cpp:176] opening file: /share2/public/freespace_data/parking_mark/train.txt
I0720 18:16:35.117486 32827 segment_data_layer.cpp:187] A total of 376983 samples.
I0720 18:16:35.279582 32827 net.cpp:216] Setting up data
I0720 18:16:35.279650 32827 net.cpp:222] Top shape: 8 3 470 470 (5301600)
I0720 18:16:35.279662 32827 net.cpp:222] Top shape: 8 1 470 470 (1767200)
I0720 18:16:35.279667 32827 net.cpp:222] Top shape: 8 4 470 470 (7068800)
I0720 18:16:35.279670 32827 net.cpp:228] Memory required for data: 56550400
I0720 18:16:35.279682 32827 layer_factory.hpp:76] Creating layer concatdatalabel
I0720 18:16:35.279705 32827 net.cpp:144] Creating Layer concatdatalabel
I0720 18:16:35.279713 32827 net.cpp:488] concatdatalabel <- orgdata
I0720 18:16:35.279728 32827 net.cpp:488] concatdatalabel <- orgseglabel
I0720 18:16:35.279748 32827 net.cpp:488] concatdatalabel <- orgpointlabel
I0720 18:16:35.279754 32827 net.cpp:177] This layer is inheriting previous layer's sync mode: 1
I0720 18:16:35.279763 32827 net.cpp:462] concatdatalabel -> concatdatalabel
I0720 18:16:35.279848 32827 net.cpp:216] Setting up concatdatalabel
I0720 18:16:35.279857 32827 net.cpp:222] Top shape: 8 8 470 470 (14137600)
I0720 18:16:35.279862 32827 net.cpp:228] Memory required for data: 113100800
I0720 18:16:35.279865 32827 layer_factory.hpp:76] Creating layer cropdatalabel
I0720 18:16:35.279880 32827 net.cpp:144] Creating Layer cropdatalabel
I0720 18:16:35.279884 32827 net.cpp:488] cropdatalabel <- concatdatalabel
I0720 18:16:35.279888 32827 net.cpp:177] This layer is inheriting previous layer's sync mode: 1
I0720 18:16:35.279892 32827 net.cpp:462] cropdatalabel -> cropdatalabel
I0720 18:16:35.279930 32827 net.cpp:216] Setting up cropdatalabel
I0720 18:16:35.279937 32827 net.cpp:222] Top shape: 8 8 448 448 (12845056)
I0720 18:16:35.279940 32827 net.cpp:228] Memory required for data: 164481024
I0720 18:16:35.279943 32827 layer_factory.hpp:76] Creating layer slice
I0720 18:16:35.279955 32827 net.cpp:144] Creating Layer slice
I0720 18:16:35.279959 32827 net.cpp:488] slice <- cropdatalabel
I0720 18:16:35.279963 32827 net.cpp:177] This layer is inheriting previous layer's sync mode: 1
I0720 18:16:35.279966 32827 net.cpp:462] slice -> data
I0720 18:16:35.279976 32827 net.cpp:462] slice -> seglabel
I0720 18:16:35.279983 32827 net.cpp:462] slice -> clslabel
I0720 18:16:35.279987 32827 net.cpp:462] slice -> reglabel
I0720 18:16:35.279994 32827 net.cpp:462] slice -> regmask
I0720 18:16:35.280086 32827 net.cpp:216] Setting up slice
I0720 18:16:35.280092 32827 net.cpp:222] Top shape: 8 3 448 448 (4816896)
I0720 18:16:35.280097 32827 net.cpp:222] Top shape: 8 1 448 448 (1605632)
I0720 18:16:35.280099 32827 net.cpp:222] Top shape: 8 1 448 448 (1605632)
I0720 18:16:35.280103 32827 net.cpp:222] Top shape: 8 2 448 448 (3211264)
I0720 18:16:35.280107 32827 net.cpp:222] Top shape: 8 1 448 448 (1605632)
I0720 18:16:35.280109 32827 net.cpp:228] Memory required for data: 215861248
I0720 18:16:35.280112 32827 layer_factory.hpp:76] Creating layer clslabel_slice_2_split
I0720 18:16:35.280120 32827 net.cpp:144] Creating Layer clslabel_slice_2_split
I0720 18:16:35.280123 32827 net.cpp:488] clslabel_slice_2_split <- clslabel
I0720 18:16:35.280128 32827 net.cpp:177] This layer is inheriting previous layer's sync mode: 1
I0720 18:16:35.280133 32827 net.cpp:462] clslabel_slice_2_split -> clslabel_slice_2_split_0
I0720 18:16:35.280139 32827 net.cpp:462] clslabel_slice_2_split -> clslabel_slice_2_split_1
I0720 18:16:35.280184 32827 net.cpp:216] Setting up clslabel_slice_2_split
I0720 18:16:35.280189 32827 net.cpp:222] Top shape: 8 1 448 448 (1605632)
I0720 18:16:35.280194 32827 net.cpp:222] Top shape: 8 1 448 448 (1605632)
I0720 18:16:35.280195 32827 net.cpp:228] Memory required for data: 228706304
I0720 18:16:35.280200 32827 layer_factory.hpp:76] Creating layer conv1
I0720 18:16:35.280221 32827 net.cpp:144] Creating Layer conv1
I0720 18:16:35.280225 32827 net.cpp:488] conv1 <- data
I0720 18:16:35.280230 32827 net.cpp:177] This layer is inheriting previous layer's sync mode: 1
I0720 18:16:35.280237 32827 net.cpp:462] conv1 -> conv1
I0720 18:16:35.283355 32827 net.cpp:216] Setting up conv1
I0720 18:16:35.283371 32827 net.cpp:222] Top shape: 8 24 224 224 (9633792)
I0720 18:16:35.283375 32827 net.cpp:228] Memory required for data: 267241472
I0720 18:16:35.283391 32827 layer_factory.hpp:76] Creating layer conv1/bn
I0720 18:16:35.283406 32827 net.cpp:144] Creating Layer conv1/bn
I0720 18:16:35.283409 32827 net.cpp:488] conv1/bn <- conv1
I0720 18:16:35.283414 32827 net.cpp:177] This layer is inheriting previous layer's sync mode: 1
I0720 18:16:35.283419 32827 net.cpp:462] conv1/bn -> conv1/bn
I0720 18:16:35.283569 32827 cudnn_batch_norm_layer.cpp:84] Using CuDNN BN engine.
I0720 18:16:35.283633 32827 net.cpp:216] Setting up conv1/bn
I0720 18:16:35.283640 32827 net.cpp:222] Top shape: 8 24 224 224 (9633792)
I0720 18:16:35.283643 32827 net.cpp:228] Memory required for data: 305776640
I0720 18:16:35.283655 32827 layer_factory.hpp:76] Creating layer conv1/relu
I0720 18:16:35.283664 32827 net.cpp:144] Creating Layer conv1/relu
I0720 18:16:35.283668 32827 net.cpp:488] conv1/relu <- conv1/bn
I0720 18:16:35.283673 32827 net.cpp:177] This layer is inheriting previous layer's sync mode: 1
I0720 18:16:35.283679 32827 net.cpp:451] conv1/relu -> conv1/bn (in-place)
I0720 18:16:35.283699 32827 net.cpp:216] Setting up conv1/relu
I0720 18:16:35.283704 32827 net.cpp:222] Top shape: 8 24 224 224 (9633792)
I0720 18:16:35.283707 32827 net.cpp:228] Memory required for data: 344311808
I0720 18:16:35.283710 32827 layer_factory.hpp:76] Creating layer pool1
I0720 18:16:35.283722 32827 net.cpp:144] Creating Layer pool1
I0720 18:16:35.283725 32827 net.cpp:488] pool1 <- conv1/bn
I0720 18:16:35.283730 32827 net.cpp:177] This layer is inheriting previous layer's sync mode: 1
I0720 18:16:35.283733 32827 net.cpp:462] pool1 -> pool1
I0720 18:16:35.283787 32827 net.cpp:216] Setting up pool1
I0720 18:16:35.283793 32827 net.cpp:222] Top shape: 8 24 112 112 (2408448)
I0720 18:16:35.283797 32827 net.cpp:228] Memory required for data: 353945600
I0720 18:16:35.283799 32827 layer_factory.hpp:76] Creating layer pool1_pool1_0_split
I0720 18:16:35.283805 32827 net.cpp:144] Creating Layer pool1_pool1_0_split
I0720 18:16:35.283808 32827 net.cpp:488] pool1_pool1_0_split <- pool1
I0720 18:16:35.283812 32827 net.cpp:177] This layer is inheriting previous layer's sync mode: 1
I0720 18:16:35.283818 32827 net.cpp:462] pool1_pool1_0_split -> pool1_pool1_0_split_0
I0720 18:16:35.283823 32827 net.cpp:462] pool1_pool1_0_split -> pool1_pool1_0_split_1
I0720 18:16:35.283864 32827 net.cpp:216] Setting up pool1_pool1_0_split
I0720 18:16:35.283871 32827 net.cpp:222] Top shape: 8 24 112 112 (2408448)
I0720 18:16:35.283875 32827 net.cpp:222] Top shape: 8 24 112 112 (2408448)
I0720 18:16:35.283879 32827 net.cpp:228] Memory required for data: 373213184
I0720 18:16:35.283881 32827 layer_factory.hpp:76] Creating layer conv1_1/branch1_dwconv1
I0720 18:16:35.283893 32827 net.cpp:144] Creating Layer conv1_1/branch1_dwconv1
I0720 18:16:35.283896 32827 net.cpp:488] conv1_1/branch1_dwconv1 <- pool1_pool1_0_split_0
I0720 18:16:35.283900 32827 net.cpp:177] This layer is inheriting previous layer's sync mode: 1
I0720 18:16:35.283907 32827 net.cpp:462] conv1_1/branch1_dwconv1 -> conv1_1/branch1_dwconv1
I0720 18:16:35.284129 32827 net.cpp:216] Setting up conv1_1/branch1_dwconv1
I0720 18:16:35.284137 32827 net.cpp:222] Top shape: 8 24 56 56 (602112)
I0720 18:16:35.284142 32827 net.cpp:228] Memory required for data: 375621632
I0720 18:16:35.284147 32827 layer_factory.hpp:76] Creating layer conv1_1/branch1_dwconv1/bn
I0720 18:16:35.284154 32827 net.cpp:144] Creating Layer conv1_1/branch1_dwconv1/bn
I0720 18:16:35.284158 32827 net.cpp:488] conv1_1/branch1_dwconv1/bn <- conv1_1/branch1_dwconv1
I0720 18:16:35.284162 32827 net.cpp:177] This layer is inheriting previous layer's sync mode: 1
I0720 18:16:35.284166 32827 net.cpp:462] conv1_1/branch1_dwconv1/bn -> conv1_1/branch1_dwconv1/bn
I0720 18:16:35.284286 32827 cudnn_batch_norm_layer.cpp:84] Using CuDNN BN engine.
I0720 18:16:35.284348 32827 net.cpp:216] Setting up conv1_1/branch1_dwconv1/bn
I0720 18:16:35.284353 32827 net.cpp:222] Top shape: 8 24 56 56 (602112)
I0720 18:16:35.284356 32827 net.cpp:228] Memory required for data: 378030080
I0720 18:16:35.284365 32827 layer_factory.hpp:76] Creating layer conv1_1/branch1_conv2
I0720 18:16:35.284384 32827 net.cpp:144] Creating Layer conv1_1/branch1_conv2
I0720 18:16:35.284389 32827 net.cpp:488] conv1_1/branch1_conv2 <- conv1_1/branch1_dwconv1/bn
I0720 18:16:35.284392 32827 net.cpp:177] This layer is inheriting previous layer's sync mode: 1
I0720 18:16:35.284396 32827 net.cpp:462] conv1_1/branch1_conv2 -> conv1_1/branch1_conv2
I0720 18:16:35.286350 32827 net.cpp:216] Setting up conv1_1/branch1_conv2
I0720 18:16:35.286365 32827 net.cpp:222] Top shape: 8 58 56 56 (1455104)
I0720 18:16:35.286368 32827 net.cpp:228] Memory required for data: 383850496
I0720 18:16:35.286375 32827 layer_factory.hpp:76] Creating layer conv1_1/branch1_conv2/bn
I0720 18:16:35.286386 32827 net.cpp:144] Creating Layer conv1_1/branch1_conv2/bn
I0720 18:16:35.286391 32827 net.cpp:488] conv1_1/branch1_conv2/bn <- conv1_1/branch1_conv2
I0720 18:16:35.286394 32827 net.cpp:177] This layer is inheriting previous layer's sync mode: 1
I0720 18:16:35.286401 32827 net.cpp:462] conv1_1/branch1_conv2/bn -> conv1_1/branch1_conv2/bn
I0720 18:16:35.286541 32827 cudnn_batch_norm_layer.cpp:84] Using CuDNN BN engine.
I0720 18:16:35.286613 32827 net.cpp:216] Setting up conv1_1/branch1_conv2/bn
I0720 18:16:35.286619 32827 net.cpp:222] Top shape: 8 58 56 56 (1455104)
I0720 18:16:35.286623 32827 net.cpp:228] Memory required for data: 389670912
I0720 18:16:35.286630 32827 layer_factory.hpp:76] Creating layer conv1_1/branch1_conv2/relu
I0720 18:16:35.286636 32827 net.cpp:144] Creating Layer conv1_1/branch1_conv2/relu
I0720 18:16:35.286640 32827 net.cpp:488] conv1_1/branch1_conv2/relu <- conv1_1/branch1_conv2/bn
I0720 18:16:35.286644 32827 net.cpp:177] This layer is inheriting previous layer's sync mode: 1
I0720 18:16:35.286648 32827 net.cpp:451] conv1_1/branch1_conv2/relu -> conv1_1/branch1_conv2/bn (in-place)
I0720 18:16:35.286654 32827 net.cpp:216] Setting up conv1_1/branch1_conv2/relu
I0720 18:16:35.286659 32827 net.cpp:222] Top shape: 8 58 56 56 (1455104)
I0720 18:16:35.286661 32827 net.cpp:228] Memory required for data: 395491328
I0720 18:16:35.286664 32827 layer_factory.hpp:76] Creating layer conv1_1/brach2_conv1
I0720 18:16:35.286674 32827 net.cpp:144] Creating Layer conv1_1/brach2_conv1
I0720 18:16:35.286679 32827 net.cpp:488] conv1_1/brach2_conv1 <- pool1_pool1_0_split_1
I0720 18:16:35.286682 32827 net.cpp:177] This layer is inheriting previous layer's sync mode: 1
I0720 18:16:35.286687 32827 net.cpp:462] conv1_1/brach2_conv1 -> conv1_1/brach2_conv1
I0720 18:16:35.286947 32827 net.cpp:216] Setting up conv1_1/brach2_conv1
I0720 18:16:35.286957 32827 net.cpp:222] Top shape: 8 24 112 112 (2408448)
I0720 18:16:35.286959 32827 net.cpp:228] Memory required for data: 405125120
I0720 18:16:35.286964 32827 layer_factory.hpp:76] Creating layer conv1_1/brach2_conv1/bn
I0720 18:16:35.286975 32827 net.cpp:144] Creating Layer conv1_1/brach2_conv1/bn
I0720 18:16:35.286979 32827 net.cpp:488] conv1_1/brach2_conv1/bn <- conv1_1/brach2_conv1
I0720 18:16:35.286984 32827 net.cpp:177] This layer is inheriting previous layer's sync mode: 1
I0720 18:16:35.286990 32827 net.cpp:462] conv1_1/brach2_conv1/bn -> conv1_1/brach2_conv1/bn
I0720 18:16:35.287125 32827 cudnn_batch_norm_layer.cpp:84] Using CuDNN BN engine.
I0720 18:16:35.287186 32827 net.cpp:216] Setting up conv1_1/brach2_conv1/bn
I0720 18:16:35.287194 32827 net.cpp:222] Top shape: 8 24 112 112 (2408448)
I0720 18:16:35.287195 32827 net.cpp:228] Memory required for data: 414758912
I0720 18:16:35.287206 32827 layer_factory.hpp:76] Creating layer conv1_1/brach2_conv1/relu
I0720 18:16:35.287214 32827 net.cpp:144] Creating Layer conv1_1/brach2_conv1/relu
I0720 18:16:35.287219 32827 net.cpp:488] conv1_1/brach2_conv1/relu <- conv1_1/brach2_conv1/bn
I0720 18:16:35.287222 32827 net.cpp:177] This layer is inheriting previous layer's sync mode: 1
I0720 18:16:35.287226 32827 net.cpp:451] conv1_1/brach2_conv1/relu -> conv1_1/brach2_conv1/bn (in-place)
I0720 18:16:35.287232 32827 net.cpp:216] Setting up conv1_1/brach2_conv1/relu
I0720 18:16:35.287236 32827 net.cpp:222] Top shape: 8 24 112 112 (2408448)
I0720 18:16:35.287240 32827 net.cpp:228] Memory required for data: 424392704
I0720 18:16:35.287242 32827 layer_factory.hpp:76] Creating layer conv1_1/brach2_dwconv2
I0720 18:16:35.287250 32827 net.cpp:144] Creating Layer conv1_1/brach2_dwconv2
I0720 18:16:35.287253 32827 net.cpp:488] conv1_1/brach2_dwconv2 <- conv1_1/brach2_conv1/bn
I0720 18:16:35.287256 32827 net.cpp:177] This layer is inheriting previous layer's sync mode: 1
I0720 18:16:35.287263 32827 net.cpp:462] conv1_1/brach2_dwconv2 -> conv1_1/brach2_dwconv2
I0720 18:16:35.287470 32827 net.cpp:216] Setting up conv1_1/brach2_dwconv2
I0720 18:16:35.287478 32827 net.cpp:222] Top shape: 8 24 56 56 (602112)
I0720 18:16:35.287480 32827 net.cpp:228] Memory required for data: 426801152
I0720 18:16:35.287485 32827 layer_factory.hpp:76] Creating layer conv1_1/brach2_dwconv2/bn
I0720 18:16:35.287492 32827 net.cpp:144] Creating Layer conv1_1/brach2_dwconv2/bn
I0720 18:16:35.287497 32827 net.cpp:488] conv1_1/brach2_dwconv2/bn <- conv1_1/brach2_dwconv2
I0720 18:16:35.287500 32827 net.cpp:177] This layer is inheriting previous layer's sync mode: 1
I0720 18:16:35.287506 32827 net.cpp:462] conv1_1/brach2_dwconv2/bn -> conv1_1/brach2_dwconv2/bn
I0720 18:16:35.287627 32827 cudnn_batch_norm_layer.cpp:84] Using CuDNN BN engine.
I0720 18:16:35.287688 32827 net.cpp:216] Setting up conv1_1/brach2_dwconv2/bn
I0720 18:16:35.287699 32827 net.cpp:222] Top shape: 8 24 56 56 (602112)
I0720 18:16:35.287703 32827 net.cpp:228] Memory required for data: 429209600
I0720 18:16:35.287709 32827 layer_factory.hpp:76] Creating layer conv1_1/brach2_conv3
I0720 18:16:35.287720 32827 net.cpp:144] Creating Layer conv1_1/brach2_conv3
I0720 18:16:35.287724 32827 net.cpp:488] conv1_1/brach2_conv3 <- conv1_1/brach2_dwconv2/bn
I0720 18:16:35.287729 32827 net.cpp:177] This layer is inheriting previous layer's sync mode: 1
I0720 18:16:35.287732 32827 net.cpp:462] conv1_1/brach2_conv3 -> conv1_1/brach2_conv3
I0720 18:16:35.287999 32827 net.cpp:216] Setting up conv1_1/brach2_conv3
I0720 18:16:35.288007 32827 net.cpp:222] Top shape: 8 58 56 56 (1455104)
I0720 18:16:35.288010 32827 net.cpp:228] Memory required for data: 435030016
I0720 18:16:35.288015 32827 layer_factory.hpp:76] Creating layer conv1_1/brach2_conv3/bn
I0720 18:16:35.288022 32827 net.cpp:144] Creating Layer conv1_1/brach2_conv3/bn
I0720 18:16:35.288027 32827 net.cpp:488] conv1_1/brach2_conv3/bn <- conv1_1/brach2_conv3
I0720 18:16:35.288030 32827 net.cpp:177] This layer is inheriting previous layer's sync mode: 1
I0720 18:16:35.288036 32827 net.cpp:462] conv1_1/brach2_conv3/bn -> conv1_1/brach2_conv3/bn
I0720 18:16:35.288161 32827 cudnn_batch_norm_layer.cpp:84] Using CuDNN BN engine.
I0720 18:16:35.288224 32827 net.cpp:216] Setting up conv1_1/brach2_conv3/bn
I0720 18:16:35.288230 32827 net.cpp:222] Top shape: 8 58 56 56 (1455104)
I0720 18:16:35.288233 32827 net.cpp:228] Memory required for data: 440850432
I0720 18:16:35.288240 32827 layer_factory.hpp:76] Creating layer conv1_1/brach2_conv3/relu
I0720 18:16:35.288246 32827 net.cpp:144] Creating Layer conv1_1/brach2_conv3/relu
I0720 18:16:35.288249 32827 net.cpp:488] conv1_1/brach2_conv3/relu <- conv1_1/brach2_conv3/bn
I0720 18:16:35.288254 32827 net.cpp:177] This layer is inheriting previous layer's sync mode: 1
I0720 18:16:35.288259 32827 net.cpp:451] conv1_1/brach2_conv3/relu -> conv1_1/brach2_conv3/bn (in-place)
I0720 18:16:35.288265 32827 net.cpp:216] Setting up conv1_1/brach2_conv3/relu
I0720 18:16:35.288269 32827 net.cpp:222] Top shape: 8 58 56 56 (1455104)
I0720 18:16:35.288272 32827 net.cpp:228] Memory required for data: 446670848
I0720 18:16:35.288275 32827 layer_factory.hpp:76] Creating layer conv1_1/concat
I0720 18:16:35.288281 32827 net.cpp:144] Creating Layer conv1_1/concat
I0720 18:16:35.288285 32827 net.cpp:488] conv1_1/concat <- conv1_1/branch1_conv2/bn
I0720 18:16:35.288290 32827 net.cpp:488] conv1_1/concat <- conv1_1/brach2_conv3/bn
I0720 18:16:35.288292 32827 net.cpp:177] This layer is inheriting previous layer's sync mode: 1
I0720 18:16:35.288296 32827 net.cpp:462] conv1_1/concat -> conv1_1/concat
I0720 18:16:35.288319 32827 net.cpp:216] Setting up conv1_1/concat
I0720 18:16:35.288326 32827 net.cpp:222] Top shape: 8 116 56 56 (2910208)
I0720 18:16:35.288328 32827 net.cpp:228] Memory required for data: 458311680
I0720 18:16:35.288332 32827 layer_factory.hpp:76] Creating layer conv1_1
I0720 18:16:35.288344 32827 net.cpp:144] Creating Layer conv1_1
I0720 18:16:35.288348 32827 net.cpp:488] conv1_1 <- conv1_1/concat
I0720 18:16:35.288352 32827 net.cpp:177] This layer is inheriting previous layer's sync mode: 1
I0720 18:16:35.288355 32827 net.cpp:462] conv1_1 -> conv1_1
I0720 18:16:35.288422 32827 net.cpp:216] Setting up conv1_1
I0720 18:16:35.288429 32827 net.cpp:222] Top shape: 8 116 56 56 (2910208)
I0720 18:16:35.288432 32827 net.cpp:228] Memory required for data: 469952512
I0720 18:16:35.288435 32827 layer_factory.hpp:76] Creating layer conv1_1_conv1_1_0_split
I0720 18:16:35.288442 32827 net.cpp:144] Creating Layer conv1_1_conv1_1_0_split
I0720 18:16:35.288445 32827 net.cpp:488] conv1_1_conv1_1_0_split <- conv1_1
I0720 18:16:35.288450 32827 net.cpp:177] This layer is inheriting previous layer's sync mode: 1
I0720 18:16:35.288455 32827 net.cpp:462] conv1_1_conv1_1_0_split -> conv1_1_conv1_1_0_split_0
I0720 18:16:35.288460 32827 net.cpp:462] conv1_1_conv1_1_0_split -> conv1_1_conv1_1_0_split_1
I0720 18:16:35.288496 32827 net.cpp:216] Setting up conv1_1_conv1_1_0_split
I0720 18:16:35.288502 32827 net.cpp:222] Top shape: 8 116 56 56 (2910208)
I0720 18:16:35.288506 32827 net.cpp:222] Top shape: 8 116 56 56 (2910208)
I0720 18:16:35.288509 32827 net.cpp:228] Memory required for data: 493234176
I0720 18:16:35.288512 32827 layer_factory.hpp:76] Creating layer conv1_1/SE_global_pool
I0720 18:16:35.288518 32827 net.cpp:144] Creating Layer conv1_1/SE_global_pool
I0720 18:16:35.288522 32827 net.cpp:488] conv1_1/SE_global_pool <- conv1_1_conv1_1_0_split_0
I0720 18:16:35.288525 32827 net.cpp:177] This layer is inheriting previous layer's sync mode: 1
I0720 18:16:35.288532 32827 net.cpp:462] conv1_1/SE_global_pool -> conv1_1/SE_global_pool
I0720 18:16:35.288554 32827 net.cpp:216] Setting up conv1_1/SE_global_pool
I0720 18:16:35.288560 32827 net.cpp:222] Top shape: 8 116 1 1 (928)
I0720 18:16:35.288563 32827 net.cpp:228] Memory required for data: 493237888
I0720 18:16:35.288565 32827 layer_factory.hpp:76] Creating layer conv1_1/SE_fc1
I0720 18:16:35.288578 32827 net.cpp:144] Creating Layer conv1_1/SE_fc1
I0720 18:16:35.288583 32827 net.cpp:488] conv1_1/SE_fc1 <- conv1_1/SE_global_pool
I0720 18:16:35.288586 32827 net.cpp:177] This layer is inheriting previous layer's sync mode: 1
I0720 18:16:35.288590 32827 net.cpp:462] conv1_1/SE_fc1 -> conv1_1/SE_fc1
I0720 18:16:35.288911 32827 net.cpp:216] Setting up conv1_1/SE_fc1
I0720 18:16:35.288923 32827 net.cpp:222] Top shape: 8 29 1 1 (232)
I0720 18:16:35.288926 32827 net.cpp:228] Memory required for data: 493238816
I0720 18:16:35.288931 32827 layer_factory.hpp:76] Creating layer conv1_1/SE_fc1/relu
I0720 18:16:35.288938 32827 net.cpp:144] Creating Layer conv1_1/SE_fc1/relu
I0720 18:16:35.288941 32827 net.cpp:488] conv1_1/SE_fc1/relu <- conv1_1/SE_fc1
I0720 18:16:35.288945 32827 net.cpp:177] This layer is inheriting previous layer's sync mode: 1
I0720 18:16:35.288949 32827 net.cpp:451] conv1_1/SE_fc1/relu -> conv1_1/SE_fc1 (in-place)
I0720 18:16:35.288955 32827 net.cpp:216] Setting up conv1_1/SE_fc1/relu
I0720 18:16:35.288959 32827 net.cpp:222] Top shape: 8 29 1 1 (232)
I0720 18:16:35.288962 32827 net.cpp:228] Memory required for data: 493239744
I0720 18:16:35.288966 32827 layer_factory.hpp:76] Creating layer conv1_1/SE_fc2
I0720 18:16:35.288976 32827 net.cpp:144] Creating Layer conv1_1/SE_fc2
I0720 18:16:35.288980 32827 net.cpp:488] conv1_1/SE_fc2 <- conv1_1/SE_fc1
I0720 18:16:35.288983 32827 net.cpp:177] This layer is inheriting previous layer's sync mode: 1
I0720 18:16:35.288990 32827 net.cpp:462] conv1_1/SE_fc2 -> conv1_1/SE_fc2
I0720 18:16:35.289309 32827 net.cpp:216] Setting up conv1_1/SE_fc2
I0720 18:16:35.289317 32827 net.cpp:222] Top shape: 8 116 1 1 (928)
I0720 18:16:35.289320 32827 net.cpp:228] Memory required for data: 493243456
I0720 18:16:35.289324 32827 layer_factory.hpp:76] Creating layer conv1_1/SE_weights
I0720 18:16:35.289333 32827 net.cpp:144] Creating Layer conv1_1/SE_weights
I0720 18:16:35.289337 32827 net.cpp:488] conv1_1/SE_weights <- conv1_1/SE_fc2
I0720 18:16:35.289341 32827 net.cpp:177] This layer is inheriting previous layer's sync mode: 1
I0720 18:16:35.289345 32827 net.cpp:451] conv1_1/SE_weights -> conv1_1/SE_fc2 (in-place)
I0720 18:16:35.289353 32827 net.cpp:216] Setting up conv1_1/SE_weights
I0720 18:16:35.289358 32827 net.cpp:222] Top shape: 8 116 1 1 (928)
I0720 18:16:35.289361 32827 net.cpp:228] Memory required for data: 493247168
I0720 18:16:35.289363 32827 layer_factory.hpp:76] Creating layer conv1_1/SE_weights/reshape
I0720 18:16:35.289373 32827 net.cpp:144] Creating Layer conv1_1/SE_weights/reshape
I0720 18:16:35.289376 32827 net.cpp:488] conv1_1/SE_weights/reshape <- conv1_1/SE_fc2
I0720 18:16:35.289381 32827 net.cpp:177] This layer is inheriting previous layer's sync mode: 1
I0720 18:16:35.289384 32827 net.cpp:462] conv1_1/SE_weights/reshape -> conv1_1/SE_weights/reshape
I0720 18:16:35.289423 32827 net.cpp:216] Setting up conv1_1/SE_weights/reshape
I0720 18:16:35.289430 32827 net.cpp:222] Top shape: 8 116 (928)
I0720 18:16:35.289433 32827 net.cpp:228] Memory required for data: 493250880
I0720 18:16:35.289436 32827 layer_factory.hpp:76] Creating layer conv1_1/scale
I0720 18:16:35.289448 32827 net.cpp:144] Creating Layer conv1_1/scale
I0720 18:16:35.289450 32827 net.cpp:488] conv1_1/scale <- conv1_1_conv1_1_0_split_1
I0720 18:16:35.289455 32827 net.cpp:488] conv1_1/scale <- conv1_1/SE_weights/reshape
I0720 18:16:35.289459 32827 net.cpp:177] This layer is inheriting previous layer's sync mode: 1
I0720 18:16:35.289465 32827 net.cpp:462] conv1_1/scale -> conv1_1/scale
I0720 18:16:35.289546 32827 net.cpp:216] Setting up conv1_1/scale
I0720 18:16:35.289552 32827 net.cpp:222] Top shape: 8 116 56 56 (2910208)
I0720 18:16:35.289556 32827 net.cpp:228] Memory required for data: 504891712
I0720 18:16:35.289558 32827 layer_factory.hpp:76] Creating layer conv1_2/slice
I0720 18:16:35.289567 32827 net.cpp:144] Creating Layer conv1_2/slice
I0720 18:16:35.289571 32827 net.cpp:488] conv1_2/slice <- conv1_1/scale
I0720 18:16:35.289574 32827 net.cpp:177] This layer is inheriting previous layer's sync mode: 1
I0720 18:16:35.289580 32827 net.cpp:462] conv1_2/slice -> conv1_2/split1
I0720 18:16:35.289587 32827 net.cpp:462] conv1_2/slice -> conv1_2/split2
I0720 18:16:35.289625 32827 net.cpp:216] Setting up conv1_2/slice
I0720 18:16:35.289631 32827 net.cpp:222] Top shape: 8 58 56 56 (1455104)
I0720 18:16:35.289635 32827 net.cpp:222] Top shape: 8 58 56 56 (1455104)
I0720 18:16:35.289640 32827 net.cpp:228] Memory required for data: 516532544
I0720 18:16:35.289644 32827 layer_factory.hpp:76] Creating layer conv1_2/conv1
I0720 18:16:35.289652 32827 net.cpp:144] Creating Layer conv1_2/conv1
I0720 18:16:35.289656 32827 net.cpp:488] conv1_2/conv1 <- conv1_2/split2
I0720 18:16:35.289660 32827 net.cpp:177] This layer is inheriting previous layer's sync mode: 1
I0720 18:16:35.289664 32827 net.cpp:462] conv1_2/conv1 -> conv1_2/conv1
I0720 18:16:35.289976 32827 net.cpp:216] Setting up conv1_2/conv1
I0720 18:16:35.289986 32827 net.cpp:222] Top shape: 8 58 56 56 (1455104)
I0720 18:16:35.289988 32827 net.cpp:228] Memory required for data: 522352960
I0720 18:16:35.289999 32827 layer_factory.hpp:76] Creating layer conv1_2/conv1/bn
I0720 18:16:35.290006 32827 net.cpp:144] Creating Layer conv1_2/conv1/bn
I0720 18:16:35.290009 32827 net.cpp:488] conv1_2/conv1/bn <- conv1_2/conv1
I0720 18:16:35.290014 32827 net.cpp:177] This layer is inheriting previous layer's sync mode: 1
I0720 18:16:35.290020 32827 net.cpp:462] conv1_2/conv1/bn -> conv1_2/conv1/bn
I0720 18:16:35.290149 32827 cudnn_batch_norm_layer.cpp:84] Using CuDNN BN engine.
I0720 18:16:35.290211 32827 net.cpp:216] Setting up conv1_2/conv1/bn
I0720 18:16:35.290217 32827 net.cpp:222] Top shape: 8 58 56 56 (1455104)
I0720 18:16:35.290220 32827 net.cpp:228] Memory required for data: 528173376
I0720 18:16:35.290227 32827 layer_factory.hpp:76] Creating layer conv1_2/conv1/relu
I0720 18:16:35.290233 32827 net.cpp:144] Creating Layer conv1_2/conv1/relu
I0720 18:16:35.290236 32827 net.cpp:488] conv1_2/conv1/relu <- conv1_2/conv1/bn
I0720 18:16:35.290241 32827 net.cpp:177] This layer is inheriting previous layer's sync mode: 1
I0720 18:16:35.290246 32827 net.cpp:451] conv1_2/conv1/relu -> conv1_2/conv1/bn (in-place)
I0720 18:16:35.290253 32827 net.cpp:216] Setting up conv1_2/conv1/relu
I0720 18:16:35.290257 32827 net.cpp:222] Top shape: 8 58 56 56 (1455104)
I0720 18:16:35.290259 32827 net.cpp:228] Memory required for data: 533993792
I0720 18:16:35.290263 32827 layer_factory.hpp:76] Creating layer conv1_2/dwconv2
I0720 18:16:35.290271 32827 net.cpp:144] Creating Layer conv1_2/dwconv2
I0720 18:16:35.290273 32827 net.cpp:488] conv1_2/dwconv2 <- conv1_2/conv1/bn
I0720 18:16:35.290277 32827 net.cpp:177] This layer is inheriting previous layer's sync mode: 1
I0720 18:16:35.290283 32827 net.cpp:462] conv1_2/dwconv2 -> conv1_2/dwconv2
I0720 18:16:35.290500 32827 net.cpp:216] Setting up conv1_2/dwconv2
I0720 18:16:35.290508 32827 net.cpp:222] Top shape: 8 58 56 56 (1455104)
I0720 18:16:35.290511 32827 net.cpp:228] Memory required for data: 539814208
I0720 18:16:35.290515 32827 layer_factory.hpp:76] Creating layer conv1_2/dwconv2/bn
I0720 18:16:35.290524 32827 net.cpp:144] Creating Layer conv1_2/dwconv2/bn
I0720 18:16:35.290526 32827 net.cpp:488] conv1_2/dwconv2/bn <- conv1_2/dwconv2
I0720 18:16:35.290530 32827 net.cpp:177] This layer is inheriting previous layer's sync mode: 1
I0720 18:16:35.290536 32827 net.cpp:462] conv1_2/dwconv2/bn -> conv1_2/dwconv2/bn
I0720 18:16:35.290663 32827 cudnn_batch_norm_layer.cpp:84] Using CuDNN BN engine.
I0720 18:16:35.290731 32827 net.cpp:216] Setting up conv1_2/dwconv2/bn
I0720 18:16:35.290737 32827 net.cpp:222] Top shape: 8 58 56 56 (1455104)
I0720 18:16:35.290740 32827 net.cpp:228] Memory required for data: 545634624
I0720 18:16:35.290747 32827 layer_factory.hpp:76] Creating layer conv1_2/conv3
I0720 18:16:35.290758 32827 net.cpp:144] Creating Layer conv1_2/conv3
I0720 18:16:35.290762 32827 net.cpp:488] conv1_2/conv3 <- conv1_2/dwconv2/bn
I0720 18:16:35.290766 32827 net.cpp:177] This layer is inheriting previous layer's sync mode: 1
I0720 18:16:35.290771 32827 net.cpp:462] conv1_2/conv3 -> conv1_2/conv3
I0720 18:16:35.291081 32827 net.cpp:216] Setting up conv1_2/conv3
I0720 18:16:35.291090 32827 net.cpp:222] Top shape: 8 58 56 56 (1455104)
I0720 18:16:35.291092 32827 net.cpp:228] Memory required for data: 551455040
I0720 18:16:35.291097 32827 layer_factory.hpp:76] Creating layer conv1_2/conv3/bn
I0720 18:16:35.291105 32827 net.cpp:144] Creating Layer conv1_2/conv3/bn
I0720 18:16:35.291108 32827 net.cpp:488] conv1_2/conv3/bn <- conv1_2/conv3
I0720 18:16:35.291112 32827 net.cpp:177] This layer is inheriting previous layer's sync mode: 1
I0720 18:16:35.291118 32827 net.cpp:462] conv1_2/conv3/bn -> conv1_2/conv3/bn
I0720 18:16:35.291245 32827 cudnn_batch_norm_layer.cpp:84] Using CuDNN BN engine.
I0720 18:16:35.291306 32827 net.cpp:216] Setting up conv1_2/conv3/bn
I0720 18:16:35.291312 32827 net.cpp:222] Top shape: 8 58 56 56 (1455104)
I0720 18:16:35.291316 32827 net.cpp:228] Memory required for data: 557275456
I0720 18:16:35.291322 32827 layer_factory.hpp:76] Creating layer conv1_2/conv3/relu
I0720 18:16:35.291328 32827 net.cpp:144] Creating Layer conv1_2/conv3/relu
I0720 18:16:35.291332 32827 net.cpp:488] conv1_2/conv3/relu <- conv1_2/conv3/bn
I0720 18:16:35.291335 32827 net.cpp:177] This layer is inheriting previous layer's sync mode: 1
I0720 18:16:35.291342 32827 net.cpp:451] conv1_2/conv3/relu -> conv1_2/conv3/bn (in-place)
I0720 18:16:35.291347 32827 net.cpp:216] Setting up conv1_2/conv3/relu
I0720 18:16:35.291352 32827 net.cpp:222] Top shape: 8 58 56 56 (1455104)
I0720 18:16:35.291354 32827 net.cpp:228] Memory required for data: 563095872
I0720 18:16:35.291357 32827 layer_factory.hpp:76] Creating layer conv1_2/concat
I0720 18:16:35.291363 32827 net.cpp:144] Creating Layer conv1_2/concat
I0720 18:16:35.291366 32827 net.cpp:488] conv1_2/concat <- conv1_2/split1
I0720 18:16:35.291370 32827 net.cpp:488] conv1_2/concat <- conv1_2/conv3/bn
I0720 18:16:35.291374 32827 net.cpp:177] This layer is inheriting previous layer's sync mode: 1
I0720 18:16:35.291378 32827 net.cpp:462] conv1_2/concat -> conv1_2/concat
I0720 18:16:35.291400 32827 net.cpp:216] Setting up conv1_2/concat
I0720 18:16:35.291406 32827 net.cpp:222] Top shape: 8 116 56 56 (2910208)
I0720 18:16:35.291409 32827 net.cpp:228] Memory required for data: 574736704
I0720 18:16:35.291411 32827 layer_factory.hpp:76] Creating layer conv1_2
I0720 18:16:35.291419 32827 net.cpp:144] Creating Layer conv1_2
I0720 18:16:35.291424 32827 net.cpp:488] conv1_2 <- conv1_2/concat
I0720 18:16:35.291426 32827 net.cpp:177] This layer is inheriting previous layer's sync mode: 1
I0720 18:16:35.291430 32827 net.cpp:462] conv1_2 -> conv1_2
I0720 18:16:35.291484 32827 net.cpp:216] Setting up conv1_2
I0720 18:16:35.291491 32827 net.cpp:222] Top shape: 8 116 56 56 (2910208)
I0720 18:16:35.291493 32827 net.cpp:228] Memory required for data: 586377536
I0720 18:16:35.291496 32827 layer_factory.hpp:76] Creating layer conv1_2_conv1_2_0_split
I0720 18:16:35.291504 32827 net.cpp:144] Creating Layer conv1_2_conv1_2_0_split
I0720 18:16:35.291507 32827 net.cpp:488] conv1_2_conv1_2_0_split <- conv1_2
I0720 18:16:35.291510 32827 net.cpp:177] This layer is inheriting previous layer's sync mode: 1
I0720 18:16:35.291514 32827 net.cpp:462] conv1_2_conv1_2_0_split -> conv1_2_conv1_2_0_split_0
I0720 18:16:35.291522 32827 net.cpp:462] conv1_2_conv1_2_0_split -> conv1_2_conv1_2_0_split_1
I0720 18:16:35.291558 32827 net.cpp:216] Setting up conv1_2_conv1_2_0_split
I0720 18:16:35.291564 32827 net.cpp:222] Top shape: 8 116 56 56 (2910208)
I0720 18:16:35.291568 32827 net.cpp:222] Top shape: 8 116 56 56 (2910208)
I0720 18:16:35.291571 32827 net.cpp:228] Memory required for data: 609659200
I0720 18:16:35.291574 32827 layer_factory.hpp:76] Creating layer conv1_2/SE_global_pool
I0720 18:16:35.291580 32827 net.cpp:144] Creating Layer conv1_2/SE_global_pool
I0720 18:16:35.291584 32827 net.cpp:488] conv1_2/SE_global_pool <- conv1_2_conv1_2_0_split_0
I0720 18:16:35.291587 32827 net.cpp:177] This layer is inheriting previous layer's sync mode: 1
I0720 18:16:35.291591 32827 net.cpp:462] conv1_2/SE_global_pool -> conv1_2/SE_global_pool
I0720 18:16:35.291616 32827 net.cpp:216] Setting up conv1_2/SE_global_pool
I0720 18:16:35.291622 32827 net.cpp:222] Top shape: 8 116 1 1 (928)
I0720 18:16:35.291625 32827 net.cpp:228] Memory required for data: 609662912
I0720 18:16:35.291627 32827 layer_factory.hpp:76] Creating layer conv1_2/SE_fc1
I0720 18:16:35.291637 32827 net.cpp:144] Creating Layer conv1_2/SE_fc1
I0720 18:16:35.291640 32827 net.cpp:488] conv1_2/SE_fc1 <- conv1_2/SE_global_pool
I0720 18:16:35.291644 32827 net.cpp:177] This layer is inheriting previous layer's sync mode: 1
I0720 18:16:35.291651 32827 net.cpp:462] conv1_2/SE_fc1 -> conv1_2/SE_fc1
I0720 18:16:35.291962 32827 net.cpp:216] Setting up conv1_2/SE_fc1
I0720 18:16:35.291971 32827 net.cpp:222] Top shape: 8 29 1 1 (232)
I0720 18:16:35.291975 32827 net.cpp:228] Memory required for data: 609663840
I0720 18:16:35.291980 32827 layer_factory.hpp:76] Creating layer conv1_2/SE_fc1/relu
I0720 18:16:35.291985 32827 net.cpp:144] Creating Layer conv1_2/SE_fc1/relu
I0720 18:16:35.291990 32827 net.cpp:488] conv1_2/SE_fc1/relu <- conv1_2/SE_fc1
I0720 18:16:35.291993 32827 net.cpp:177] This layer is inheriting previous layer's sync mode: 1
I0720 18:16:35.292003 32827 net.cpp:451] conv1_2/SE_fc1/relu -> conv1_2/SE_fc1 (in-place)
I0720 18:16:35.292011 32827 net.cpp:216] Setting up conv1_2/SE_fc1/relu
I0720 18:16:35.292016 32827 net.cpp:222] Top shape: 8 29 1 1 (232)
I0720 18:16:35.292017 32827 net.cpp:228] Memory required for data: 609664768
I0720 18:16:35.292021 32827 layer_factory.hpp:76] Creating layer conv1_2/SE_fc2
I0720 18:16:35.292029 32827 net.cpp:144] Creating Layer conv1_2/SE_fc2
I0720 18:16:35.292032 32827 net.cpp:488] conv1_2/SE_fc2 <- conv1_2/SE_fc1
I0720 18:16:35.292035 32827 net.cpp:177] This layer is inheriting previous layer's sync mode: 1
I0720 18:16:35.292042 32827 net.cpp:462] conv1_2/SE_fc2 -> conv1_2/SE_fc2
I0720 18:16:35.292359 32827 net.cpp:216] Setting up conv1_2/SE_fc2
I0720 18:16:35.292367 32827 net.cpp:222] Top shape: 8 116 1 1 (928)
I0720 18:16:35.292371 32827 net.cpp:228] Memory required for data: 609668480
I0720 18:16:35.292376 32827 layer_factory.hpp:76] Creating layer conv1_2/SE_weights
I0720 18:16:35.292382 32827 net.cpp:144] Creating Layer conv1_2/SE_weights
I0720 18:16:35.292384 32827 net.cpp:488] conv1_2/SE_weights <- conv1_2/SE_fc2
I0720 18:16:35.292388 32827 net.cpp:177] This layer is inheriting previous layer's sync mode: 1
I0720 18:16:35.292393 32827 net.cpp:451] conv1_2/SE_weights -> conv1_2/SE_fc2 (in-place)
I0720 18:16:35.292400 32827 net.cpp:216] Setting up conv1_2/SE_weights
I0720 18:16:35.292404 32827 net.cpp:222] Top shape: 8 116 1 1 (928)
I0720 18:16:35.292407 32827 net.cpp:228] Memory required for data: 609672192
I0720 18:16:35.292410 32827 layer_factory.hpp:76] Creating layer conv1_2/SE_weights/reshape
I0720 18:16:35.292417 32827 net.cpp:144] Creating Layer conv1_2/SE_weights/reshape
I0720 18:16:35.292419 32827 net.cpp:488] conv1_2/SE_weights/reshape <- conv1_2/SE_fc2
I0720 18:16:35.292423 32827 net.cpp:177] This layer is inheriting previous layer's sync mode: 1
I0720 18:16:35.292428 32827 net.cpp:462] conv1_2/SE_weights/reshape -> conv1_2/SE_weights/reshape
I0720 18:16:35.292454 32827 net.cpp:216] Setting up conv1_2/SE_weights/reshape
I0720 18:16:35.292460 32827 net.cpp:222] Top shape: 8 116 (928)
I0720 18:16:35.292462 32827 net.cpp:228] Memory required for data: 609675904
I0720 18:16:35.292465 32827 layer_factory.hpp:76] Creating layer conv1_2/scale
I0720 18:16:35.292474 32827 net.cpp:144] Creating Layer conv1_2/scale
I0720 18:16:35.292477 32827 net.cpp:488] conv1_2/scale <- conv1_2_conv1_2_0_split_1
I0720 18:16:35.292481 32827 net.cpp:488] conv1_2/scale <- conv1_2/SE_weights/reshape
I0720 18:16:35.292485 32827 net.cpp:177] This layer is inheriting previous layer's sync mode: 1
I0720 18:16:35.292490 32827 net.cpp:462] conv1_2/scale -> conv1_2/scale
I0720 18:16:35.292560 32827 net.cpp:216] Setting up conv1_2/scale
I0720 18:16:35.292567 32827 net.cpp:222] Top shape: 8 116 56 56 (2910208)
I0720 18:16:35.292570 32827 net.cpp:228] Memory required for data: 621316736
I0720 18:16:35.292573 32827 layer_factory.hpp:76] Creating layer conv1_3/slice
I0720 18:16:35.292583 32827 net.cpp:144] Creating Layer conv1_3/slice
I0720 18:16:35.292587 32827 net.cpp:488] conv1_3/slice <- conv1_2/scale
I0720 18:16:35.292590 32827 net.cpp:177] This layer is inheriting previous layer's sync mode: 1
I0720 18:16:35.292594 32827 net.cpp:462] conv1_3/slice -> conv1_3/split1
I0720 18:16:35.292600 32827 net.cpp:462] conv1_3/slice -> conv1_3/split2
I0720 18:16:35.292641 32827 net.cpp:216] Setting up conv1_3/slice
I0720 18:16:35.292647 32827 net.cpp:222] Top shape: 8 58 56 56 (1455104)
I0720 18:16:35.292651 32827 net.cpp:222] Top shape: 8 58 56 56 (1455104)
I0720 18:16:35.292654 32827 net.cpp:228] Memory required for data: 632957568
I0720 18:16:35.292657 32827 layer_factory.hpp:76] Creating layer conv1_3/conv1
I0720 18:16:35.292670 32827 net.cpp:144] Creating Layer conv1_3/conv1
I0720 18:16:35.292672 32827 net.cpp:488] conv1_3/conv1 <- conv1_3/split2
I0720 18:16:35.292676 32827 net.cpp:177] This layer is inheriting previous layer's sync mode: 1
I0720 18:16:35.292680 32827 net.cpp:462] conv1_3/conv1 -> conv1_3/conv1
I0720 18:16:35.292996 32827 net.cpp:216] Setting up conv1_3/conv1
I0720 18:16:35.293005 32827 net.cpp:222] Top shape: 8 58 56 56 (1455104)
I0720 18:16:35.293009 32827 net.cpp:228] Memory required for data: 638777984
I0720 18:16:35.293014 32827 layer_factory.hpp:76] Creating layer conv1_3/conv1/bn
I0720 18:16:35.293021 32827 net.cpp:144] Creating Layer conv1_3/conv1/bn
I0720 18:16:35.293025 32827 net.cpp:488] conv1_3/conv1/bn <- conv1_3/conv1
I0720 18:16:35.293028 32827 net.cpp:177] This layer is inheriting previous layer's sync mode: 1
I0720 18:16:35.293035 32827 net.cpp:462] conv1_3/conv1/bn -> conv1_3/conv1/bn
I0720 18:16:35.293164 32827 cudnn_batch_norm_layer.cpp:84] Using CuDNN BN engine.
I0720 18:16:35.293228 32827 net.cpp:216] Setting up conv1_3/conv1/bn
I0720 18:16:35.293236 32827 net.cpp:222] Top shape: 8 58 56 56 (1455104)
I0720 18:16:35.293237 32827 net.cpp:228] Memory required for data: 644598400
I0720 18:16:35.293246 32827 layer_factory.hpp:76] Creating layer conv1_3/conv1/relu
I0720 18:16:35.293251 32827 net.cpp:144] Creating Layer conv1_3/conv1/relu
I0720 18:16:35.293254 32827 net.cpp:488] conv1_3/conv1/relu <- conv1_3/conv1/bn
I0720 18:16:35.293258 32827 net.cpp:177] This layer is inheriting previous layer's sync mode: 1
I0720 18:16:35.293264 32827 net.cpp:451] conv1_3/conv1/relu -> conv1_3/conv1/bn (in-place)
I0720 18:16:35.293270 32827 net.cpp:216] Setting up conv1_3/conv1/relu
I0720 18:16:35.293274 32827 net.cpp:222] Top shape: 8 58 56 56 (1455104)
I0720 18:16:35.293277 32827 net.cpp:228] Memory required for data: 650418816
I0720 18:16:35.293282 32827 layer_factory.hpp:76] Creating layer conv1_3/dwconv2
I0720 18:16:35.293288 32827 net.cpp:144] Creating Layer conv1_3/dwconv2
I0720 18:16:35.293292 32827 net.cpp:488] conv1_3/dwconv2 <- conv1_3/conv1/bn
I0720 18:16:35.293294 32827 net.cpp:177] This layer is inheriting previous layer's sync mode: 1
I0720 18:16:35.293301 32827 net.cpp:462] conv1_3/dwconv2 -> conv1_3/dwconv2
I0720 18:16:35.293524 32827 net.cpp:216] Setting up conv1_3/dwconv2
I0720 18:16:35.293535 32827 net.cpp:222] Top shape: 8 58 56 56 (1455104)
I0720 18:16:35.293540 32827 net.cpp:228] Memory required for data: 656239232
I0720 18:16:35.293547 32827 layer_factory.hpp:76] Creating layer conv1_3/dwconv2/bn
I0720 18:16:35.293557 32827 net.cpp:144] Creating Layer conv1_3/dwconv2/bn
I0720 18:16:35.293563 32827 net.cpp:488] conv1_3/dwconv2/bn <- conv1_3/dwconv2
I0720 18:16:35.293570 32827 net.cpp:177] This layer is inheriting previous layer's sync mode: 1
I0720 18:16:35.293581 32827 net.cpp:462] conv1_3/dwconv2/bn -> conv1_3/dwconv2/bn
I0720 18:16:35.293753 32827 cudnn_batch_norm_layer.cpp:84] Using CuDNN BN engine.
I0720 18:16:35.293841 32827 net.cpp:216] Setting up conv1_3/dwconv2/bn
I0720 18:16:35.293850 32827 net.cpp:222] Top shape: 8 58 56 56 (1455104)
I0720 18:16:35.293855 32827 net.cpp:228] Memory required for data: 662059648
I0720 18:16:35.293869 32827 layer_factory.hpp:76] Creating layer conv1_3/conv3
I0720 18:16:35.293884 32827 net.cpp:144] Creating Layer conv1_3/conv3
I0720 18:16:35.293891 32827 net.cpp:488] conv1_3/conv3 <- conv1_3/dwconv2/bn
I0720 18:16:35.293898 32827 net.cpp:177] This layer is inheriting previous layer's sync mode: 1
I0720 18:16:35.293905 32827 net.cpp:462] conv1_3/conv3 -> conv1_3/conv3
I0720 18:16:35.294243 32827 net.cpp:216] Setting up conv1_3/conv3
I0720 18:16:35.294255 32827 net.cpp:222] Top shape: 8 58 56 56 (1455104)
I0720 18:16:35.294260 32827 net.cpp:228] Memory required for data: 667880064
I0720 18:16:35.294267 32827 layer_factory.hpp:76] Creating layer conv1_3/conv3/bn
I0720 18:16:35.294278 32827 net.cpp:144] Creating Layer conv1_3/conv3/bn
I0720 18:16:35.294284 32827 net.cpp:488] conv1_3/conv3/bn <- conv1_3/conv3
I0720 18:16:35.294291 32827 net.cpp:177] This layer is inheriting previous layer's sync mode: 1
I0720 18:16:35.294301 32827 net.cpp:462] conv1_3/conv3/bn -> conv1_3/conv3/bn
I0720 18:16:35.294447 32827 cudnn_batch_norm_layer.cpp:84] Using CuDNN BN engine.
I0720 18:16:35.294533 32827 net.cpp:216] Setting up conv1_3/conv3/bn
I0720 18:16:35.294543 32827 net.cpp:222] Top shape: 8 58 56 56 (1455104)
I0720 18:16:35.294548 32827 net.cpp:228] Memory required for data: 673700480
I0720 18:16:35.294560 32827 layer_factory.hpp:76] Creating layer conv1_3/conv3/relu
I0720 18:16:35.294569 32827 net.cpp:144] Creating Layer conv1_3/conv3/relu
I0720 18:16:35.294575 32827 net.cpp:488] conv1_3/conv3/relu <- conv1_3/conv3/bn
I0720 18:16:35.294581 32827 net.cpp:177] This layer is inheriting previous layer's sync mode: 1
I0720 18:16:35.294590 32827 net.cpp:451] conv1_3/conv3/relu -> conv1_3/conv3/bn (in-place)
I0720 18:16:35.294601 32827 net.cpp:216] Setting up conv1_3/conv3/relu
I0720 18:16:35.294608 32827 net.cpp:222] Top shape: 8 58 56 56 (1455104)
I0720 18:16:35.294613 32827 net.cpp:228] Memory required for data: 679520896
I0720 18:16:35.294618 32827 layer_factory.hpp:76] Creating layer conv1_3/concat
I0720 18:16:35.294626 32827 net.cpp:144] Creating Layer conv1_3/concat
I0720 18:16:35.294632 32827 net.cpp:488] conv1_3/concat <- conv1_3/split1
I0720 18:16:35.294638 32827 net.cpp:488] conv1_3/concat <- conv1_3/conv3/bn
I0720 18:16:35.294644 32827 net.cpp:177] This layer is inheriting previous layer's sync mode: 1
I0720 18:16:35.294651 32827 net.cpp:462] conv1_3/concat -> conv1_3/concat
I0720 18:16:35.294684 32827 net.cpp:216] Setting up conv1_3/concat
I0720 18:16:35.294698 32827 net.cpp:222] Top shape: 8 116 56 56 (2910208)
I0720 18:16:35.294704 32827 net.cpp:228] Memory required for data: 691161728
I0720 18:16:35.294709 32827 layer_factory.hpp:76] Creating layer conv1_3
I0720 18:16:35.294726 32827 net.cpp:144] Creating Layer conv1_3
I0720 18:16:35.294733 32827 net.cpp:488] conv1_3 <- conv1_3/concat
I0720 18:16:35.294739 32827 net.cpp:177] This layer is inheriting previous layer's sync mode: 1
I0720 18:16:35.294745 32827 net.cpp:462] conv1_3 -> conv1_3
I0720 18:16:35.294814 32827 net.cpp:216] Setting up conv1_3
I0720 18:16:35.294823 32827 net.cpp:222] Top shape: 8 116 56 56 (2910208)
I0720 18:16:35.294828 32827 net.cpp:228] Memory required for data: 702802560
I0720 18:16:35.294834 32827 layer_factory.hpp:76] Creating layer conv1_3_conv1_3_0_split
I0720 18:16:35.294842 32827 net.cpp:144] Creating Layer conv1_3_conv1_3_0_split
I0720 18:16:35.294847 32827 net.cpp:488] conv1_3_conv1_3_0_split <- conv1_3
I0720 18:16:35.294865 32827 net.cpp:177] This layer is inheriting previous layer's sync mode: 1
I0720 18:16:35.294872 32827 net.cpp:462] conv1_3_conv1_3_0_split -> conv1_3_conv1_3_0_split_0
I0720 18:16:35.294881 32827 net.cpp:462] conv1_3_conv1_3_0_split -> conv1_3_conv1_3_0_split_1
I0720 18:16:35.294942 32827 net.cpp:216] Setting up conv1_3_conv1_3_0_split
I0720 18:16:35.294950 32827 net.cpp:222] Top shape: 8 116 56 56 (2910208)
I0720 18:16:35.294957 32827 net.cpp:222] Top shape: 8 116 56 56 (2910208)
I0720 18:16:35.294962 32827 net.cpp:228] Memory required for data: 726084224
I0720 18:16:35.294967 32827 layer_factory.hpp:76] Creating layer conv1_3/SE_global_pool
I0720 18:16:35.294983 32827 net.cpp:144] Creating Layer conv1_3/SE_global_pool
I0720 18:16:35.294989 32827 net.cpp:488] conv1_3/SE_global_pool <- conv1_3_conv1_3_0_split_0
I0720 18:16:35.294996 32827 net.cpp:177] This layer is inheriting previous layer's sync mode: 1
I0720 18:16:35.295002 32827 net.cpp:462] conv1_3/SE_global_pool -> conv1_3/SE_global_pool
I0720 18:16:35.295038 32827 net.cpp:216] Setting up conv1_3/SE_global_pool
I0720 18:16:35.295047 32827 net.cpp:222] Top shape: 8 116 1 1 (928)
I0720 18:16:35.295051 32827 net.cpp:228] Memory required for data: 726087936
I0720 18:16:35.295056 32827 layer_factory.hpp:76] Creating layer conv1_3/SE_fc1
I0720 18:16:35.295069 32827 net.cpp:144] Creating Layer conv1_3/SE_fc1
I0720 18:16:35.295075 32827 net.cpp:488] conv1_3/SE_fc1 <- conv1_3/SE_global_pool
I0720 18:16:35.295081 32827 net.cpp:177] This layer is inheriting previous layer's sync mode: 1
I0720 18:16:35.295091 32827 net.cpp:462] conv1_3/SE_fc1 -> conv1_3/SE_fc1
I0720 18:16:35.295419 32827 net.cpp:216] Setting up conv1_3/SE_fc1
I0720 18:16:35.295430 32827 net.cpp:222] Top shape: 8 29 1 1 (232)
I0720 18:16:35.295435 32827 net.cpp:228] Memory required for data: 726088864
I0720 18:16:35.295452 32827 layer_factory.hpp:76] Creating layer conv1_3/SE_fc1/relu
I0720 18:16:35.295466 32827 net.cpp:144] Creating Layer conv1_3/SE_fc1/relu
I0720 18:16:35.295473 32827 net.cpp:488] conv1_3/SE_fc1/relu <- conv1_3/SE_fc1
I0720 18:16:35.295480 32827 net.cpp:177] This layer is inheriting previous layer's sync mode: 1
I0720 18:16:35.295490 32827 net.cpp:451] conv1_3/SE_fc1/relu -> conv1_3/SE_fc1 (in-place)
I0720 18:16:35.295503 32827 net.cpp:216] Setting up conv1_3/SE_fc1/relu
I0720 18:16:35.295511 32827 net.cpp:222] Top shape: 8 29 1 1 (232)
I0720 18:16:35.295516 32827 net.cpp:228] Memory required for data: 726089792
I0720 18:16:35.295521 32827 layer_factory.hpp:76] Creating layer conv1_3/SE_fc2
I0720 18:16:35.295538 32827 net.cpp:144] Creating Layer conv1_3/SE_fc2
I0720 18:16:35.295544 32827 net.cpp:488] conv1_3/SE_fc2 <- conv1_3/SE_fc1
I0720 18:16:35.295550 32827 net.cpp:177] This layer is inheriting previous layer's sync mode: 1
I0720 18:16:35.295558 32827 net.cpp:462] conv1_3/SE_fc2 -> conv1_3/SE_fc2
I0720 18:16:35.295915 32827 net.cpp:216] Setting up conv1_3/SE_fc2
I0720 18:16:35.295928 32827 net.cpp:222] Top shape: 8 116 1 1 (928)
I0720 18:16:35.295933 32827 net.cpp:228] Memory required for data: 726093504
I0720 18:16:35.295940 32827 layer_factory.hpp:76] Creating layer conv1_3/SE_weights
I0720 18:16:35.295950 32827 net.cpp:144] Creating Layer conv1_3/SE_weights
I0720 18:16:35.295956 32827 net.cpp:488] conv1_3/SE_weights <- conv1_3/SE_fc2
I0720 18:16:35.295964 32827 net.cpp:177] This layer is inheriting previous layer's sync mode: 1
I0720 18:16:35.295970 32827 net.cpp:451] conv1_3/SE_weights -> conv1_3/SE_fc2 (in-place)
I0720 18:16:35.295981 32827 net.cpp:216] Setting up conv1_3/SE_weights
I0720 18:16:35.295989 32827 net.cpp:222] Top shape: 8 116 1 1 (928)
I0720 18:16:35.295994 32827 net.cpp:228] Memory required for data: 726097216
I0720 18:16:35.295998 32827 layer_factory.hpp:76] Creating layer conv1_3/SE_weights/reshape
I0720 18:16:35.296008 32827 net.cpp:144] Creating Layer conv1_3/SE_weights/reshape
I0720 18:16:35.296013 32827 net.cpp:488] conv1_3/SE_weights/reshape <- conv1_3/SE_fc2
I0720 18:16:35.296023 32827 net.cpp:177] This layer is inheriting previous layer's sync mode: 1
I0720 18:16:35.296030 32827 net.cpp:462] conv1_3/SE_weights/reshape -> conv1_3/SE_weights/reshape
I0720 18:16:35.296069 32827 net.cpp:216] Setting up conv1_3/SE_weights/reshape
I0720 18:16:35.296078 32827 net.cpp:222] Top shape: 8 116 (928)
I0720 18:16:35.296083 32827 net.cpp:228] Memory required for data: 726100928
I0720 18:16:35.296088 32827 layer_factory.hpp:76] Creating layer conv1_3/scale
I0720 18:16:35.296103 32827 net.cpp:144] Creating Layer conv1_3/scale
I0720 18:16:35.296108 32827 net.cpp:488] conv1_3/scale <- conv1_3_conv1_3_0_split_1
I0720 18:16:35.296115 32827 net.cpp:488] conv1_3/scale <- conv1_3/SE_weights/reshape
I0720 18:16:35.296121 32827 net.cpp:177] This layer is inheriting previous layer's sync mode: 1
I0720 18:16:35.296129 32827 net.cpp:462] conv1_3/scale -> conv1_3/scale
I0720 18:16:35.296219 32827 net.cpp:216] Setting up conv1_3/scale
I0720 18:16:35.296229 32827 net.cpp:222] Top shape: 8 116 56 56 (2910208)
I0720 18:16:35.296234 32827 net.cpp:228] Memory required for data: 737741760
I0720 18:16:35.296241 32827 layer_factory.hpp:76] Creating layer conv1_4/slice
I0720 18:16:35.296254 32827 net.cpp:144] Creating Layer conv1_4/slice
I0720 18:16:35.296260 32827 net.cpp:488] conv1_4/slice <- conv1_3/scale
I0720 18:16:35.296267 32827 net.cpp:177] This layer is inheriting previous layer's sync mode: 1
I0720 18:16:35.296277 32827 net.cpp:462] conv1_4/slice -> conv1_4/split1
I0720 18:16:35.296288 32827 net.cpp:462] conv1_4/slice -> conv1_4/split2
I0720 18:16:35.297992 32827 net.cpp:216] Setting up conv1_4/slice
I0720 18:16:35.298003 32827 net.cpp:222] Top shape: 8 58 56 56 (1455104)
I0720 18:16:35.298009 32827 net.cpp:222] Top shape: 8 58 56 56 (1455104)
I0720 18:16:35.298014 32827 net.cpp:228] Memory required for data: 749382592
I0720 18:16:35.298020 32827 layer_factory.hpp:76] Creating layer conv1_4/conv1
I0720 18:16:35.298034 32827 net.cpp:144] Creating Layer conv1_4/conv1
I0720 18:16:35.298049 32827 net.cpp:488] conv1_4/conv1 <- conv1_4/split2
I0720 18:16:35.298055 32827 net.cpp:177] This layer is inheriting previous layer's sync mode: 1
I0720 18:16:35.298065 32827 net.cpp:462] conv1_4/conv1 -> conv1_4/conv1
I0720 18:16:35.298411 32827 net.cpp:216] Setting up conv1_4/conv1
I0720 18:16:35.298424 32827 net.cpp:222] Top shape: 8 58 56 56 (1455104)
I0720 18:16:35.298429 32827 net.cpp:228] Memory required for data: 755203008
I0720 18:16:35.298437 32827 layer_factory.hpp:76] Creating layer conv1_4/conv1/bn
I0720 18:16:35.298451 32827 net.cpp:144] Creating Layer conv1_4/conv1/bn
I0720 18:16:35.298457 32827 net.cpp:488] conv1_4/conv1/bn <- conv1_4/conv1
I0720 18:16:35.298463 32827 net.cpp:177] This layer is inheriting previous layer's sync mode: 1
I0720 18:16:35.298471 32827 net.cpp:462] conv1_4/conv1/bn -> conv1_4/conv1/bn
I0720 18:16:35.298624 32827 cudnn_batch_norm_layer.cpp:84] Using CuDNN BN engine.
I0720 18:16:35.298720 32827 net.cpp:216] Setting up conv1_4/conv1/bn
I0720 18:16:35.298730 32827 net.cpp:222] Top shape: 8 58 56 56 (1455104)
I0720 18:16:35.298734 32827 net.cpp:228] Memory required for data: 761023424
I0720 18:16:35.298748 32827 layer_factory.hpp:76] Creating layer conv1_4/conv1/relu
I0720 18:16:35.298756 32827 net.cpp:144] Creating Layer conv1_4/conv1/relu
I0720 18:16:35.298763 32827 net.cpp:488] conv1_4/conv1/relu <- conv1_4/conv1/bn
I0720 18:16:35.298768 32827 net.cpp:177] This layer is inheriting previous layer's sync mode: 1
I0720 18:16:35.298774 32827 net.cpp:451] conv1_4/conv1/relu -> conv1_4/conv1/bn (in-place)
I0720 18:16:35.298784 32827 net.cpp:216] Setting up conv1_4/conv1/relu
I0720 18:16:35.298791 32827 net.cpp:222] Top shape: 8 58 56 56 (1455104)
I0720 18:16:35.298796 32827 net.cpp:228] Memory required for data: 766843840
I0720 18:16:35.298801 32827 layer_factory.hpp:76] Creating layer conv1_4/dwconv2
I0720 18:16:35.298815 32827 net.cpp:144] Creating Layer conv1_4/dwconv2
I0720 18:16:35.298820 32827 net.cpp:488] conv1_4/dwconv2 <- conv1_4/conv1/bn
I0720 18:16:35.298826 32827 net.cpp:177] This layer is inheriting previous layer's sync mode: 1
I0720 18:16:35.298833 32827 net.cpp:462] conv1_4/dwconv2 -> conv1_4/dwconv2
I0720 18:16:35.299087 32827 net.cpp:216] Setting up conv1_4/dwconv2
I0720 18:16:35.299096 32827 net.cpp:222] Top shape: 8 58 56 56 (1455104)
I0720 18:16:35.299100 32827 net.cpp:228] Memory required for data: 772664256
I0720 18:16:35.299108 32827 layer_factory.hpp:76] Creating layer conv1_4/dwconv2/bn
I0720 18:16:35.299123 32827 net.cpp:144] Creating Layer conv1_4/dwconv2/bn
I0720 18:16:35.299129 32827 net.cpp:488] conv1_4/dwconv2/bn <- conv1_4/dwconv2
I0720 18:16:35.299134 32827 net.cpp:177] This layer is inheriting previous layer's sync mode: 1
I0720 18:16:35.299142 32827 net.cpp:462] conv1_4/dwconv2/bn -> conv1_4/dwconv2/bn
I0720 18:16:35.299311 32827 cudnn_batch_norm_layer.cpp:84] Using CuDNN BN engine.
I0720 18:16:35.299396 32827 net.cpp:216] Setting up conv1_4/dwconv2/bn
I0720 18:16:35.299405 32827 net.cpp:222] Top shape: 8 58 56 56 (1455104)
I0720 18:16:35.299410 32827 net.cpp:228] Memory required for data: 778484672
I0720 18:16:35.299423 32827 layer_factory.hpp:76] Creating layer conv1_4/conv3
I0720 18:16:35.299437 32827 net.cpp:144] Creating Layer conv1_4/conv3
I0720 18:16:35.299443 32827 net.cpp:488] conv1_4/conv3 <- conv1_4/dwconv2/bn
I0720 18:16:35.299448 32827 net.cpp:177] This layer is inheriting previous layer's sync mode: 1
I0720 18:16:35.299455 32827 net.cpp:462] conv1_4/conv3 -> conv1_4/conv3
I0720 18:16:35.299798 32827 net.cpp:216] Setting up conv1_4/conv3
I0720 18:16:35.299808 32827 net.cpp:222] Top shape: 8 58 56 56 (1455104)
I0720 18:16:35.299813 32827 net.cpp:228] Memory required for data: 784305088
I0720 18:16:35.299821 32827 layer_factory.hpp:76] Creating layer conv1_4/conv3/bn
I0720 18:16:35.299835 32827 net.cpp:144] Creating Layer conv1_4/conv3/bn
I0720 18:16:35.299841 32827 net.cpp:488] conv1_4/conv3/bn <- conv1_4/conv3
I0720 18:16:35.299849 32827 net.cpp:177] This layer is inheriting previous layer's sync mode: 1
I0720 18:16:35.299859 32827 net.cpp:462] conv1_4/conv3/bn -> conv1_4/conv3/bn
I0720 18:16:35.299996 32827 cudnn_batch_norm_layer.cpp:84] Using CuDNN BN engine.
I0720 18:16:35.300099 32827 net.cpp:216] Setting up conv1_4/conv3/bn
I0720 18:16:35.300107 32827 net.cpp:222] Top shape: 8 58 56 56 (1455104)
I0720 18:16:35.300112 32827 net.cpp:228] Memory required for data: 790125504
I0720 18:16:35.300124 32827 layer_factory.hpp:76] Creating layer conv1_4/conv3/relu
I0720 18:16:35.300134 32827 net.cpp:144] Creating Layer conv1_4/conv3/relu
I0720 18:16:35.300139 32827 net.cpp:488] conv1_4/conv3/relu <- conv1_4/conv3/bn
I0720 18:16:35.300146 32827 net.cpp:177] This layer is inheriting previous layer's sync mode: 1
I0720 18:16:35.300153 32827 net.cpp:451] conv1_4/conv3/relu -> conv1_4/conv3/bn (in-place)
I0720 18:16:35.300161 32827 net.cpp:216] Setting up conv1_4/conv3/relu
I0720 18:16:35.300169 32827 net.cpp:222] Top shape: 8 58 56 56 (1455104)
I0720 18:16:35.300173 32827 net.cpp:228] Memory required for data: 795945920
I0720 18:16:35.300179 32827 layer_factory.hpp:76] Creating layer conv1_4/concat
I0720 18:16:35.300190 32827 net.cpp:144] Creating Layer conv1_4/concat
I0720 18:16:35.300196 32827 net.cpp:488] conv1_4/concat <- conv1_4/split1
I0720 18:16:35.300202 32827 net.cpp:488] conv1_4/concat <- conv1_4/conv3/bn
I0720 18:16:35.300209 32827 net.cpp:177] This layer is inheriting previous layer's sync mode: 1
I0720 18:16:35.300215 32827 net.cpp:462] conv1_4/concat -> conv1_4/concat
I0720 18:16:35.300249 32827 net.cpp:216] Setting up conv1_4/concat
I0720 18:16:35.300258 32827 net.cpp:222] Top shape: 8 116 56 56 (2910208)
I0720 18:16:35.300263 32827 net.cpp:228] Memory required for data: 807586752
I0720 18:16:35.300268 32827 layer_factory.hpp:76] Creating layer conv1_4
I0720 18:16:35.300277 32827 net.cpp:144] Creating Layer conv1_4
I0720 18:16:35.300283 32827 net.cpp:488] conv1_4 <- conv1_4/concat
I0720 18:16:35.300292 32827 net.cpp:177] This layer is inheriting previous layer's sync mode: 1
I0720 18:16:35.300298 32827 net.cpp:462] conv1_4 -> conv1_4
I0720 18:16:35.300371 32827 net.cpp:216] Setting up conv1_4
I0720 18:16:35.300380 32827 net.cpp:222] Top shape: 8 116 56 56 (2910208)
I0720 18:16:35.300385 32827 net.cpp:228] Memory required for data: 819227584
I0720 18:16:35.300390 32827 layer_factory.hpp:76] Creating layer conv1_4_conv1_4_0_split
I0720 18:16:35.300398 32827 net.cpp:144] Creating Layer conv1_4_conv1_4_0_split
I0720 18:16:35.300403 32827 net.cpp:488] conv1_4_conv1_4_0_split <- conv1_4
I0720 18:16:35.300410 32827 net.cpp:177] This layer is inheriting previous layer's sync mode: 1
I0720 18:16:35.300417 32827 net.cpp:462] conv1_4_conv1_4_0_split -> conv1_4_conv1_4_0_split_0
I0720 18:16:35.300427 32827 net.cpp:462] conv1_4_conv1_4_0_split -> conv1_4_conv1_4_0_split_1
I0720 18:16:35.300485 32827 net.cpp:216] Setting up conv1_4_conv1_4_0_split
I0720 18:16:35.300494 32827 net.cpp:222] Top shape: 8 116 56 56 (2910208)
I0720 18:16:35.300500 32827 net.cpp:222] Top shape: 8 116 56 56 (2910208)
I0720 18:16:35.300505 32827 net.cpp:228] Memory required for data: 842509248
I0720 18:16:35.300510 32827 layer_factory.hpp:76] Creating layer conv1_4/SE_global_pool
I0720 18:16:35.300523 32827 net.cpp:144] Creating Layer conv1_4/SE_global_pool
I0720 18:16:35.300528 32827 net.cpp:488] conv1_4/SE_global_pool <- conv1_4_conv1_4_0_split_0
I0720 18:16:35.300534 32827 net.cpp:177] This layer is inheriting previous layer's sync mode: 1
I0720 18:16:35.300541 32827 net.cpp:462] conv1_4/SE_global_pool -> conv1_4/SE_global_pool
I0720 18:16:35.300575 32827 net.cpp:216] Setting up conv1_4/SE_global_pool
I0720 18:16:35.300596 32827 net.cpp:222] Top shape: 8 116 1 1 (928)
I0720 18:16:35.300601 32827 net.cpp:228] Memory required for data: 842512960
I0720 18:16:35.300606 32827 layer_factory.hpp:76] Creating layer conv1_4/SE_fc1
I0720 18:16:35.300622 32827 net.cpp:144] Creating Layer conv1_4/SE_fc1
I0720 18:16:35.300628 32827 net.cpp:488] conv1_4/SE_fc1 <- conv1_4/SE_global_pool
I0720 18:16:35.300635 32827 net.cpp:177] This layer is inheriting previous layer's sync mode: 1
I0720 18:16:35.300645 32827 net.cpp:462] conv1_4/SE_fc1 -> conv1_4/SE_fc1
I0720 18:16:35.301009 32827 net.cpp:216] Setting up conv1_4/SE_fc1
I0720 18:16:35.301021 32827 net.cpp:222] Top shape: 8 29 1 1 (232)
I0720 18:16:35.301025 32827 net.cpp:228] Memory required for data: 842513888
I0720 18:16:35.301039 32827 layer_factory.hpp:76] Creating layer conv1_4/SE_fc1/relu
I0720 18:16:35.301048 32827 net.cpp:144] Creating Layer conv1_4/SE_fc1/relu
I0720 18:16:35.301054 32827 net.cpp:488] conv1_4/SE_fc1/relu <- conv1_4/SE_fc1
I0720 18:16:35.301060 32827 net.cpp:177] This layer is inheriting previous layer's sync mode: 1
I0720 18:16:35.301066 32827 net.cpp:451] conv1_4/SE_fc1/relu -> conv1_4/SE_fc1 (in-place)
I0720 18:16:35.301077 32827 net.cpp:216] Setting up conv1_4/SE_fc1/relu
I0720 18:16:35.301084 32827 net.cpp:222] Top shape: 8 29 1 1 (232)
I0720 18:16:35.301089 32827 net.cpp:228] Memory required for data: 842514816
I0720 18:16:35.301095 32827 layer_factory.hpp:76] Creating layer conv1_4/SE_fc2
I0720 18:16:35.301110 32827 net.cpp:144] Creating Layer conv1_4/SE_fc2
I0720 18:16:35.301115 32827 net.cpp:488] conv1_4/SE_fc2 <- conv1_4/SE_fc1
I0720 18:16:35.301121 32827 net.cpp:177] This layer is inheriting previous layer's sync mode: 1
I0720 18:16:35.301128 32827 net.cpp:462] conv1_4/SE_fc2 -> conv1_4/SE_fc2
I0720 18:16:35.301468 32827 net.cpp:216] Setting up conv1_4/SE_fc2
I0720 18:16:35.301478 32827 net.cpp:222] Top shape: 8 116 1 1 (928)
I0720 18:16:35.301483 32827 net.cpp:228] Memory required for data: 842518528
I0720 18:16:35.301491 32827 layer_factory.hpp:76] Creating layer conv1_4/SE_weights
I0720 18:16:35.301499 32827 net.cpp:144] Creating Layer conv1_4/SE_weights
I0720 18:16:35.301506 32827 net.cpp:488] conv1_4/SE_weights <- conv1_4/SE_fc2
I0720 18:16:35.301512 32827 net.cpp:177] This layer is inheriting previous layer's sync mode: 1
I0720 18:16:35.301517 32827 net.cpp:451] conv1_4/SE_weights -> conv1_4/SE_fc2 (in-place)
I0720 18:16:35.301527 32827 net.cpp:216] Setting up conv1_4/SE_weights
I0720 18:16:35.301535 32827 net.cpp:222] Top shape: 8 116 1 1 (928)
I0720 18:16:35.301539 32827 net.cpp:228] Memory required for data: 842522240
I0720 18:16:35.301544 32827 layer_factory.hpp:76] Creating layer conv1_4/SE_weights/reshape
I0720 18:16:35.301554 32827 net.cpp:144] Creating Layer conv1_4/SE_weights/reshape
I0720 18:16:35.301560 32827 net.cpp:488] conv1_4/SE_weights/reshape <- conv1_4/SE_fc2
I0720 18:16:35.301568 32827 net.cpp:177] This layer is inheriting previous layer's sync mode: 1
I0720 18:16:35.301576 32827 net.cpp:462] conv1_4/SE_weights/reshape -> conv1_4/SE_weights/reshape
I0720 18:16:35.301614 32827 net.cpp:216] Setting up conv1_4/SE_weights/reshape
I0720 18:16:35.301623 32827 net.cpp:222] Top shape: 8 116 (928)
I0720 18:16:35.301627 32827 net.cpp:228] Memory required for data: 842525952
I0720 18:16:35.301632 32827 layer_factory.hpp:76] Creating layer conv1_4/scale
I0720 18:16:35.301642 32827 net.cpp:144] Creating Layer conv1_4/scale
I0720 18:16:35.301648 32827 net.cpp:488] conv1_4/scale <- conv1_4_conv1_4_0_split_1
I0720 18:16:35.301657 32827 net.cpp:488] conv1_4/scale <- conv1_4/SE_weights/reshape
I0720 18:16:35.301664 32827 net.cpp:177] This layer is inheriting previous layer's sync mode: 1
I0720 18:16:35.301671 32827 net.cpp:462] conv1_4/scale -> conv1_4/scale
I0720 18:16:35.301764 32827 net.cpp:216] Setting up conv1_4/scale
I0720 18:16:35.301774 32827 net.cpp:222] Top shape: 8 116 56 56 (2910208)
I0720 18:16:35.301779 32827 net.cpp:228] Memory required for data: 854166784
I0720 18:16:35.301784 32827 layer_factory.hpp:76] Creating layer conv1_4/scale_conv1_4/scale_0_split
I0720 18:16:35.301795 32827 net.cpp:144] Creating Layer conv1_4/scale_conv1_4/scale_0_split
I0720 18:16:35.301801 32827 net.cpp:488] conv1_4/scale_conv1_4/scale_0_split <- conv1_4/scale
I0720 18:16:35.301808 32827 net.cpp:177] This layer is inheriting previous layer's sync mode: 1
I0720 18:16:35.301817 32827 net.cpp:462] conv1_4/scale_conv1_4/scale_0_split -> conv1_4/scale_conv1_4/scale_0_split_0
I0720 18:16:35.301827 32827 net.cpp:462] conv1_4/scale_conv1_4/scale_0_split -> conv1_4/scale_conv1_4/scale_0_split_1
I0720 18:16:35.301877 32827 net.cpp:216] Setting up conv1_4/scale_conv1_4/scale_0_split
I0720 18:16:35.301888 32827 net.cpp:222] Top shape: 8 116 56 56 (2910208)
I0720 18:16:35.301895 32827 net.cpp:222] Top shape: 8 116 56 56 (2910208)
I0720 18:16:35.301900 32827 net.cpp:228] Memory required for data: 877448448
I0720 18:16:35.301905 32827 layer_factory.hpp:76] Creating layer conv2
I0720 18:16:35.301925 32827 net.cpp:144] Creating Layer conv2
I0720 18:16:35.301931 32827 net.cpp:488] conv2 <- conv1_4/scale_conv1_4/scale_0_split_0
I0720 18:16:35.301937 32827 net.cpp:177] This layer is inheriting previous layer's sync mode: 1
I0720 18:16:35.301947 32827 net.cpp:462] conv2 -> conv2
I0720 18:16:35.312664 32827 net.cpp:216] Setting up conv2
I0720 18:16:35.312688 32827 net.cpp:222] Top shape: 8 24 56 56 (602112)
I0720 18:16:35.312702 32827 net.cpp:228] Memory required for data: 879856896
I0720 18:16:35.312722 32827 layer_factory.hpp:76] Creating layer conv2/bn
I0720 18:16:35.312736 32827 net.cpp:144] Creating Layer conv2/bn
I0720 18:16:35.312743 32827 net.cpp:488] conv2/bn <- conv2
I0720 18:16:35.312749 32827 net.cpp:177] This layer is inheriting previous layer's sync mode: 1
I0720 18:16:35.312759 32827 net.cpp:462] conv2/bn -> conv2/bn
I0720 18:16:35.312958 32827 cudnn_batch_norm_layer.cpp:84] Using CuDNN BN engine.
I0720 18:16:35.313036 32827 net.cpp:216] Setting up conv2/bn
I0720 18:16:35.313045 32827 net.cpp:222] Top shape: 8 24 56 56 (602112)
I0720 18:16:35.313050 32827 net.cpp:228] Memory required for data: 882265344
I0720 18:16:35.313061 32827 layer_factory.hpp:76] Creating layer conv2/relu
I0720 18:16:35.313076 32827 net.cpp:144] Creating Layer conv2/relu
I0720 18:16:35.313082 32827 net.cpp:488] conv2/relu <- conv2/bn
I0720 18:16:35.313088 32827 net.cpp:177] This layer is inheriting previous layer's sync mode: 1
I0720 18:16:35.313094 32827 net.cpp:451] conv2/relu -> conv2/bn (in-place)
I0720 18:16:35.313104 32827 net.cpp:216] Setting up conv2/relu
I0720 18:16:35.313112 32827 net.cpp:222] Top shape: 8 24 56 56 (602112)
I0720 18:16:35.313117 32827 net.cpp:228] Memory required for data: 884673792
I0720 18:16:35.313122 32827 layer_factory.hpp:76] Creating layer conv2/bn_conv2/relu_0_split
I0720 18:16:35.313129 32827 net.cpp:144] Creating Layer conv2/bn_conv2/relu_0_split
I0720 18:16:35.313134 32827 net.cpp:488] conv2/bn_conv2/relu_0_split <- conv2/bn
I0720 18:16:35.313139 32827 net.cpp:177] This layer is inheriting previous layer's sync mode: 1
I0720 18:16:35.313145 32827 net.cpp:462] conv2/bn_conv2/relu_0_split -> conv2/bn_conv2/relu_0_split_0
I0720 18:16:35.313154 32827 net.cpp:462] conv2/bn_conv2/relu_0_split -> conv2/bn_conv2/relu_0_split_1
I0720 18:16:35.313203 32827 net.cpp:216] Setting up conv2/bn_conv2/relu_0_split
I0720 18:16:35.313212 32827 net.cpp:222] Top shape: 8 24 56 56 (602112)
I0720 18:16:35.313218 32827 net.cpp:222] Top shape: 8 24 56 56 (602112)
I0720 18:16:35.313222 32827 net.cpp:228] Memory required for data: 889490688
I0720 18:16:35.313227 32827 layer_factory.hpp:76] Creating layer conv2_1/branch1_dwconv1
I0720 18:16:35.313241 32827 net.cpp:144] Creating Layer conv2_1/branch1_dwconv1
I0720 18:16:35.313246 32827 net.cpp:488] conv2_1/branch1_dwconv1 <- conv2/bn_conv2/relu_0_split_0
I0720 18:16:35.313252 32827 net.cpp:177] This layer is inheriting previous layer's sync mode: 1
I0720 18:16:35.313267 32827 net.cpp:462] conv2_1/branch1_dwconv1 -> conv2_1/branch1_dwconv1
I0720 18:16:35.313503 32827 net.cpp:216] Setting up conv2_1/branch1_dwconv1
I0720 18:16:35.313513 32827 net.cpp:222] Top shape: 8 24 28 28 (150528)
I0720 18:16:35.313516 32827 net.cpp:228] Memory required for data: 890092800
I0720 18:16:35.313524 32827 layer_factory.hpp:76] Creating layer conv2_1/branch1_dwconv1/bn
I0720 18:16:35.313536 32827 net.cpp:144] Creating Layer conv2_1/branch1_dwconv1/bn
I0720 18:16:35.313541 32827 net.cpp:488] conv2_1/branch1_dwconv1/bn <- conv2_1/branch1_dwconv1
I0720 18:16:35.313547 32827 net.cpp:177] This layer is inheriting previous layer's sync mode: 1
I0720 18:16:35.313555 32827 net.cpp:462] conv2_1/branch1_dwconv1/bn -> conv2_1/branch1_dwconv1/bn
I0720 18:16:35.313683 32827 cudnn_batch_norm_layer.cpp:84] Using CuDNN BN engine.
I0720 18:16:35.313763 32827 net.cpp:216] Setting up conv2_1/branch1_dwconv1/bn
I0720 18:16:35.313772 32827 net.cpp:222] Top shape: 8 24 28 28 (150528)
I0720 18:16:35.313776 32827 net.cpp:228] Memory required for data: 890694912
I0720 18:16:35.313788 32827 layer_factory.hpp:76] Creating layer conv2_1/branch1_conv2
I0720 18:16:35.313802 32827 net.cpp:144] Creating Layer conv2_1/branch1_conv2
I0720 18:16:35.313807 32827 net.cpp:488] conv2_1/branch1_conv2 <- conv2_1/branch1_dwconv1/bn
I0720 18:16:35.313812 32827 net.cpp:177] This layer is inheriting previous layer's sync mode: 1
I0720 18:16:35.313822 32827 net.cpp:462] conv2_1/branch1_conv2 -> conv2_1/branch1_conv2
I0720 18:16:35.314098 32827 net.cpp:216] Setting up conv2_1/branch1_conv2
I0720 18:16:35.314108 32827 net.cpp:222] Top shape: 8 58 28 28 (363776)
I0720 18:16:35.314113 32827 net.cpp:228] Memory required for data: 892150016
I0720 18:16:35.314121 32827 layer_factory.hpp:76] Creating layer conv2_1/branch1_conv2/bn
I0720 18:16:35.314133 32827 net.cpp:144] Creating Layer conv2_1/branch1_conv2/bn
I0720 18:16:35.314139 32827 net.cpp:488] conv2_1/branch1_conv2/bn <- conv2_1/branch1_conv2
I0720 18:16:35.314146 32827 net.cpp:177] This layer is inheriting previous layer's sync mode: 1
I0720 18:16:35.314153 32827 net.cpp:462] conv2_1/branch1_conv2/bn -> conv2_1/branch1_conv2/bn
I0720 18:16:35.314299 32827 cudnn_batch_norm_layer.cpp:84] Using CuDNN BN engine.
I0720 18:16:35.314375 32827 net.cpp:216] Setting up conv2_1/branch1_conv2/bn
I0720 18:16:35.314383 32827 net.cpp:222] Top shape: 8 58 28 28 (363776)
I0720 18:16:35.314388 32827 net.cpp:228] Memory required for data: 893605120
I0720 18:16:35.314399 32827 layer_factory.hpp:76] Creating layer conv2_1/branch1_conv2/relu
I0720 18:16:35.314409 32827 net.cpp:144] Creating Layer conv2_1/branch1_conv2/relu
I0720 18:16:35.314414 32827 net.cpp:488] conv2_1/branch1_conv2/relu <- conv2_1/branch1_conv2/bn
I0720 18:16:35.314419 32827 net.cpp:177] This layer is inheriting previous layer's sync mode: 1
I0720 18:16:35.314425 32827 net.cpp:451] conv2_1/branch1_conv2/relu -> conv2_1/branch1_conv2/bn (in-place)
I0720 18:16:35.314435 32827 net.cpp:216] Setting up conv2_1/branch1_conv2/relu
I0720 18:16:35.314441 32827 net.cpp:222] Top shape: 8 58 28 28 (363776)
I0720 18:16:35.314446 32827 net.cpp:228] Memory required for data: 895060224
I0720 18:16:35.314450 32827 layer_factory.hpp:76] Creating layer conv2_1/brach2_conv1
I0720 18:16:35.314465 32827 net.cpp:144] Creating Layer conv2_1/brach2_conv1
I0720 18:16:35.314471 32827 net.cpp:488] conv2_1/brach2_conv1 <- conv2/bn_conv2/relu_0_split_1
I0720 18:16:35.314476 32827 net.cpp:177] This layer is inheriting previous layer's sync mode: 1
I0720 18:16:35.314483 32827 net.cpp:462] conv2_1/brach2_conv1 -> conv2_1/brach2_conv1
I0720 18:16:35.314736 32827 net.cpp:216] Setting up conv2_1/brach2_conv1
I0720 18:16:35.314762 32827 net.cpp:222] Top shape: 8 24 56 56 (602112)
I0720 18:16:35.314785 32827 net.cpp:228] Memory required for data: 897468672
I0720 18:16:35.314792 32827 layer_factory.hpp:76] Creating layer conv2_1/brach2_conv1/bn
I0720 18:16:35.314806 32827 net.cpp:144] Creating Layer conv2_1/brach2_conv1/bn
I0720 18:16:35.314812 32827 net.cpp:488] conv2_1/brach2_conv1/bn <- conv2_1/brach2_conv1
I0720 18:16:35.314819 32827 net.cpp:177] This layer is inheriting previous layer's sync mode: 1
I0720 18:16:35.314826 32827 net.cpp:462] conv2_1/brach2_conv1/bn -> conv2_1/brach2_conv1/bn
I0720 18:16:35.314967 32827 cudnn_batch_norm_layer.cpp:84] Using CuDNN BN engine.
I0720 18:16:35.315044 32827 net.cpp:216] Setting up conv2_1/brach2_conv1/bn
I0720 18:16:35.315052 32827 net.cpp:222] Top shape: 8 24 56 56 (602112)
I0720 18:16:35.315057 32827 net.cpp:228] Memory required for data: 899877120
I0720 18:16:35.315085 32827 layer_factory.hpp:76] Creating layer conv2_1/brach2_conv1/relu
I0720 18:16:35.315094 32827 net.cpp:144] Creating Layer conv2_1/brach2_conv1/relu
I0720 18:16:35.315100 32827 net.cpp:488] conv2_1/brach2_conv1/relu <- conv2_1/brach2_conv1/bn
I0720 18:16:35.315106 32827 net.cpp:177] This layer is inheriting previous layer's sync mode: 1
I0720 18:16:35.315114 32827 net.cpp:451] conv2_1/brach2_conv1/relu -> conv2_1/brach2_conv1/bn (in-place)
I0720 18:16:35.315124 32827 net.cpp:216] Setting up conv2_1/brach2_conv1/relu
I0720 18:16:35.315131 32827 net.cpp:222] Top shape: 8 24 56 56 (602112)
I0720 18:16:35.315136 32827 net.cpp:228] Memory required for data: 902285568
I0720 18:16:35.315141 32827 layer_factory.hpp:76] Creating layer conv2_1/brach2_dwconv2
I0720 18:16:35.315151 32827 net.cpp:144] Creating Layer conv2_1/brach2_dwconv2
I0720 18:16:35.315156 32827 net.cpp:488] conv2_1/brach2_dwconv2 <- conv2_1/brach2_conv1/bn
I0720 18:16:35.315161 32827 net.cpp:177] This layer is inheriting previous layer's sync mode: 1
I0720 18:16:35.315168 32827 net.cpp:462] conv2_1/brach2_dwconv2 -> conv2_1/brach2_dwconv2
I0720 18:16:35.315402 32827 net.cpp:216] Setting up conv2_1/brach2_dwconv2
I0720 18:16:35.315412 32827 net.cpp:222] Top shape: 8 24 28 28 (150528)
I0720 18:16:35.315415 32827 net.cpp:228] Memory required for data: 902887680
I0720 18:16:35.315423 32827 layer_factory.hpp:76] Creating layer conv2_1/brach2_dwconv2/bn
I0720 18:16:35.315435 32827 net.cpp:144] Creating Layer conv2_1/brach2_dwconv2/bn
I0720 18:16:35.315441 32827 net.cpp:488] conv2_1/brach2_dwconv2/bn <- conv2_1/brach2_dwconv2
I0720 18:16:35.315448 32827 net.cpp:177] This layer is inheriting previous layer's sync mode: 1
I0720 18:16:35.315454 32827 net.cpp:462] conv2_1/brach2_dwconv2/bn -> conv2_1/brach2_dwconv2/bn
I0720 18:16:35.315587 32827 cudnn_batch_norm_layer.cpp:84] Using CuDNN BN engine.
I0720 18:16:35.315659 32827 net.cpp:216] Setting up conv2_1/brach2_dwconv2/bn
I0720 18:16:35.315666 32827 net.cpp:222] Top shape: 8 24 28 28 (150528)
I0720 18:16:35.315670 32827 net.cpp:228] Memory required for data: 903489792
I0720 18:16:35.315682 32827 layer_factory.hpp:76] Creating layer conv2_1/brach2_conv3
I0720 18:16:35.315701 32827 net.cpp:144] Creating Layer conv2_1/brach2_conv3
I0720 18:16:35.315707 32827 net.cpp:488] conv2_1/brach2_conv3 <- conv2_1/brach2_dwconv2/bn
I0720 18:16:35.315713 32827 net.cpp:177] This layer is inheriting previous layer's sync mode: 1
I0720 18:16:35.315721 32827 net.cpp:462] conv2_1/brach2_conv3 -> conv2_1/brach2_conv3
I0720 18:16:35.315987 32827 net.cpp:216] Setting up conv2_1/brach2_conv3
I0720 18:16:35.315997 32827 net.cpp:222] Top shape: 8 58 28 28 (363776)
I0720 18:16:35.316002 32827 net.cpp:228] Memory required for data: 904944896
I0720 18:16:35.316009 32827 layer_factory.hpp:76] Creating layer conv2_1/brach2_conv3/bn
I0720 18:16:35.316022 32827 net.cpp:144] Creating Layer conv2_1/brach2_conv3/bn
I0720 18:16:35.316028 32827 net.cpp:488] conv2_1/brach2_conv3/bn <- conv2_1/brach2_conv3
I0720 18:16:35.316035 32827 net.cpp:177] This layer is inheriting previous layer's sync mode: 1
I0720 18:16:35.316041 32827 net.cpp:462] conv2_1/brach2_conv3/bn -> conv2_1/brach2_conv3/bn
I0720 18:16:35.316181 32827 cudnn_batch_norm_layer.cpp:84] Using CuDNN BN engine.
I0720 18:16:35.316254 32827 net.cpp:216] Setting up conv2_1/brach2_conv3/bn
I0720 18:16:35.316262 32827 net.cpp:222] Top shape: 8 58 28 28 (363776)
I0720 18:16:35.316267 32827 net.cpp:228] Memory required for data: 906400000
I0720 18:16:35.316278 32827 layer_factory.hpp:76] Creating layer conv2_1/brach2_conv3/relu
I0720 18:16:35.316287 32827 net.cpp:144] Creating Layer conv2_1/brach2_conv3/relu
I0720 18:16:35.316293 32827 net.cpp:488] conv2_1/brach2_conv3/relu <- conv2_1/brach2_conv3/bn
I0720 18:16:35.316298 32827 net.cpp:177] This layer is inheriting previous layer's sync mode: 1
I0720 18:16:35.316304 32827 net.cpp:451] conv2_1/brach2_conv3/relu -> conv2_1/brach2_conv3/bn (in-place)
I0720 18:16:35.316313 32827 net.cpp:216] Setting up conv2_1/brach2_conv3/relu
I0720 18:16:35.316319 32827 net.cpp:222] Top shape: 8 58 28 28 (363776)
I0720 18:16:35.316324 32827 net.cpp:228] Memory required for data: 907855104
I0720 18:16:35.316329 32827 layer_factory.hpp:76] Creating layer conv2_1/concat
I0720 18:16:35.316339 32827 net.cpp:144] Creating Layer conv2_1/concat
I0720 18:16:35.316344 32827 net.cpp:488] conv2_1/concat <- conv2_1/branch1_conv2/bn
I0720 18:16:35.316351 32827 net.cpp:488] conv2_1/concat <- conv2_1/brach2_conv3/bn
I0720 18:16:35.316357 32827 net.cpp:177] This layer is inheriting previous layer's sync mode: 1
I0720 18:16:35.316363 32827 net.cpp:462] conv2_1/concat -> conv2_1/concat
I0720 18:16:35.316396 32827 net.cpp:216] Setting up conv2_1/concat
I0720 18:16:35.316404 32827 net.cpp:222] Top shape: 8 116 28 28 (727552)
I0720 18:16:35.316408 32827 net.cpp:228] Memory required for data: 910765312
I0720 18:16:35.316413 32827 layer_factory.hpp:76] Creating layer conv2_1
I0720 18:16:35.316423 32827 net.cpp:144] Creating Layer conv2_1
I0720 18:16:35.316428 32827 net.cpp:488] conv2_1 <- conv2_1/concat
I0720 18:16:35.316437 32827 net.cpp:177] This layer is inheriting previous layer's sync mode: 1
I0720 18:16:35.316443 32827 net.cpp:462] conv2_1 -> conv2_1
I0720 18:16:35.316515 32827 net.cpp:216] Setting up conv2_1
I0720 18:16:35.316524 32827 net.cpp:222] Top shape: 8 116 28 28 (727552)
I0720 18:16:35.316527 32827 net.cpp:228] Memory required for data: 913675520
I0720 18:16:35.316532 32827 layer_factory.hpp:76] Creating layer conv2_1_conv2_1_0_split
I0720 18:16:35.316540 32827 net.cpp:144] Creating Layer conv2_1_conv2_1_0_split
I0720 18:16:35.316546 32827 net.cpp:488] conv2_1_conv2_1_0_split <- conv2_1
I0720 18:16:35.316551 32827 net.cpp:177] This layer is inheriting previous layer's sync mode: 1
I0720 18:16:35.316560 32827 net.cpp:462] conv2_1_conv2_1_0_split -> conv2_1_conv2_1_0_split_0
I0720 18:16:35.316568 32827 net.cpp:462] conv2_1_conv2_1_0_split -> conv2_1_conv2_1_0_split_1
I0720 18:16:35.316617 32827 net.cpp:216] Setting up conv2_1_conv2_1_0_split
I0720 18:16:35.316625 32827 net.cpp:222] Top shape: 8 116 28 28 (727552)
I0720 18:16:35.316632 32827 net.cpp:222] Top shape: 8 116 28 28 (727552)
I0720 18:16:35.316635 32827 net.cpp:228] Memory required for data: 919495936
I0720 18:16:35.316640 32827 layer_factory.hpp:76] Creating layer conv2_1/SE_global_pool
I0720 18:16:35.316651 32827 net.cpp:144] Creating Layer conv2_1/SE_global_pool
I0720 18:16:35.316658 32827 net.cpp:488] conv2_1/SE_global_pool <- conv2_1_conv2_1_0_split_0
I0720 18:16:35.316663 32827 net.cpp:177] This layer is inheriting previous layer's sync mode: 1
I0720 18:16:35.316669 32827 net.cpp:462] conv2_1/SE_global_pool -> conv2_1/SE_global_pool
I0720 18:16:35.316706 32827 net.cpp:216] Setting up conv2_1/SE_global_pool
I0720 18:16:35.316715 32827 net.cpp:222] Top shape: 8 116 1 1 (928)
I0720 18:16:35.316720 32827 net.cpp:228] Memory required for data: 919499648
I0720 18:16:35.316725 32827 layer_factory.hpp:76] Creating layer conv2_1/SE_fc1
I0720 18:16:35.316742 32827 net.cpp:144] Creating Layer conv2_1/SE_fc1
I0720 18:16:35.316748 32827 net.cpp:488] conv2_1/SE_fc1 <- conv2_1/SE_global_pool
I0720 18:16:35.316753 32827 net.cpp:177] This layer is inheriting previous layer's sync mode: 1
I0720 18:16:35.316763 32827 net.cpp:462] conv2_1/SE_fc1 -> conv2_1/SE_fc1
I0720 18:16:35.317070 32827 net.cpp:216] Setting up conv2_1/SE_fc1
I0720 18:16:35.317080 32827 net.cpp:222] Top shape: 8 29 1 1 (232)
I0720 18:16:35.317085 32827 net.cpp:228] Memory required for data: 919500576
I0720 18:16:35.317092 32827 layer_factory.hpp:76] Creating layer conv2_1/SE_fc1/relu
I0720 18:16:35.317101 32827 net.cpp:144] Creating Layer conv2_1/SE_fc1/relu
I0720 18:16:35.317106 32827 net.cpp:488] conv2_1/SE_fc1/relu <- conv2_1/SE_fc1
I0720 18:16:35.317112 32827 net.cpp:177] This layer is inheriting previous layer's sync mode: 1
I0720 18:16:35.317118 32827 net.cpp:451] conv2_1/SE_fc1/relu -> conv2_1/SE_fc1 (in-place)
I0720 18:16:35.317127 32827 net.cpp:216] Setting up conv2_1/SE_fc1/relu
I0720 18:16:35.317134 32827 net.cpp:222] Top shape: 8 29 1 1 (232)
I0720 18:16:35.317138 32827 net.cpp:228] Memory required for data: 919501504
I0720 18:16:35.317143 32827 layer_factory.hpp:76] Creating layer conv2_1/SE_fc2
I0720 18:16:35.317157 32827 net.cpp:144] Creating Layer conv2_1/SE_fc2
I0720 18:16:35.317162 32827 net.cpp:488] conv2_1/SE_fc2 <- conv2_1/SE_fc1
I0720 18:16:35.317168 32827 net.cpp:177] This layer is inheriting previous layer's sync mode: 1
I0720 18:16:35.317174 32827 net.cpp:462] conv2_1/SE_fc2 -> conv2_1/SE_fc2
I0720 18:16:35.317492 32827 net.cpp:216] Setting up conv2_1/SE_fc2
I0720 18:16:35.317502 32827 net.cpp:222] Top shape: 8 116 1 1 (928)
I0720 18:16:35.317505 32827 net.cpp:228] Memory required for data: 919505216
I0720 18:16:35.317513 32827 layer_factory.hpp:76] Creating layer conv2_1/SE_weights
I0720 18:16:35.317523 32827 net.cpp:144] Creating Layer conv2_1/SE_weights
I0720 18:16:35.317528 32827 net.cpp:488] conv2_1/SE_weights <- conv2_1/SE_fc2
I0720 18:16:35.317533 32827 net.cpp:177] This layer is inheriting previous layer's sync mode: 1
I0720 18:16:35.317539 32827 net.cpp:451] conv2_1/SE_weights -> conv2_1/SE_fc2 (in-place)
I0720 18:16:35.317548 32827 net.cpp:216] Setting up conv2_1/SE_weights
I0720 18:16:35.317555 32827 net.cpp:222] Top shape: 8 116 1 1 (928)
I0720 18:16:35.317560 32827 net.cpp:228] Memory required for data: 919508928
I0720 18:16:35.317564 32827 layer_factory.hpp:76] Creating layer conv2_1/SE_weights/reshape
I0720 18:16:35.317574 32827 net.cpp:144] Creating Layer conv2_1/SE_weights/reshape
I0720 18:16:35.317579 32827 net.cpp:488] conv2_1/SE_weights/reshape <- conv2_1/SE_fc2
I0720 18:16:35.317587 32827 net.cpp:177] This layer is inheriting previous layer's sync mode: 1
I0720 18:16:35.317595 32827 net.cpp:462] conv2_1/SE_weights/reshape -> conv2_1/SE_weights/reshape
I0720 18:16:35.317631 32827 net.cpp:216] Setting up conv2_1/SE_weights/reshape
I0720 18:16:35.317639 32827 net.cpp:222] Top shape: 8 116 (928)
I0720 18:16:35.317644 32827 net.cpp:228] Memory required for data: 919512640
I0720 18:16:35.317648 32827 layer_factory.hpp:76] Creating layer conv2_1/scale
I0720 18:16:35.317661 32827 net.cpp:144] Creating Layer conv2_1/scale
I0720 18:16:35.317667 32827 net.cpp:488] conv2_1/scale <- conv2_1_conv2_1_0_split_1
I0720 18:16:35.317672 32827 net.cpp:488] conv2_1/scale <- conv2_1/SE_weights/reshape
I0720 18:16:35.317678 32827 net.cpp:177] This layer is inheriting previous layer's sync mode: 1
I0720 18:16:35.317684 32827 net.cpp:462] conv2_1/scale -> conv2_1/scale
I0720 18:16:35.317809 32827 net.cpp:216] Setting up conv2_1/scale
I0720 18:16:35.317819 32827 net.cpp:222] Top shape: 8 116 28 28 (727552)
I0720 18:16:35.317824 32827 net.cpp:228] Memory required for data: 922422848
I0720 18:16:35.317829 32827 layer_factory.hpp:76] Creating layer conv2_2/slice
I0720 18:16:35.317847 32827 net.cpp:144] Creating Layer conv2_2/slice
I0720 18:16:35.317852 32827 net.cpp:488] conv2_2/slice <- conv2_1/scale
I0720 18:16:35.317859 32827 net.cpp:177] This layer is inheriting previous layer's sync mode: 1
I0720 18:16:35.317868 32827 net.cpp:462] conv2_2/slice -> conv2_2/split1
I0720 18:16:35.317878 32827 net.cpp:462] conv2_2/slice -> conv2_2/split2
I0720 18:16:35.317931 32827 net.cpp:216] Setting up conv2_2/slice
I0720 18:16:35.317940 32827 net.cpp:222] Top shape: 8 58 28 28 (363776)
I0720 18:16:35.317947 32827 net.cpp:222] Top shape: 8 58 28 28 (363776)
I0720 18:16:35.317951 32827 net.cpp:228] Memory required for data: 925333056
I0720 18:16:35.317956 32827 layer_factory.hpp:76] Creating layer conv2_2/conv1
I0720 18:16:35.317971 32827 net.cpp:144] Creating Layer conv2_2/conv1
I0720 18:16:35.317977 32827 net.cpp:488] conv2_2/conv1 <- conv2_2/split2
I0720 18:16:35.317983 32827 net.cpp:177] This layer is inheriting previous layer's sync mode: 1
I0720 18:16:35.317992 32827 net.cpp:462] conv2_2/conv1 -> conv2_2/conv1
I0720 18:16:35.318336 32827 net.cpp:216] Setting up conv2_2/conv1
I0720 18:16:35.318347 32827 net.cpp:222] Top shape: 8 58 28 28 (363776)
I0720 18:16:35.318351 32827 net.cpp:228] Memory required for data: 926788160
I0720 18:16:35.318358 32827 layer_factory.hpp:76] Creating layer conv2_2/conv1/bn
I0720 18:16:35.318372 32827 net.cpp:144] Creating Layer conv2_2/conv1/bn
I0720 18:16:35.318377 32827 net.cpp:488] conv2_2/conv1/bn <- conv2_2/conv1
I0720 18:16:35.318383 32827 net.cpp:177] This layer is inheriting previous layer's sync mode: 1
I0720 18:16:35.318392 32827 net.cpp:462] conv2_2/conv1/bn -> conv2_2/conv1/bn
I0720 18:16:35.318526 32827 cudnn_batch_norm_layer.cpp:84] Using CuDNN BN engine.
I0720 18:16:35.318598 32827 net.cpp:216] Setting up conv2_2/conv1/bn
I0720 18:16:35.318606 32827 net.cpp:222] Top shape: 8 58 28 28 (363776)
I0720 18:16:35.318611 32827 net.cpp:228] Memory required for data: 928243264
I0720 18:16:35.318624 32827 layer_factory.hpp:76] Creating layer conv2_2/conv1/relu
I0720 18:16:35.318631 32827 net.cpp:144] Creating Layer conv2_2/conv1/relu
I0720 18:16:35.318637 32827 net.cpp:488] conv2_2/conv1/relu <- conv2_2/conv1/bn
I0720 18:16:35.318644 32827 net.cpp:177] This layer is inheriting previous layer's sync mode: 1
I0720 18:16:35.318650 32827 net.cpp:451] conv2_2/conv1/relu -> conv2_2/conv1/bn (in-place)
I0720 18:16:35.318658 32827 net.cpp:216] Setting up conv2_2/conv1/relu
I0720 18:16:35.318665 32827 net.cpp:222] Top shape: 8 58 28 28 (363776)
I0720 18:16:35.318670 32827 net.cpp:228] Memory required for data: 929698368
I0720 18:16:35.318675 32827 layer_factory.hpp:76] Creating layer conv2_2/dwconv2
I0720 18:16:35.318686 32827 net.cpp:144] Creating Layer conv2_2/dwconv2
I0720 18:16:35.318696 32827 net.cpp:488] conv2_2/dwconv2 <- conv2_2/conv1/bn
I0720 18:16:35.318702 32827 net.cpp:177] This layer is inheriting previous layer's sync mode: 1
I0720 18:16:35.318709 32827 net.cpp:462] conv2_2/dwconv2 -> conv2_2/dwconv2
I0720 18:16:35.318931 32827 net.cpp:216] Setting up conv2_2/dwconv2
I0720 18:16:35.318941 32827 net.cpp:222] Top shape: 8 58 28 28 (363776)
I0720 18:16:35.318945 32827 net.cpp:228] Memory required for data: 931153472
I0720 18:16:35.318953 32827 layer_factory.hpp:76] Creating layer conv2_2/dwconv2/bn
I0720 18:16:35.318965 32827 net.cpp:144] Creating Layer conv2_2/dwconv2/bn
I0720 18:16:35.318971 32827 net.cpp:488] conv2_2/dwconv2/bn <- conv2_2/dwconv2
I0720 18:16:35.318976 32827 net.cpp:177] This layer is inheriting previous layer's sync mode: 1
I0720 18:16:35.318984 32827 net.cpp:462] conv2_2/dwconv2/bn -> conv2_2/dwconv2/bn
I0720 18:16:35.319114 32827 cudnn_batch_norm_layer.cpp:84] Using CuDNN BN engine.
I0720 18:16:35.319205 32827 net.cpp:216] Setting up conv2_2/dwconv2/bn
I0720 18:16:35.319212 32827 net.cpp:222] Top shape: 8 58 28 28 (363776)
I0720 18:16:35.319217 32827 net.cpp:228] Memory required for data: 932608576
I0720 18:16:35.319229 32827 layer_factory.hpp:76] Creating layer conv2_2/conv3
I0720 18:16:35.319244 32827 net.cpp:144] Creating Layer conv2_2/conv3
I0720 18:16:35.319250 32827 net.cpp:488] conv2_2/conv3 <- conv2_2/dwconv2/bn
I0720 18:16:35.319257 32827 net.cpp:177] This layer is inheriting previous layer's sync mode: 1
I0720 18:16:35.319263 32827 net.cpp:462] conv2_2/conv3 -> conv2_2/conv3
I0720 18:16:35.319602 32827 net.cpp:216] Setting up conv2_2/conv3
I0720 18:16:35.319612 32827 net.cpp:222] Top shape: 8 58 28 28 (363776)
I0720 18:16:35.319617 32827 net.cpp:228] Memory required for data: 934063680
I0720 18:16:35.319624 32827 layer_factory.hpp:76] Creating layer conv2_2/conv3/bn
I0720 18:16:35.319638 32827 net.cpp:144] Creating Layer conv2_2/conv3/bn
I0720 18:16:35.319643 32827 net.cpp:488] conv2_2/conv3/bn <- conv2_2/conv3
I0720 18:16:35.319648 32827 net.cpp:177] This layer is inheriting previous layer's sync mode: 1
I0720 18:16:35.319656 32827 net.cpp:462] conv2_2/conv3/bn -> conv2_2/conv3/bn
I0720 18:16:35.319792 32827 cudnn_batch_norm_layer.cpp:84] Using CuDNN BN engine.
I0720 18:16:35.319869 32827 net.cpp:216] Setting up conv2_2/conv3/bn
I0720 18:16:35.319877 32827 net.cpp:222] Top shape: 8 58 28 28 (363776)
I0720 18:16:35.319882 32827 net.cpp:228] Memory required for data: 935518784
I0720 18:16:35.319906 32827 layer_factory.hpp:76] Creating layer conv2_2/conv3/relu
I0720 18:16:35.319916 32827 net.cpp:144] Creating Layer conv2_2/conv3/relu
I0720 18:16:35.319921 32827 net.cpp:488] conv2_2/conv3/relu <- conv2_2/conv3/bn
I0720 18:16:35.319928 32827 net.cpp:177] This layer is inheriting previous layer's sync mode: 1
I0720 18:16:35.319934 32827 net.cpp:451] conv2_2/conv3/relu -> conv2_2/conv3/bn (in-place)
I0720 18:16:35.319944 32827 net.cpp:216] Setting up conv2_2/conv3/relu
I0720 18:16:35.319952 32827 net.cpp:222] Top shape: 8 58 28 28 (363776)
I0720 18:16:35.319955 32827 net.cpp:228] Memory required for data: 936973888
I0720 18:16:35.319960 32827 layer_factory.hpp:76] Creating layer conv2_2/concat
I0720 18:16:35.319970 32827 net.cpp:144] Creating Layer conv2_2/concat
I0720 18:16:35.319975 32827 net.cpp:488] conv2_2/concat <- conv2_2/split1
I0720 18:16:35.319981 32827 net.cpp:488] conv2_2/concat <- conv2_2/conv3/bn
I0720 18:16:35.319986 32827 net.cpp:177] This layer is inheriting previous layer's sync mode: 1
I0720 18:16:35.319993 32827 net.cpp:462] conv2_2/concat -> conv2_2/concat
I0720 18:16:35.320024 32827 net.cpp:216] Setting up conv2_2/concat
I0720 18:16:35.320035 32827 net.cpp:222] Top shape: 8 116 28 28 (727552)
I0720 18:16:35.320040 32827 net.cpp:228] Memory required for data: 939884096
I0720 18:16:35.320045 32827 layer_factory.hpp:76] Creating layer conv2_2
I0720 18:16:35.320061 32827 net.cpp:144] Creating Layer conv2_2
I0720 18:16:35.320066 32827 net.cpp:488] conv2_2 <- conv2_2/concat
I0720 18:16:35.320072 32827 net.cpp:177] This layer is inheriting previous layer's sync mode: 1
I0720 18:16:35.320078 32827 net.cpp:462] conv2_2 -> conv2_2
I0720 18:16:35.320144 32827 net.cpp:216] Setting up conv2_2
I0720 18:16:35.320168 32827 net.cpp:222] Top shape: 8 116 28 28 (727552)
I0720 18:16:35.320173 32827 net.cpp:228] Memory required for data: 942794304
I0720 18:16:35.320179 32827 layer_factory.hpp:76] Creating layer conv2_2_conv2_2_0_split
I0720 18:16:35.320216 32827 net.cpp:144] Creating Layer conv2_2_conv2_2_0_split
I0720 18:16:35.320222 32827 net.cpp:488] conv2_2_conv2_2_0_split <- conv2_2
I0720 18:16:35.320227 32827 net.cpp:177] This layer is inheriting previous layer's sync mode: 1
I0720 18:16:35.320246 32827 net.cpp:462] conv2_2_conv2_2_0_split -> conv2_2_conv2_2_0_split_0
I0720 18:16:35.320255 32827 net.cpp:462] conv2_2_conv2_2_0_split -> conv2_2_conv2_2_0_split_1
I0720 18:16:35.320307 32827 net.cpp:216] Setting up conv2_2_conv2_2_0_split
I0720 18:16:35.320317 32827 net.cpp:222] Top shape: 8 116 28 28 (727552)
I0720 18:16:35.320322 32827 net.cpp:222] Top shape: 8 116 28 28 (727552)
I0720 18:16:35.320327 32827 net.cpp:228] Memory required for data: 948614720
I0720 18:16:35.320333 32827 layer_factory.hpp:76] Creating layer conv2_2/SE_global_pool
I0720 18:16:35.320341 32827 net.cpp:144] Creating Layer conv2_2/SE_global_pool
I0720 18:16:35.320346 32827 net.cpp:488] conv2_2/SE_global_pool <- conv2_2_conv2_2_0_split_0
I0720 18:16:35.320353 32827 net.cpp:177] This layer is inheriting previous layer's sync mode: 1
I0720 18:16:35.320361 32827 net.cpp:462] conv2_2/SE_global_pool -> conv2_2/SE_global_pool
I0720 18:16:35.320397 32827 net.cpp:216] Setting up conv2_2/SE_global_pool
I0720 18:16:35.320411 32827 net.cpp:222] Top shape: 8 116 1 1 (928)
I0720 18:16:35.320416 32827 net.cpp:228] Memory required for data: 948618432
I0720 18:16:35.320421 32827 layer_factory.hpp:76] Creating layer conv2_2/SE_fc1
I0720 18:16:35.320436 32827 net.cpp:144] Creating Layer conv2_2/SE_fc1
I0720 18:16:35.320442 32827 net.cpp:488] conv2_2/SE_fc1 <- conv2_2/SE_global_pool
I0720 18:16:35.320448 32827 net.cpp:177] This layer is inheriting previous layer's sync mode: 1
I0720 18:16:35.320456 32827 net.cpp:462] conv2_2/SE_fc1 -> conv2_2/SE_fc1
I0720 18:16:35.322446 32827 net.cpp:216] Setting up conv2_2/SE_fc1
I0720 18:16:35.322459 32827 net.cpp:222] Top shape: 8 29 1 1 (232)
I0720 18:16:35.322464 32827 net.cpp:228] Memory required for data: 948619360
I0720 18:16:35.322473 32827 layer_factory.hpp:76] Creating layer conv2_2/SE_fc1/relu
I0720 18:16:35.322484 32827 net.cpp:144] Creating Layer conv2_2/SE_fc1/relu
I0720 18:16:35.322490 32827 net.cpp:488] conv2_2/SE_fc1/relu <- conv2_2/SE_fc1
I0720 18:16:35.322497 32827 net.cpp:177] This layer is inheriting previous layer's sync mode: 1
I0720 18:16:35.322504 32827 net.cpp:451] conv2_2/SE_fc1/relu -> conv2_2/SE_fc1 (in-place)
I0720 18:16:35.322513 32827 net.cpp:216] Setting up conv2_2/SE_fc1/relu
I0720 18:16:35.322520 32827 net.cpp:222] Top shape: 8 29 1 1 (232)
I0720 18:16:35.322525 32827 net.cpp:228] Memory required for data: 948620288
I0720 18:16:35.322530 32827 layer_factory.hpp:76] Creating layer conv2_2/SE_fc2
I0720 18:16:35.322546 32827 net.cpp:144] Creating Layer conv2_2/SE_fc2
I0720 18:16:35.322551 32827 net.cpp:488] conv2_2/SE_fc2 <- conv2_2/SE_fc1
I0720 18:16:35.322557 32827 net.cpp:177] This layer is inheriting previous layer's sync mode: 1
I0720 18:16:35.322566 32827 net.cpp:462] conv2_2/SE_fc2 -> conv2_2/SE_fc2
I0720 18:16:35.322930 32827 net.cpp:216] Setting up conv2_2/SE_fc2
I0720 18:16:35.322942 32827 net.cpp:222] Top shape: 8 116 1 1 (928)
I0720 18:16:35.322947 32827 net.cpp:228] Memory required for data: 948624000
I0720 18:16:35.322954 32827 layer_factory.hpp:76] Creating layer conv2_2/SE_weights
I0720 18:16:35.322963 32827 net.cpp:144] Creating Layer conv2_2/SE_weights
I0720 18:16:35.322969 32827 net.cpp:488] conv2_2/SE_weights <- conv2_2/SE_fc2
I0720 18:16:35.322975 32827 net.cpp:177] This layer is inheriting previous layer's sync mode: 1
I0720 18:16:35.322984 32827 net.cpp:451] conv2_2/SE_weights -> conv2_2/SE_fc2 (in-place)
I0720 18:16:35.322995 32827 net.cpp:216] Setting up conv2_2/SE_weights
I0720 18:16:35.323002 32827 net.cpp:222] Top shape: 8 116 1 1 (928)
I0720 18:16:35.323007 32827 net.cpp:228] Memory required for data: 948627712
I0720 18:16:35.323012 32827 layer_factory.hpp:76] Creating layer conv2_2/SE_weights/reshape
I0720 18:16:35.323022 32827 net.cpp:144] Creating Layer conv2_2/SE_weights/reshape
I0720 18:16:35.323029 32827 net.cpp:488] conv2_2/SE_weights/reshape <- conv2_2/SE_fc2
I0720 18:16:35.323034 32827 net.cpp:177] This layer is inheriting previous layer's sync mode: 1
I0720 18:16:35.323040 32827 net.cpp:462] conv2_2/SE_weights/reshape -> conv2_2/SE_weights/reshape
I0720 18:16:35.323079 32827 net.cpp:216] Setting up conv2_2/SE_weights/reshape
I0720 18:16:35.323088 32827 net.cpp:222] Top shape: 8 116 (928)
I0720 18:16:35.323093 32827 net.cpp:228] Memory required for data: 948631424
I0720 18:16:35.323098 32827 layer_factory.hpp:76] Creating layer conv2_2/scale
I0720 18:16:35.323110 32827 net.cpp:144] Creating Layer conv2_2/scale
I0720 18:16:35.323117 32827 net.cpp:488] conv2_2/scale <- conv2_2_conv2_2_0_split_1
I0720 18:16:35.323123 32827 net.cpp:488] conv2_2/scale <- conv2_2/SE_weights/reshape
I0720 18:16:35.323129 32827 net.cpp:177] This layer is inheriting previous layer's sync mode: 1
I0720 18:16:35.323135 32827 net.cpp:462] conv2_2/scale -> conv2_2/scale
I0720 18:16:35.323230 32827 net.cpp:216] Setting up conv2_2/scale
I0720 18:16:35.323242 32827 net.cpp:222] Top shape: 8 116 28 28 (727552)
I0720 18:16:35.323247 32827 net.cpp:228] Memory required for data: 951541632
I0720 18:16:35.323253 32827 layer_factory.hpp:76] Creating layer conv2_3/slice
I0720 18:16:35.323263 32827 net.cpp:144] Creating Layer conv2_3/slice
I0720 18:16:35.323269 32827 net.cpp:488] conv2_3/slice <- conv2_2/scale
I0720 18:16:35.323276 32827 net.cpp:177] This layer is inheriting previous layer's sync mode: 1
I0720 18:16:35.323285 32827 net.cpp:462] conv2_3/slice -> conv2_3/split1
I0720 18:16:35.323297 32827 net.cpp:462] conv2_3/slice -> conv2_3/split2
I0720 18:16:35.323352 32827 net.cpp:216] Setting up conv2_3/slice
I0720 18:16:35.323361 32827 net.cpp:222] Top shape: 8 58 28 28 (363776)
I0720 18:16:35.323369 32827 net.cpp:222] Top shape: 8 58 28 28 (363776)
I0720 18:16:35.323374 32827 net.cpp:228] Memory required for data: 954451840
I0720 18:16:35.323379 32827 layer_factory.hpp:76] Creating layer conv2_3/conv1
I0720 18:16:35.323390 32827 net.cpp:144] Creating Layer conv2_3/conv1
I0720 18:16:35.323396 32827 net.cpp:488] conv2_3/conv1 <- conv2_3/split2
I0720 18:16:35.323402 32827 net.cpp:177] This layer is inheriting previous layer's sync mode: 1
I0720 18:16:35.323421 32827 net.cpp:462] conv2_3/conv1 -> conv2_3/conv1
I0720 18:16:35.323807 32827 net.cpp:216] Setting up conv2_3/conv1
I0720 18:16:35.323817 32827 net.cpp:222] Top shape: 8 58 28 28 (363776)
I0720 18:16:35.323822 32827 net.cpp:228] Memory required for data: 955906944
I0720 18:16:35.323829 32827 layer_factory.hpp:76] Creating layer conv2_3/conv1/bn
I0720 18:16:35.323859 32827 net.cpp:144] Creating Layer conv2_3/conv1/bn
I0720 18:16:35.323865 32827 net.cpp:488] conv2_3/conv1/bn <- conv2_3/conv1
I0720 18:16:35.323871 32827 net.cpp:177] This layer is inheriting previous layer's sync mode: 1
I0720 18:16:35.323880 32827 net.cpp:462] conv2_3/conv1/bn -> conv2_3/conv1/bn
I0720 18:16:35.324036 32827 cudnn_batch_norm_layer.cpp:84] Using CuDNN BN engine.
I0720 18:16:35.331073 32827 net.cpp:216] Setting up conv2_3/conv1/bn
I0720 18:16:35.331115 32827 net.cpp:222] Top shape: 8 58 28 28 (363776)
I0720 18:16:35.331130 32827 net.cpp:228] Memory required for data: 957362048
I0720 18:16:35.331167 32827 layer_factory.hpp:76] Creating layer conv2_3/conv1/relu
I0720 18:16:35.331197 32827 net.cpp:144] Creating Layer conv2_3/conv1/relu
I0720 18:16:35.331216 32827 net.cpp:488] conv2_3/conv1/relu <- conv2_3/conv1/bn
I0720 18:16:35.331233 32827 net.cpp:177] This layer is inheriting previous layer's sync mode: 1
I0720 18:16:35.331250 32827 net.cpp:451] conv2_3/conv1/relu -> conv2_3/conv1/bn (in-place)
I0720 18:16:35.331277 32827 net.cpp:216] Setting up conv2_3/conv1/relu
I0720 18:16:35.331295 32827 net.cpp:222] Top shape: 8 58 28 28 (363776)
I0720 18:16:35.331306 32827 net.cpp:228] Memory required for data: 958817152
I0720 18:16:35.331318 32827 layer_factory.hpp:76] Creating layer conv2_3/dwconv2
I0720 18:16:35.331347 32827 net.cpp:144] Creating Layer conv2_3/dwconv2
I0720 18:16:35.331362 32827 net.cpp:488] conv2_3/dwconv2 <- conv2_3/conv1/bn
I0720 18:16:35.331377 32827 net.cpp:177] This layer is inheriting previous layer's sync mode: 1
I0720 18:16:35.331394 32827 net.cpp:462] conv2_3/dwconv2 -> conv2_3/dwconv2
I0720 18:16:35.331851 32827 net.cpp:216] Setting up conv2_3/dwconv2
I0720 18:16:35.331864 32827 net.cpp:222] Top shape: 8 58 28 28 (363776)
I0720 18:16:35.331867 32827 net.cpp:228] Memory required for data: 960272256
I0720 18:16:35.331873 32827 layer_factory.hpp:76] Creating layer conv2_3/dwconv2/bn
I0720 18:16:35.331884 32827 net.cpp:144] Creating Layer conv2_3/dwconv2/bn
I0720 18:16:35.331889 32827 net.cpp:488] conv2_3/dwconv2/bn <- conv2_3/dwconv2
I0720 18:16:35.331893 32827 net.cpp:177] This layer is inheriting previous layer's sync mode: 1
I0720 18:16:35.331898 32827 net.cpp:462] conv2_3/dwconv2/bn -> conv2_3/dwconv2/bn
I0720 18:16:35.332048 32827 cudnn_batch_norm_layer.cpp:84] Using CuDNN BN engine.
I0720 18:16:35.332115 32827 net.cpp:216] Setting up conv2_3/dwconv2/bn
I0720 18:16:35.332123 32827 net.cpp:222] Top shape: 8 58 28 28 (363776)
I0720 18:16:35.332125 32827 net.cpp:228] Memory required for data: 961727360
I0720 18:16:35.332134 32827 layer_factory.hpp:76] Creating layer conv2_3/conv3
I0720 18:16:35.332145 32827 net.cpp:144] Creating Layer conv2_3/conv3
I0720 18:16:35.332149 32827 net.cpp:488] conv2_3/conv3 <- conv2_3/dwconv2/bn
I0720 18:16:35.332154 32827 net.cpp:177] This layer is inheriting previous layer's sync mode: 1
I0720 18:16:35.332159 32827 net.cpp:462] conv2_3/conv3 -> conv2_3/conv3
I0720 18:16:35.332562 32827 net.cpp:216] Setting up conv2_3/conv3
I0720 18:16:35.332576 32827 net.cpp:222] Top shape: 8 58 28 28 (363776)
I0720 18:16:35.332579 32827 net.cpp:228] Memory required for data: 963182464
I0720 18:16:35.332585 32827 layer_factory.hpp:76] Creating layer conv2_3/conv3/bn
I0720 18:16:35.332593 32827 net.cpp:144] Creating Layer conv2_3/conv3/bn
I0720 18:16:35.332598 32827 net.cpp:488] conv2_3/conv3/bn <- conv2_3/conv3
I0720 18:16:35.332602 32827 net.cpp:177] This layer is inheriting previous layer's sync mode: 1
I0720 18:16:35.332607 32827 net.cpp:462] conv2_3/conv3/bn -> conv2_3/conv3/bn
I0720 18:16:35.332775 32827 cudnn_batch_norm_layer.cpp:84] Using CuDNN BN engine.
I0720 18:16:35.332844 32827 net.cpp:216] Setting up conv2_3/conv3/bn
I0720 18:16:35.332850 32827 net.cpp:222] Top shape: 8 58 28 28 (363776)
I0720 18:16:35.332854 32827 net.cpp:228] Memory required for data: 964637568
I0720 18:16:35.332861 32827 layer_factory.hpp:76] Creating layer conv2_3/conv3/relu
I0720 18:16:35.332871 32827 net.cpp:144] Creating Layer conv2_3/conv3/relu
I0720 18:16:35.332875 32827 net.cpp:488] conv2_3/conv3/relu <- conv2_3/conv3/bn
I0720 18:16:35.332880 32827 net.cpp:177] This layer is inheriting previous layer's sync mode: 1
I0720 18:16:35.332885 32827 net.cpp:451] conv2_3/conv3/relu -> conv2_3/conv3/bn (in-place)
I0720 18:16:35.332892 32827 net.cpp:216] Setting up conv2_3/conv3/relu
I0720 18:16:35.332896 32827 net.cpp:222] Top shape: 8 58 28 28 (363776)
I0720 18:16:35.332900 32827 net.cpp:228] Memory required for data: 966092672
I0720 18:16:35.332902 32827 layer_factory.hpp:76] Creating layer conv2_3/concat
I0720 18:16:35.332908 32827 net.cpp:144] Creating Layer conv2_3/concat
I0720 18:16:35.332912 32827 net.cpp:488] conv2_3/concat <- conv2_3/split1
I0720 18:16:35.332916 32827 net.cpp:488] conv2_3/concat <- conv2_3/conv3/bn
I0720 18:16:35.332921 32827 net.cpp:177] This layer is inheriting previous layer's sync mode: 1
I0720 18:16:35.332924 32827 net.cpp:462] conv2_3/concat -> conv2_3/concat
I0720 18:16:35.332952 32827 net.cpp:216] Setting up conv2_3/concat
I0720 18:16:35.332958 32827 net.cpp:222] Top shape: 8 116 28 28 (727552)
I0720 18:16:35.332960 32827 net.cpp:228] Memory required for data: 969002880
I0720 18:16:35.332964 32827 layer_factory.hpp:76] Creating layer conv2_3
I0720 18:16:35.332973 32827 net.cpp:144] Creating Layer conv2_3
I0720 18:16:35.332976 32827 net.cpp:488] conv2_3 <- conv2_3/concat
I0720 18:16:35.332980 32827 net.cpp:177] This layer is inheriting previous layer's sync mode: 1
I0720 18:16:35.332984 32827 net.cpp:462] conv2_3 -> conv2_3
I0720 18:16:35.333048 32827 net.cpp:216] Setting up conv2_3
I0720 18:16:35.333055 32827 net.cpp:222] Top shape: 8 116 28 28 (727552)
I0720 18:16:35.333057 32827 net.cpp:228] Memory required for data: 971913088
I0720 18:16:35.333060 32827 layer_factory.hpp:76] Creating layer conv2_3_conv2_3_0_split
I0720 18:16:35.333067 32827 net.cpp:144] Creating Layer conv2_3_conv2_3_0_split
I0720 18:16:35.333070 32827 net.cpp:488] conv2_3_conv2_3_0_split <- conv2_3
I0720 18:16:35.333075 32827 net.cpp:177] This layer is inheriting previous layer's sync mode: 1
I0720 18:16:35.333081 32827 net.cpp:462] conv2_3_conv2_3_0_split -> conv2_3_conv2_3_0_split_0
I0720 18:16:35.333086 32827 net.cpp:462] conv2_3_conv2_3_0_split -> conv2_3_conv2_3_0_split_1
I0720 18:16:35.333124 32827 net.cpp:216] Setting up conv2_3_conv2_3_0_split
I0720 18:16:35.333130 32827 net.cpp:222] Top shape: 8 116 28 28 (727552)
I0720 18:16:35.333134 32827 net.cpp:222] Top shape: 8 116 28 28 (727552)
I0720 18:16:35.333137 32827 net.cpp:228] Memory required for data: 977733504
I0720 18:16:35.333140 32827 layer_factory.hpp:76] Creating layer conv2_3/SE_global_pool
I0720 18:16:35.333148 32827 net.cpp:144] Creating Layer conv2_3/SE_global_pool
I0720 18:16:35.333150 32827 net.cpp:488] conv2_3/SE_global_pool <- conv2_3_conv2_3_0_split_0
I0720 18:16:35.333155 32827 net.cpp:177] This layer is inheriting previous layer's sync mode: 1
I0720 18:16:35.333163 32827 net.cpp:462] conv2_3/SE_global_pool -> conv2_3/SE_global_pool
I0720 18:16:35.333202 32827 net.cpp:216] Setting up conv2_3/SE_global_pool
I0720 18:16:35.333214 32827 net.cpp:222] Top shape: 8 116 1 1 (928)
I0720 18:16:35.333220 32827 net.cpp:228] Memory required for data: 977737216
I0720 18:16:35.333225 32827 layer_factory.hpp:76] Creating layer conv2_3/SE_fc1
I0720 18:16:35.333240 32827 net.cpp:144] Creating Layer conv2_3/SE_fc1
I0720 18:16:35.333245 32827 net.cpp:488] conv2_3/SE_fc1 <- conv2_3/SE_global_pool
I0720 18:16:35.333251 32827 net.cpp:177] This layer is inheriting previous layer's sync mode: 1
I0720 18:16:35.333259 32827 net.cpp:462] conv2_3/SE_fc1 -> conv2_3/SE_fc1
I0720 18:16:35.333739 32827 net.cpp:216] Setting up conv2_3/SE_fc1
I0720 18:16:35.333755 32827 net.cpp:222] Top shape: 8 29 1 1 (232)
I0720 18:16:35.333760 32827 net.cpp:228] Memory required for data: 977738144
I0720 18:16:35.333768 32827 layer_factory.hpp:76] Creating layer conv2_3/SE_fc1/relu
I0720 18:16:35.333781 32827 net.cpp:144] Creating Layer conv2_3/SE_fc1/relu
I0720 18:16:35.333788 32827 net.cpp:488] conv2_3/SE_fc1/relu <- conv2_3/SE_fc1
I0720 18:16:35.333796 32827 net.cpp:177] This layer is inheriting previous layer's sync mode: 1
I0720 18:16:35.333801 32827 net.cpp:451] conv2_3/SE_fc1/relu -> conv2_3/SE_fc1 (in-place)
I0720 18:16:35.333812 32827 net.cpp:216] Setting up conv2_3/SE_fc1/relu
I0720 18:16:35.333819 32827 net.cpp:222] Top shape: 8 29 1 1 (232)
I0720 18:16:35.333824 32827 net.cpp:228] Memory required for data: 977739072
I0720 18:16:35.333828 32827 layer_factory.hpp:76] Creating layer conv2_3/SE_fc2
I0720 18:16:35.333842 32827 net.cpp:144] Creating Layer conv2_3/SE_fc2
I0720 18:16:35.333848 32827 net.cpp:488] conv2_3/SE_fc2 <- conv2_3/SE_fc1
I0720 18:16:35.333854 32827 net.cpp:177] This layer is inheriting previous layer's sync mode: 1
I0720 18:16:35.333863 32827 net.cpp:462] conv2_3/SE_fc2 -> conv2_3/SE_fc2
I0720 18:16:35.334337 32827 net.cpp:216] Setting up conv2_3/SE_fc2
I0720 18:16:35.334350 32827 net.cpp:222] Top shape: 8 116 1 1 (928)
I0720 18:16:35.334354 32827 net.cpp:228] Memory required for data: 977742784
I0720 18:16:35.334362 32827 layer_factory.hpp:76] Creating layer conv2_3/SE_weights
I0720 18:16:35.334374 32827 net.cpp:144] Creating Layer conv2_3/SE_weights
I0720 18:16:35.334381 32827 net.cpp:488] conv2_3/SE_weights <- conv2_3/SE_fc2
I0720 18:16:35.334388 32827 net.cpp:177] This layer is inheriting previous layer's sync mode: 1
I0720 18:16:35.334393 32827 net.cpp:451] conv2_3/SE_weights -> conv2_3/SE_fc2 (in-place)
I0720 18:16:35.334403 32827 net.cpp:216] Setting up conv2_3/SE_weights
I0720 18:16:35.334411 32827 net.cpp:222] Top shape: 8 116 1 1 (928)
I0720 18:16:35.334415 32827 net.cpp:228] Memory required for data: 977746496
I0720 18:16:35.334421 32827 layer_factory.hpp:76] Creating layer conv2_3/SE_weights/reshape
I0720 18:16:35.334431 32827 net.cpp:144] Creating Layer conv2_3/SE_weights/reshape
I0720 18:16:35.334436 32827 net.cpp:488] conv2_3/SE_weights/reshape <- conv2_3/SE_fc2
I0720 18:16:35.334442 32827 net.cpp:177] This layer is inheriting previous layer's sync mode: 1
I0720 18:16:35.334450 32827 net.cpp:462] conv2_3/SE_weights/reshape -> conv2_3/SE_weights/reshape
I0720 18:16:35.334491 32827 net.cpp:216] Setting up conv2_3/SE_weights/reshape
I0720 18:16:35.334501 32827 net.cpp:222] Top shape: 8 116 (928)
I0720 18:16:35.334506 32827 net.cpp:228] Memory required for data: 977750208
I0720 18:16:35.334511 32827 layer_factory.hpp:76] Creating layer conv2_3/scale
I0720 18:16:35.334522 32827 net.cpp:144] Creating Layer conv2_3/scale
I0720 18:16:35.334528 32827 net.cpp:488] conv2_3/scale <- conv2_3_conv2_3_0_split_1
I0720 18:16:35.334534 32827 net.cpp:488] conv2_3/scale <- conv2_3/SE_weights/reshape
I0720 18:16:35.334540 32827 net.cpp:177] This layer is inheriting previous layer's sync mode: 1
I0720 18:16:35.334547 32827 net.cpp:462] conv2_3/scale -> conv2_3/scale
I0720 18:16:35.334661 32827 net.cpp:216] Setting up conv2_3/scale
I0720 18:16:35.334671 32827 net.cpp:222] Top shape: 8 116 28 28 (727552)
I0720 18:16:35.334676 32827 net.cpp:228] Memory required for data: 980660416
I0720 18:16:35.334681 32827 layer_factory.hpp:76] Creating layer conv2_4/slice
I0720 18:16:35.334695 32827 net.cpp:144] Creating Layer conv2_4/slice
I0720 18:16:35.334702 32827 net.cpp:488] conv2_4/slice <- conv2_3/scale
I0720 18:16:35.334717 32827 net.cpp:177] This layer is inheriting previous layer's sync mode: 1
I0720 18:16:35.334725 32827 net.cpp:462] conv2_4/slice -> conv2_4/split1
I0720 18:16:35.334735 32827 net.cpp:462] conv2_4/slice -> conv2_4/split2
I0720 18:16:35.334800 32827 net.cpp:216] Setting up conv2_4/slice
I0720 18:16:35.334811 32827 net.cpp:222] Top shape: 8 58 28 28 (363776)
I0720 18:16:35.334818 32827 net.cpp:222] Top shape: 8 58 28 28 (363776)
I0720 18:16:35.334823 32827 net.cpp:228] Memory required for data: 983570624
I0720 18:16:35.334828 32827 layer_factory.hpp:76] Creating layer conv2_4/conv1
I0720 18:16:35.334842 32827 net.cpp:144] Creating Layer conv2_4/conv1
I0720 18:16:35.334849 32827 net.cpp:488] conv2_4/conv1 <- conv2_4/split2
I0720 18:16:35.334856 32827 net.cpp:177] This layer is inheriting previous layer's sync mode: 1
I0720 18:16:35.334864 32827 net.cpp:462] conv2_4/conv1 -> conv2_4/conv1
I0720 18:16:35.335330 32827 net.cpp:216] Setting up conv2_4/conv1
I0720 18:16:35.335343 32827 net.cpp:222] Top shape: 8 58 28 28 (363776)
I0720 18:16:35.335348 32827 net.cpp:228] Memory required for data: 985025728
I0720 18:16:35.335356 32827 layer_factory.hpp:76] Creating layer conv2_4/conv1/bn
I0720 18:16:35.335371 32827 net.cpp:144] Creating Layer conv2_4/conv1/bn
I0720 18:16:35.335376 32827 net.cpp:488] conv2_4/conv1/bn <- conv2_4/conv1
I0720 18:16:35.335382 32827 net.cpp:177] This layer is inheriting previous layer's sync mode: 1
I0720 18:16:35.335389 32827 net.cpp:462] conv2_4/conv1/bn -> conv2_4/conv1/bn
I0720 18:16:35.335572 32827 cudnn_batch_norm_layer.cpp:84] Using CuDNN BN engine.
I0720 18:16:35.335667 32827 net.cpp:216] Setting up conv2_4/conv1/bn
I0720 18:16:35.335678 32827 net.cpp:222] Top shape: 8 58 28 28 (363776)
I0720 18:16:35.335682 32827 net.cpp:228] Memory required for data: 986480832
I0720 18:16:35.335700 32827 layer_factory.hpp:76] Creating layer conv2_4/conv1/relu
I0720 18:16:35.335711 32827 net.cpp:144] Creating Layer conv2_4/conv1/relu
I0720 18:16:35.335717 32827 net.cpp:488] conv2_4/conv1/relu <- conv2_4/conv1/bn
I0720 18:16:35.335724 32827 net.cpp:177] This layer is inheriting previous layer's sync mode: 1
I0720 18:16:35.335731 32827 net.cpp:451] conv2_4/conv1/relu -> conv2_4/conv1/bn (in-place)
I0720 18:16:35.335741 32827 net.cpp:216] Setting up conv2_4/conv1/relu
I0720 18:16:35.335747 32827 net.cpp:222] Top shape: 8 58 28 28 (363776)
I0720 18:16:35.335752 32827 net.cpp:228] Memory required for data: 987935936
I0720 18:16:35.335757 32827 layer_factory.hpp:76] Creating layer conv2_4/dwconv2
I0720 18:16:35.335770 32827 net.cpp:144] Creating Layer conv2_4/dwconv2
I0720 18:16:35.335775 32827 net.cpp:488] conv2_4/dwconv2 <- conv2_4/conv1/bn
I0720 18:16:35.335781 32827 net.cpp:177] This layer is inheriting previous layer's sync mode: 1
I0720 18:16:35.335789 32827 net.cpp:462] conv2_4/dwconv2 -> conv2_4/dwconv2
I0720 18:16:35.336107 32827 net.cpp:216] Setting up conv2_4/dwconv2
I0720 18:16:35.336119 32827 net.cpp:222] Top shape: 8 58 28 28 (363776)
I0720 18:16:35.336124 32827 net.cpp:228] Memory required for data: 989391040
I0720 18:16:35.336132 32827 layer_factory.hpp:76] Creating layer conv2_4/dwconv2/bn
I0720 18:16:35.336144 32827 net.cpp:144] Creating Layer conv2_4/dwconv2/bn
I0720 18:16:35.336151 32827 net.cpp:488] conv2_4/dwconv2/bn <- conv2_4/dwconv2
I0720 18:16:35.336156 32827 net.cpp:177] This layer is inheriting previous layer's sync mode: 1
I0720 18:16:35.336163 32827 net.cpp:462] conv2_4/dwconv2/bn -> conv2_4/dwconv2/bn
I0720 18:16:35.336344 32827 cudnn_batch_norm_layer.cpp:84] Using CuDNN BN engine.
I0720 18:16:35.336447 32827 net.cpp:216] Setting up conv2_4/dwconv2/bn
I0720 18:16:35.336457 32827 net.cpp:222] Top shape: 8 58 28 28 (363776)
I0720 18:16:35.336469 32827 net.cpp:228] Memory required for data: 990846144
I0720 18:16:35.336482 32827 layer_factory.hpp:76] Creating layer conv2_4/conv3
I0720 18:16:35.336495 32827 net.cpp:144] Creating Layer conv2_4/conv3
I0720 18:16:35.336501 32827 net.cpp:488] conv2_4/conv3 <- conv2_4/dwconv2/bn
I0720 18:16:35.336508 32827 net.cpp:177] This layer is inheriting previous layer's sync mode: 1
I0720 18:16:35.336516 32827 net.cpp:462] conv2_4/conv3 -> conv2_4/conv3
I0720 18:16:35.337016 32827 net.cpp:216] Setting up conv2_4/conv3
I0720 18:16:35.337043 32827 net.cpp:222] Top shape: 8 58 28 28 (363776)
I0720 18:16:35.337046 32827 net.cpp:228] Memory required for data: 992301248
I0720 18:16:35.337054 32827 layer_factory.hpp:76] Creating layer conv2_4/conv3/bn
I0720 18:16:35.337074 32827 net.cpp:144] Creating Layer conv2_4/conv3/bn
I0720 18:16:35.337080 32827 net.cpp:488] conv2_4/conv3/bn <- conv2_4/conv3
I0720 18:16:35.337086 32827 net.cpp:177] This layer is inheriting previous layer's sync mode: 1
I0720 18:16:35.337096 32827 net.cpp:462] conv2_4/conv3/bn -> conv2_4/conv3/bn
I0720 18:16:35.337290 32827 cudnn_batch_norm_layer.cpp:84] Using CuDNN BN engine.
I0720 18:16:35.337385 32827 net.cpp:216] Setting up conv2_4/conv3/bn
I0720 18:16:35.337395 32827 net.cpp:222] Top shape: 8 58 28 28 (363776)
I0720 18:16:35.337400 32827 net.cpp:228] Memory required for data: 993756352
I0720 18:16:35.337412 32827 layer_factory.hpp:76] Creating layer conv2_4/conv3/relu
I0720 18:16:35.337424 32827 net.cpp:144] Creating Layer conv2_4/conv3/relu
I0720 18:16:35.337430 32827 net.cpp:488] conv2_4/conv3/relu <- conv2_4/conv3/bn
I0720 18:16:35.337436 32827 net.cpp:177] This layer is inheriting previous layer's sync mode: 1
I0720 18:16:35.337442 32827 net.cpp:451] conv2_4/conv3/relu -> conv2_4/conv3/bn (in-place)
I0720 18:16:35.337452 32827 net.cpp:216] Setting up conv2_4/conv3/relu
I0720 18:16:35.337460 32827 net.cpp:222] Top shape: 8 58 28 28 (363776)
I0720 18:16:35.337465 32827 net.cpp:228] Memory required for data: 995211456
I0720 18:16:35.337469 32827 layer_factory.hpp:76] Creating layer conv2_4/concat
I0720 18:16:35.337477 32827 net.cpp:144] Creating Layer conv2_4/concat
I0720 18:16:35.337483 32827 net.cpp:488] conv2_4/concat <- conv2_4/split1
I0720 18:16:35.337489 32827 net.cpp:488] conv2_4/concat <- conv2_4/conv3/bn
I0720 18:16:35.337496 32827 net.cpp:177] This layer is inheriting previous layer's sync mode: 1
I0720 18:16:35.337502 32827 net.cpp:462] conv2_4/concat -> conv2_4/concat
I0720 18:16:35.337538 32827 net.cpp:216] Setting up conv2_4/concat
I0720 18:16:35.337548 32827 net.cpp:222] Top shape: 8 116 28 28 (727552)
I0720 18:16:35.337553 32827 net.cpp:228] Memory required for data: 998121664
I0720 18:16:35.337558 32827 layer_factory.hpp:76] Creating layer conv2_4
I0720 18:16:35.337566 32827 net.cpp:144] Creating Layer conv2_4
I0720 18:16:35.337572 32827 net.cpp:488] conv2_4 <- conv2_4/concat
I0720 18:16:35.337579 32827 net.cpp:177] This layer is inheriting previous layer's sync mode: 1
I0720 18:16:35.337584 32827 net.cpp:462] conv2_4 -> conv2_4
I0720 18:16:35.337673 32827 net.cpp:216] Setting up conv2_4
I0720 18:16:35.337687 32827 net.cpp:222] Top shape: 8 116 28 28 (727552)
I0720 18:16:35.337697 32827 net.cpp:228] Memory required for data: 1001031872
I0720 18:16:35.337702 32827 layer_factory.hpp:76] Creating layer conv2_4_conv2_4_0_split
I0720 18:16:35.337710 32827 net.cpp:144] Creating Layer conv2_4_conv2_4_0_split
I0720 18:16:35.337715 32827 net.cpp:488] conv2_4_conv2_4_0_split <- conv2_4
I0720 18:16:35.337721 32827 net.cpp:177] This layer is inheriting previous layer's sync mode: 1
I0720 18:16:35.337730 32827 net.cpp:462] conv2_4_conv2_4_0_split -> conv2_4_conv2_4_0_split_0
I0720 18:16:35.337739 32827 net.cpp:462] conv2_4_conv2_4_0_split -> conv2_4_conv2_4_0_split_1
I0720 18:16:35.337795 32827 net.cpp:216] Setting up conv2_4_conv2_4_0_split
I0720 18:16:35.337806 32827 net.cpp:222] Top shape: 8 116 28 28 (727552)
I0720 18:16:35.337812 32827 net.cpp:222] Top shape: 8 116 28 28 (727552)
I0720 18:16:35.337817 32827 net.cpp:228] Memory required for data: 1006852288
I0720 18:16:35.337822 32827 layer_factory.hpp:76] Creating layer conv2_4/SE_global_pool
I0720 18:16:35.337832 32827 net.cpp:144] Creating Layer conv2_4/SE_global_pool
I0720 18:16:35.337837 32827 net.cpp:488] conv2_4/SE_global_pool <- conv2_4_conv2_4_0_split_0
I0720 18:16:35.337843 32827 net.cpp:177] This layer is inheriting previous layer's sync mode: 1
I0720 18:16:35.337852 32827 net.cpp:462] conv2_4/SE_global_pool -> conv2_4/SE_global_pool
I0720 18:16:35.337889 32827 net.cpp:216] Setting up conv2_4/SE_global_pool
I0720 18:16:35.337899 32827 net.cpp:222] Top shape: 8 116 1 1 (928)
I0720 18:16:35.337904 32827 net.cpp:228] Memory required for data: 1006856000
I0720 18:16:35.337909 32827 layer_factory.hpp:76] Creating layer conv2_4/SE_fc1
I0720 18:16:35.337922 32827 net.cpp:144] Creating Layer conv2_4/SE_fc1
I0720 18:16:35.337929 32827 net.cpp:488] conv2_4/SE_fc1 <- conv2_4/SE_global_pool
I0720 18:16:35.337934 32827 net.cpp:177] This layer is inheriting previous layer's sync mode: 1
I0720 18:16:35.337941 32827 net.cpp:462] conv2_4/SE_fc1 -> conv2_4/SE_fc1
I0720 18:16:35.338433 32827 net.cpp:216] Setting up conv2_4/SE_fc1
I0720 18:16:35.338446 32827 net.cpp:222] Top shape: 8 29 1 1 (232)
I0720 18:16:35.338451 32827 net.cpp:228] Memory required for data: 1006856928
I0720 18:16:35.338459 32827 layer_factory.hpp:76] Creating layer conv2_4/SE_fc1/relu
I0720 18:16:35.338471 32827 net.cpp:144] Creating Layer conv2_4/SE_fc1/relu
I0720 18:16:35.338477 32827 net.cpp:488] conv2_4/SE_fc1/relu <- conv2_4/SE_fc1
I0720 18:16:35.338485 32827 net.cpp:177] This layer is inheriting previous layer's sync mode: 1
I0720 18:16:35.338490 32827 net.cpp:451] conv2_4/SE_fc1/relu -> conv2_4/SE_fc1 (in-place)
I0720 18:16:35.338500 32827 net.cpp:216] Setting up conv2_4/SE_fc1/relu
I0720 18:16:35.338507 32827 net.cpp:222] Top shape: 8 29 1 1 (232)
I0720 18:16:35.338511 32827 net.cpp:228] Memory required for data: 1006857856
I0720 18:16:35.338517 32827 layer_factory.hpp:76] Creating layer conv2_4/SE_fc2
I0720 18:16:35.338532 32827 net.cpp:144] Creating Layer conv2_4/SE_fc2
I0720 18:16:35.338538 32827 net.cpp:488] conv2_4/SE_fc2 <- conv2_4/SE_fc1
I0720 18:16:35.338543 32827 net.cpp:177] This layer is inheriting previous layer's sync mode: 1
I0720 18:16:35.338553 32827 net.cpp:462] conv2_4/SE_fc2 -> conv2_4/SE_fc2
I0720 18:16:35.339045 32827 net.cpp:216] Setting up conv2_4/SE_fc2
I0720 18:16:35.339057 32827 net.cpp:222] Top shape: 8 116 1 1 (928)
I0720 18:16:35.339062 32827 net.cpp:228] Memory required for data: 1006861568
I0720 18:16:35.339071 32827 layer_factory.hpp:76] Creating layer conv2_4/SE_weights
I0720 18:16:35.339082 32827 net.cpp:144] Creating Layer conv2_4/SE_weights
I0720 18:16:35.339088 32827 net.cpp:488] conv2_4/SE_weights <- conv2_4/SE_fc2
I0720 18:16:35.339094 32827 net.cpp:177] This layer is inheriting previous layer's sync mode: 1
I0720 18:16:35.339100 32827 net.cpp:451] conv2_4/SE_weights -> conv2_4/SE_fc2 (in-place)
I0720 18:16:35.339109 32827 net.cpp:216] Setting up conv2_4/SE_weights
I0720 18:16:35.339116 32827 net.cpp:222] Top shape: 8 116 1 1 (928)
I0720 18:16:35.339120 32827 net.cpp:228] Memory required for data: 1006865280
I0720 18:16:35.339125 32827 layer_factory.hpp:76] Creating layer conv2_4/SE_weights/reshape
I0720 18:16:35.339136 32827 net.cpp:144] Creating Layer conv2_4/SE_weights/reshape
I0720 18:16:35.339143 32827 net.cpp:488] conv2_4/SE_weights/reshape <- conv2_4/SE_fc2
I0720 18:16:35.339148 32827 net.cpp:177] This layer is inheriting previous layer's sync mode: 1
I0720 18:16:35.339155 32827 net.cpp:462] conv2_4/SE_weights/reshape -> conv2_4/SE_weights/reshape
I0720 18:16:35.339197 32827 net.cpp:216] Setting up conv2_4/SE_weights/reshape
I0720 18:16:35.339207 32827 net.cpp:222] Top shape: 8 116 (928)
I0720 18:16:35.339212 32827 net.cpp:228] Memory required for data: 1006868992
I0720 18:16:35.339217 32827 layer_factory.hpp:76] Creating layer conv2_4/scale
I0720 18:16:35.339229 32827 net.cpp:144] Creating Layer conv2_4/scale
I0720 18:16:35.339236 32827 net.cpp:488] conv2_4/scale <- conv2_4_conv2_4_0_split_1
I0720 18:16:35.339241 32827 net.cpp:488] conv2_4/scale <- conv2_4/SE_weights/reshape
I0720 18:16:35.339247 32827 net.cpp:177] This layer is inheriting previous layer's sync mode: 1
I0720 18:16:35.339253 32827 net.cpp:462] conv2_4/scale -> conv2_4/scale
I0720 18:16:35.339361 32827 net.cpp:216] Setting up conv2_4/scale
I0720 18:16:35.339371 32827 net.cpp:222] Top shape: 8 116 28 28 (727552)
I0720 18:16:35.339376 32827 net.cpp:228] Memory required for data: 1009779200
I0720 18:16:35.339381 32827 layer_factory.hpp:76] Creating layer conv2_4/scale_conv2_4/scale_0_split
I0720 18:16:35.339390 32827 net.cpp:144] Creating Layer conv2_4/scale_conv2_4/scale_0_split
I0720 18:16:35.339395 32827 net.cpp:488] conv2_4/scale_conv2_4/scale_0_split <- conv2_4/scale
I0720 18:16:35.339401 32827 net.cpp:177] This layer is inheriting previous layer's sync mode: 1
I0720 18:16:35.339409 32827 net.cpp:462] conv2_4/scale_conv2_4/scale_0_split -> conv2_4/scale_conv2_4/scale_0_split_0
I0720 18:16:35.339419 32827 net.cpp:462] conv2_4/scale_conv2_4/scale_0_split -> conv2_4/scale_conv2_4/scale_0_split_1
I0720 18:16:35.339428 32827 net.cpp:462] conv2_4/scale_conv2_4/scale_0_split -> conv2_4/scale_conv2_4/scale_0_split_2
I0720 18:16:35.339514 32827 net.cpp:216] Setting up conv2_4/scale_conv2_4/scale_0_split
I0720 18:16:35.339524 32827 net.cpp:222] Top shape: 8 116 28 28 (727552)
I0720 18:16:35.339531 32827 net.cpp:222] Top shape: 8 116 28 28 (727552)
I0720 18:16:35.339537 32827 net.cpp:222] Top shape: 8 116 28 28 (727552)
I0720 18:16:35.339542 32827 net.cpp:228] Memory required for data: 1018509824
I0720 18:16:35.339547 32827 layer_factory.hpp:76] Creating layer conv3_1/branch1_dwconv1
I0720 18:16:35.339561 32827 net.cpp:144] Creating Layer conv3_1/branch1_dwconv1
I0720 18:16:35.339567 32827 net.cpp:488] conv3_1/branch1_dwconv1 <- conv2_4/scale_conv2_4/scale_0_split_0
I0720 18:16:35.339574 32827 net.cpp:177] This layer is inheriting previous layer's sync mode: 1
I0720 18:16:35.339581 32827 net.cpp:462] conv3_1/branch1_dwconv1 -> conv3_1/branch1_dwconv1
I0720 18:16:35.339941 32827 net.cpp:216] Setting up conv3_1/branch1_dwconv1
I0720 18:16:35.339953 32827 net.cpp:222] Top shape: 8 116 14 14 (181888)
I0720 18:16:35.339958 32827 net.cpp:228] Memory required for data: 1019237376
I0720 18:16:35.339967 32827 layer_factory.hpp:76] Creating layer conv3_1/branch1_dwconv1/bn
I0720 18:16:35.339979 32827 net.cpp:144] Creating Layer conv3_1/branch1_dwconv1/bn
…
I0720 18:16:35.402529 32827 net.cpp:222] Top shape: 8 232 7 7 (90944)
I0720 18:16:35.402532 32827 net.cpp:228] Memory required for data: 1168047744
I0720 18:16:35.402539 32827 layer_factory.hpp:76] Creating layer conv4_3/conv1
I0720 18:16:35.402554 32827 net.cpp:144] Creating Layer conv4_3/conv1
I0720 18:16:35.402559 32827 net.cpp:488] conv4_3/conv1 <- conv4_3/split2
I0720 18:16:35.402565 32827 net.cpp:177] This layer is inheriting previous layer's sync mode: 1
I0720 18:16:35.402575 32827 net.cpp:462] conv4_3/conv1 -> conv4_3/conv1
I0720 18:16:35.404345 32827 net.cpp:216] Setting up conv4_3/conv1
I0720 18:16:35.404356 32827 net.cpp:222] Top shape: 8 232 7 7 (90944)
I0720 18:16:35.404361 32827 net.cpp:228] Memory required for data: 1168411520
I0720 18:16:35.404368 32827 layer_factory.hpp:76] Creating layer conv4_3/conv1/bn
I0720 18:16:35.404387 32827 net.cpp:144] Creating Layer conv4_3/conv1/bn
I0720 18:16:35.404394 32827 net.cpp:488] conv4_3/conv1/bn <- conv4_3/conv1
I0720 18:16:35.404402 32827 net.cpp:177] This layer is inheriting previous layer's sync mode: 1
I0720 18:16:35.404409 32827 net.cpp:462] conv4_3/conv1/bn -> conv4_3/conv1/bn
I0720 18:16:35.404567 32827 cudnn_batch_norm_layer.cpp:84] Using CuDNN BN engine.
I0720 18:16:35.404651 32827 net.cpp:216] Setting up conv4_3/conv1/bn
I0720 18:16:35.404660 32827 net.cpp:222] Top shape: 8 232 7 7 (90944)
I0720 18:16:35.404665 32827 net.cpp:228] Memory required for data: 1168775296
I0720 18:16:35.404677 32827 layer_factory.hpp:76] Creating layer conv4_3/conv1/relu
I0720 18:16:35.404693 32827 net.cpp:144] Creating Layer conv4_3/conv1/relu
I0720 18:16:35.404700 32827 net.cpp:488] conv4_3/conv1/relu <- conv4_3/conv1/bn
I0720 18:16:35.404707 32827 net.cpp:177] This layer is inheriting previous layer's sync mode: 1
I0720 18:16:35.404713 32827 net.cpp:451] conv4_3/conv1/relu -> conv4_3/conv1/bn (in-place)
I0720 18:16:35.404724 32827 net.cpp:216] Setting up conv4_3/conv1/relu
I0720 18:16:35.404732 32827 net.cpp:222] Top shape: 8 232 7 7 (90944)
I0720 18:16:35.404736 32827 net.cpp:228] Memory required for data: 1169139072
I0720 18:16:35.404742 32827 layer_factory.hpp:76] Creating layer conv4_3/dwconv2
I0720 18:16:35.404757 32827 net.cpp:144] Creating Layer conv4_3/dwconv2
I0720 18:16:35.404762 32827 net.cpp:488] conv4_3/dwconv2 <- conv4_3/conv1/bn
I0720 18:16:35.404767 32827 net.cpp:177] This layer is inheriting previous layer's sync mode: 1
I0720 18:16:35.404775 32827 net.cpp:462] conv4_3/dwconv2 -> conv4_3/dwconv2
I0720 18:16:35.405076 32827 net.cpp:216] Setting up conv4_3/dwconv2
I0720 18:16:35.405086 32827 net.cpp:222] Top shape: 8 232 7 7 (90944)
I0720 18:16:35.405092 32827 net.cpp:228] Memory required for data: 1169502848
I0720 18:16:35.405098 32827 layer_factory.hpp:76] Creating layer conv4_3/dwconv2/bn
I0720 18:16:35.405112 32827 net.cpp:144] Creating Layer conv4_3/dwconv2/bn
I0720 18:16:35.405118 32827 net.cpp:488] conv4_3/dwconv2/bn <- conv4_3/dwconv2
I0720 18:16:35.405124 32827 net.cpp:177] This layer is inheriting previous layer's sync mode: 1
I0720 18:16:35.405133 32827 net.cpp:462] conv4_3/dwconv2/bn -> conv4_3/dwconv2/bn
I0720 18:16:35.405277 32827 cudnn_batch_norm_layer.cpp:84] Using CuDNN BN engine.
I0720 18:16:35.405357 32827 net.cpp:216] Setting up conv4_3/dwconv2/bn
I0720 18:16:35.405366 32827 net.cpp:222] Top shape: 8 232 7 7 (90944)
I0720 18:16:35.405371 32827 net.cpp:228] Memory required for data: 1169866624
I0720 18:16:35.405383 32827 layer_factory.hpp:76] Creating layer conv4_3/conv3
I0720 18:16:35.405400 32827 net.cpp:144] Creating Layer conv4_3/conv3
I0720 18:16:35.405405 32827 net.cpp:488] conv4_3/conv3 <- conv4_3/dwconv2/bn
I0720 18:16:35.405412 32827 net.cpp:177] This layer is inheriting previous layer's sync mode: 1
I0720 18:16:35.405422 32827 net.cpp:462] conv4_3/conv3 -> conv4_3/conv3
I0720 18:16:35.407186 32827 net.cpp:216] Setting up conv4_3/conv3
I0720 18:16:35.407197 32827 net.cpp:222] Top shape: 8 232 7 7 (90944)
I0720 18:16:35.407202 32827 net.cpp:228] Memory required for data: 1170230400
I0720 18:16:35.407210 32827 layer_factory.hpp:76] Creating layer conv4_3/conv3/bn
I0720 18:16:35.407224 32827 net.cpp:144] Creating Layer conv4_3/conv3/bn
I0720 18:16:35.407232 32827 net.cpp:488] conv4_3/conv3/bn <- conv4_3/conv3
I0720 18:16:35.407238 32827 net.cpp:177] This layer is inheriting previous layer's sync mode: 1
I0720 18:16:35.407248 32827 net.cpp:462] conv4_3/conv3/bn -> conv4_3/conv3/bn
I0720 18:16:35.407428 32827 cudnn_batch_norm_layer.cpp:84] Using CuDNN BN engine.
I0720 18:16:35.407512 32827 net.cpp:216] Setting up conv4_3/conv3/bn
I0720 18:16:35.407522 32827 net.cpp:222] Top shape: 8 232 7 7 (90944)
I0720 18:16:35.407526 32827 net.cpp:228] Memory required for data: 1170594176
I0720 18:16:35.407541 32827 layer_factory.hpp:76] Creating layer conv4_3/conv3/relu
I0720 18:16:35.407553 32827 net.cpp:144] Creating Layer conv4_3/conv3/relu
I0720 18:16:35.407559 32827 net.cpp:488] conv4_3/conv3/relu <- conv4_3/conv3/bn
I0720 18:16:35.407567 32827 net.cpp:177] This layer is inheriting previous layer's sync mode: 1
I0720 18:16:35.407572 32827 net.cpp:451] conv4_3/conv3/relu -> conv4_3/conv3/bn (in-place)
I0720 18:16:35.407582 32827 net.cpp:216] Setting up conv4_3/conv3/relu
I0720 18:16:35.407589 32827 net.cpp:222] Top shape: 8 232 7 7 (90944)
I0720 18:16:35.407594 32827 net.cpp:228] Memory required for data: 1170957952
I0720 18:16:35.407599 32827 layer_factory.hpp:76] Creating layer conv4_3/concat
I0720 18:16:35.407608 32827 net.cpp:144] Creating Layer conv4_3/concat
I0720 18:16:35.407614 32827 net.cpp:488] conv4_3/concat <- conv4_3/split1
I0720 18:16:35.407621 32827 net.cpp:488] conv4_3/concat <- conv4_3/conv3/bn
I0720 18:16:35.407627 32827 net.cpp:177] This layer is inheriting previous layer's sync mode: 1
I0720 18:16:35.407636 32827 net.cpp:462] conv4_3/concat -> conv4_3/concat
I0720 18:16:35.407675 32827 net.cpp:216] Setting up conv4_3/concat
I0720 18:16:35.407682 32827 net.cpp:222] Top shape: 8 464 7 7 (181888)
I0720 18:16:35.407687 32827 net.cpp:228] Memory required for data: 1171685504
I0720 18:16:35.407698 32827 layer_factory.hpp:76] Creating layer conv4_3
I0720 18:16:35.407716 32827 net.cpp:144] Creating Layer conv4_3
I0720 18:16:35.407722 32827 net.cpp:488] conv4_3 <- conv4_3/concat
I0720 18:16:35.407728 32827 net.cpp:177] This layer is inheriting previous layer's sync mode: 1
I0720 18:16:35.407735 32827 net.cpp:462] conv4_3 -> conv4_3
I0720 18:16:35.407833 32827 net.cpp:216] Setting up conv4_3
I0720 18:16:35.407843 32827 net.cpp:222] Top shape: 8 464 7 7 (181888)
I0720 18:16:35.407848 32827 net.cpp:228] Memory required for data: 1172413056
I0720 18:16:35.407853 32827 layer_factory.hpp:76] Creating layer conv4_3_conv4_3_0_split
I0720 18:16:35.407862 32827 net.cpp:144] Creating Layer conv4_3_conv4_3_0_split
I0720 18:16:35.407871 32827 net.cpp:488] conv4_3_conv4_3_0_split <- conv4_3
I0720 18:16:35.407877 32827 net.cpp:177] This layer is inheriting previous layer's sync mode: 1
I0720 18:16:35.407884 32827 net.cpp:462] conv4_3_conv4_3_0_split -> conv4_3_conv4_3_0_split_0
I0720 18:16:35.407894 32827 net.cpp:462] conv4_3_conv4_3_0_split -> conv4_3_conv4_3_0_split_1
I0720 18:16:35.407948 32827 net.cpp:216] Setting up conv4_3_conv4_3_0_split
I0720 18:16:35.407956 32827 net.cpp:222] Top shape: 8 464 7 7 (181888)
I0720 18:16:35.407963 32827 net.cpp:222] Top shape: 8 464 7 7 (181888)
I0720 18:16:35.407968 32827 net.cpp:228] Memory required for data: 1173868160
I0720 18:16:35.407972 32827 layer_factory.hpp:76] Creating layer conv4_3/SE_global_pool
I0720 18:16:35.407982 32827 net.cpp:144] Creating Layer conv4_3/SE_global_pool
I0720 18:16:35.407989 32827 net.cpp:488] conv4_3/SE_global_pool <- conv4_3_conv4_3_0_split_0
I0720 18:16:35.407994 32827 net.cpp:177] This layer is inheriting previous layer's sync mode: 1
I0720 18:16:35.408004 32827 net.cpp:462] conv4_3/SE_global_pool -> conv4_3/SE_global_pool
I0720 18:16:35.408041 32827 net.cpp:216] Setting up conv4_3/SE_global_pool
I0720 18:16:35.408051 32827 net.cpp:222] Top shape: 8 464 1 1 (3712)
I0720 18:16:35.408054 32827 net.cpp:228] Memory required for data: 1173883008
I0720 18:16:35.408061 32827 layer_factory.hpp:76] Creating layer conv4_3/SE_fc1
I0720 18:16:35.408077 32827 net.cpp:144] Creating Layer conv4_3/SE_fc1
I0720 18:16:35.408082 32827 net.cpp:488] conv4_3/SE_fc1 <- conv4_3/SE_global_pool
I0720 18:16:35.408089 32827 net.cpp:177] This layer is inheriting previous layer's sync mode: 1
I0720 18:16:35.408097 32827 net.cpp:462] conv4_3/SE_fc1 -> conv4_3/SE_fc1
I0720 18:16:35.408748 32827 net.cpp:216] Setting up conv4_3/SE_fc1
I0720 18:16:35.408761 32827 net.cpp:222] Top shape: 8 29 1 1 (232)
I0720 18:16:35.408764 32827 net.cpp:228] Memory required for data: 1173883936
I0720 18:16:35.408772 32827 layer_factory.hpp:76] Creating layer conv4_3/SE_fc1/relu
I0720 18:16:35.408784 32827 net.cpp:144] Creating Layer conv4_3/SE_fc1/relu
I0720 18:16:35.408792 32827 net.cpp:488] conv4_3/SE_fc1/relu <- conv4_3/SE_fc1
I0720 18:16:35.408797 32827 net.cpp:177] This layer is inheriting previous layer's sync mode: 1
I0720 18:16:35.408803 32827 net.cpp:451] conv4_3/SE_fc1/relu -> conv4_3/SE_fc1 (in-place)
I0720 18:16:35.408814 32827 net.cpp:216] Setting up conv4_3/SE_fc1/relu
I0720 18:16:35.408821 32827 net.cpp:222] Top shape: 8 29 1 1 (232)
I0720 18:16:35.408825 32827 net.cpp:228] Memory required for data: 1173884864
I0720 18:16:35.408831 32827 layer_factory.hpp:76] Creating layer conv4_3/SE_fc2
I0720 18:16:35.408845 32827 net.cpp:144] Creating Layer conv4_3/SE_fc2
I0720 18:16:35.408851 32827 net.cpp:488] conv4_3/SE_fc2 <- conv4_3/SE_fc1
I0720 18:16:35.408856 32827 net.cpp:177] This layer is inheriting previous layer's sync mode: 1
I0720 18:16:35.408867 32827 net.cpp:462] conv4_3/SE_fc2 -> conv4_3/SE_fc2
I0720 18:16:35.411258 32827 net.cpp:216] Setting up conv4_3/SE_fc2
I0720 18:16:35.411278 32827 net.cpp:222] Top shape: 8 464 1 1 (3712)
I0720 18:16:35.411283 32827 net.cpp:228] Memory required for data: 1173899712
I0720 18:16:35.411293 32827 layer_factory.hpp:76] Creating layer conv4_3/SE_weights
I0720 18:16:35.411303 32827 net.cpp:144] Creating Layer conv4_3/SE_weights
I0720 18:16:35.411311 32827 net.cpp:488] conv4_3/SE_weights <- conv4_3/SE_fc2
I0720 18:16:35.411319 32827 net.cpp:177] This layer is inheriting previous layer's sync mode: 1
I0720 18:16:35.411324 32827 net.cpp:451] conv4_3/SE_weights -> conv4_3/SE_fc2 (in-place)
I0720 18:16:35.411339 32827 net.cpp:216] Setting up conv4_3/SE_weights
I0720 18:16:35.411346 32827 net.cpp:222] Top shape: 8 464 1 1 (3712)
I0720 18:16:35.411350 32827 net.cpp:228] Memory required for data: 1173914560
I0720 18:16:35.411356 32827 layer_factory.hpp:76] Creating layer conv4_3/SE_weights/reshape
I0720 18:16:35.411372 32827 net.cpp:144] Creating Layer conv4_3/SE_weights/reshape
I0720 18:16:35.411378 32827 net.cpp:488] conv4_3/SE_weights/reshape <- conv4_3/SE_fc2
I0720 18:16:35.411384 32827 net.cpp:177] This layer is inheriting previous layer's sync mode: 1
I0720 18:16:35.411394 32827 net.cpp:462] conv4_3/SE_weights/reshape -> conv4_3/SE_weights/reshape
I0720 18:16:35.411439 32827 net.cpp:216] Setting up conv4_3/SE_weights/reshape
I0720 18:16:35.411449 32827 net.cpp:222] Top shape: 8 464 (3712)
I0720 18:16:35.411453 32827 net.cpp:228] Memory required for data: 1173929408
I0720 18:16:35.411459 32827 layer_factory.hpp:76] Creating layer conv4_3/scale
I0720 18:16:35.411471 32827 net.cpp:144] Creating Layer conv4_3/scale
I0720 18:16:35.411478 32827 net.cpp:488] conv4_3/scale <- conv4_3_conv4_3_0_split_1
I0720 18:16:35.411486 32827 net.cpp:488] conv4_3/scale <- conv4_3/SE_weights/reshape
I0720 18:16:35.411492 32827 net.cpp:177] This layer is inheriting previous layer's sync mode: 1
I0720 18:16:35.411501 32827 net.cpp:462] conv4_3/scale -> conv4_3/scale
I0720 18:16:35.411610 32827 net.cpp:216] Setting up conv4_3/scale
I0720 18:16:35.411620 32827 net.cpp:222] Top shape: 8 464 7 7 (181888)
I0720 18:16:35.411624 32827 net.cpp:228] Memory required for data: 1174656960
I0720 18:16:35.411630 32827 layer_factory.hpp:76] Creating layer conv4_4/slice
I0720 18:16:35.411640 32827 net.cpp:144] Creating Layer conv4_4/slice
I0720 18:16:35.411649 32827 net.cpp:488] conv4_4/slice <- conv4_3/scale
I0720 18:16:35.411655 32827 net.cpp:177] This layer is inheriting previous layer's sync mode: 1
I0720 18:16:35.411662 32827 net.cpp:462] conv4_4/slice -> conv4_4/split1
I0720 18:16:35.411674 32827 net.cpp:462] conv4_4/slice -> conv4_4/split2
I0720 18:16:35.411746 32827 net.cpp:216] Setting up conv4_4/slice
I0720 18:16:35.411756 32827 net.cpp:222] Top shape: 8 232 7 7 (90944)
I0720 18:16:35.411761 32827 net.cpp:222] Top shape: 8 232 7 7 (90944)
I0720 18:16:35.411767 32827 net.cpp:228] Memory required for data: 1175384512
I0720 18:16:35.411772 32827 layer_factory.hpp:76] Creating layer conv4_4/conv1
I0720 18:16:35.411787 32827 net.cpp:144] Creating Layer conv4_4/conv1
I0720 18:16:35.411793 32827 net.cpp:488] conv4_4/conv1 <- conv4_4/split2
I0720 18:16:35.411800 32827 net.cpp:177] This layer is inheriting previous layer's sync mode: 1
I0720 18:16:35.411810 32827 net.cpp:462] conv4_4/conv1 -> conv4_4/conv1
I0720 18:16:35.413604 32827 net.cpp:216] Setting up conv4_4/conv1
I0720 18:16:35.413617 32827 net.cpp:222] Top shape: 8 232 7 7 (90944)
I0720 18:16:35.413622 32827 net.cpp:228] Memory required for data: 1175748288
I0720 18:16:35.413631 32827 layer_factory.hpp:76] Creating layer conv4_4/conv1/bn
I0720 18:16:35.413648 32827 net.cpp:144] Creating Layer conv4_4/conv1/bn
I0720 18:16:35.413656 32827 net.cpp:488] conv4_4/conv1/bn <- conv4_4/conv1
I0720 18:16:35.413663 32827 net.cpp:177] This layer is inheriting previous layer's sync mode: 1
I0720 18:16:35.413673 32827 net.cpp:462] conv4_4/conv1/bn -> conv4_4/conv1/bn
I0720 18:16:35.413846 32827 cudnn_batch_norm_layer.cpp:84] Using CuDNN BN engine.
I0720 18:16:35.413931 32827 net.cpp:216] Setting up conv4_4/conv1/bn
I0720 18:16:35.413941 32827 net.cpp:222] Top shape: 8 232 7 7 (90944)
I0720 18:16:35.413946 32827 net.cpp:228] Memory required for data: 1176112064
I0720 18:16:35.413959 32827 layer_factory.hpp:76] Creating layer conv4_4/conv1/relu
I0720 18:16:35.413970 32827 net.cpp:144] Creating Layer conv4_4/conv1/relu
I0720 18:16:35.413976 32827 net.cpp:488] conv4_4/conv1/relu <- conv4_4/conv1/bn
I0720 18:16:35.413983 32827 net.cpp:177] This layer is inheriting previous layer's sync mode: 1
I0720 18:16:35.414008 32827 net.cpp:451] conv4_4/conv1/relu -> conv4_4/conv1/bn (in-place)
I0720 18:16:35.414019 32827 net.cpp:216] Setting up conv4_4/conv1/relu
I0720 18:16:35.414027 32827 net.cpp:222] Top shape: 8 232 7 7 (90944)
I0720 18:16:35.414032 32827 net.cpp:228] Memory required for data: 1176475840
I0720 18:16:35.414037 32827 layer_factory.hpp:76] Creating layer conv4_4/dwconv2
I0720 18:16:35.414048 32827 net.cpp:144] Creating Layer conv4_4/dwconv2
I0720 18:16:35.414054 32827 net.cpp:488] conv4_4/dwconv2 <- conv4_4/conv1/bn
I0720 18:16:35.414060 32827 net.cpp:177] This layer is inheriting previous layer's sync mode: 1
I0720 18:16:35.414070 32827 net.cpp:462] conv4_4/dwconv2 -> conv4_4/dwconv2
I0720 18:16:35.414384 32827 net.cpp:216] Setting up conv4_4/dwconv2
I0720 18:16:35.414394 32827 net.cpp:222] Top shape: 8 232 7 7 (90944)
I0720 18:16:35.414399 32827 net.cpp:228] Memory required for data: 1176839616
I0720 18:16:35.414407 32827 layer_factory.hpp:76] Creating layer conv4_4/dwconv2/bn
I0720 18:16:35.414418 32827 net.cpp:144] Creating Layer conv4_4/dwconv2/bn
I0720 18:16:35.414424 32827 net.cpp:488] conv4_4/dwconv2/bn <- conv4_4/dwconv2
I0720 18:16:35.414430 32827 net.cpp:177] This layer is inheriting previous layer's sync mode: 1
I0720 18:16:35.414440 32827 net.cpp:462] conv4_4/dwconv2/bn -> conv4_4/dwconv2/bn
I0720 18:16:35.414588 32827 cudnn_batch_norm_layer.cpp:84] Using CuDNN BN engine.
I0720 18:16:35.414669 32827 net.cpp:216] Setting up conv4_4/dwconv2/bn
I0720 18:16:35.414678 32827 net.cpp:222] Top shape: 8 232 7 7 (90944)
I0720 18:16:35.414683 32827 net.cpp:228] Memory required for data: 1177203392
I0720 18:16:35.414700 32827 layer_factory.hpp:76] Creating layer conv4_4/conv3
I0720 18:16:35.414716 32827 net.cpp:144] Creating Layer conv4_4/conv3
I0720 18:16:35.414723 32827 net.cpp:488] conv4_4/conv3 <- conv4_4/dwconv2/bn
I0720 18:16:35.414729 32827 net.cpp:177] This layer is inheriting previous layer's sync mode: 1
I0720 18:16:35.414737 32827 net.cpp:462] conv4_4/conv3 -> conv4_4/conv3
I0720 18:16:35.416522 32827 net.cpp:216] Setting up conv4_4/conv3
I0720 18:16:35.416537 32827 net.cpp:222] Top shape: 8 232 7 7 (90944)
I0720 18:16:35.416540 32827 net.cpp:228] Memory required for data: 1177567168
I0720 18:16:35.416549 32827 layer_factory.hpp:76] Creating layer conv4_4/conv3/bn
I0720 18:16:35.416563 32827 net.cpp:144] Creating Layer conv4_4/conv3/bn
I0720 18:16:35.416570 32827 net.cpp:488] conv4_4/conv3/bn <- conv4_4/conv3
I0720 18:16:35.416576 32827 net.cpp:177] This layer is inheriting previous layer's sync mode: 1
I0720 18:16:35.416584 32827 net.cpp:462] conv4_4/conv3/bn -> conv4_4/conv3/bn
I0720 18:16:35.416770 32827 cudnn_batch_norm_layer.cpp:84] Using CuDNN BN engine.
I0720 18:16:35.416855 32827 net.cpp:216] Setting up conv4_4/conv3/bn
I0720 18:16:35.416865 32827 net.cpp:222] Top shape: 8 232 7 7 (90944)
I0720 18:16:35.416869 32827 net.cpp:228] Memory required for data: 1177930944
I0720 18:16:35.416882 32827 layer_factory.hpp:76] Creating layer conv4_4/conv3/relu
I0720 18:16:35.416893 32827 net.cpp:144] Creating Layer conv4_4/conv3/relu
I0720 18:16:35.416899 32827 net.cpp:488] conv4_4/conv3/relu <- conv4_4/conv3/bn
I0720 18:16:35.416906 32827 net.cpp:177] This layer is inheriting previous layer's sync mode: 1
I0720 18:16:35.416913 32827 net.cpp:451] conv4_4/conv3/relu -> conv4_4/conv3/bn (in-place)
I0720 18:16:35.416923 32827 net.cpp:216] Setting up conv4_4/conv3/relu
I0720 18:16:35.416930 32827 net.cpp:222] Top shape: 8 232 7 7 (90944)
I0720 18:16:35.416934 32827 net.cpp:228] Memory required for data: 1178294720
I0720 18:16:35.416940 32827 layer_factory.hpp:76] Creating layer conv4_4/concat
I0720 18:16:35.416951 32827 net.cpp:144] Creating Layer conv4_4/concat
I0720 18:16:35.416957 32827 net.cpp:488] conv4_4/concat <- conv4_4/split1
I0720 18:16:35.416965 32827 net.cpp:488] conv4_4/concat <- conv4_4/conv3/bn
I0720 18:16:35.416970 32827 net.cpp:177] This layer is inheriting previous layer's sync mode: 1
I0720 18:16:35.416977 32827 net.cpp:462] conv4_4/concat -> conv4_4/concat
I0720 18:16:35.417013 32827 net.cpp:216] Setting up conv4_4/concat
I0720 18:16:35.417022 32827 net.cpp:222] Top shape: 8 464 7 7 (181888)
I0720 18:16:35.417027 32827 net.cpp:228] Memory required for data: 1179022272
I0720 18:16:35.417032 32827 layer_factory.hpp:76] Creating layer conv4_4
I0720 18:16:35.417048 32827 net.cpp:144] Creating Layer conv4_4
I0720 18:16:35.417054 32827 net.cpp:488] conv4_4 <- conv4_4/concat
I0720 18:16:35.417060 32827 net.cpp:177] This layer is inheriting previous layer's sync mode: 1
I0720 18:16:35.417066 32827 net.cpp:462] conv4_4 -> conv4_4
I0720 18:16:35.417171 32827 net.cpp:216] Setting up conv4_4
I0720 18:16:35.417181 32827 net.cpp:222] Top shape: 8 464 7 7 (181888)
I0720 18:16:35.417184 32827 net.cpp:228] Memory required for data: 1179749824
I0720 18:16:35.417189 32827 layer_factory.hpp:76] Creating layer conv4_4_conv4_4_0_split
I0720 18:16:35.417199 32827 net.cpp:144] Creating Layer conv4_4_conv4_4_0_split
I0720 18:16:35.417206 32827 net.cpp:488] conv4_4_conv4_4_0_split <- conv4_4
I0720 18:16:35.417212 32827 net.cpp:177] This layer is inheriting previous layer's sync mode: 1
I0720 18:16:35.417220 32827 net.cpp:462] conv4_4_conv4_4_0_split -> conv4_4_conv4_4_0_split_0
I0720 18:16:35.417230 32827 net.cpp:462] conv4_4_conv4_4_0_split -> conv4_4_conv4_4_0_split_1
I0720 18:16:35.417282 32827 net.cpp:216] Setting up conv4_4_conv4_4_0_split
I0720 18:16:35.417291 32827 net.cpp:222] Top shape: 8 464 7 7 (181888)
I0720 18:16:35.417299 32827 net.cpp:222] Top shape: 8 464 7 7 (181888)
I0720 18:16:35.417302 32827 net.cpp:228] Memory required for data: 1181204928
I0720 18:16:35.417307 32827 layer_factory.hpp:76] Creating layer conv4_4/SE_global_pool
I0720 18:16:35.417320 32827 net.cpp:144] Creating Layer conv4_4/SE_global_pool
I0720 18:16:35.417326 32827 net.cpp:488] conv4_4/SE_global_pool <- conv4_4_conv4_4_0_split_0
I0720 18:16:35.417332 32827 net.cpp:177] This layer is inheriting previous layer's sync mode: 1
I0720 18:16:35.417340 32827 net.cpp:462] conv4_4/SE_global_pool -> conv4_4/SE_global_pool
I0720 18:16:35.417376 32827 net.cpp:216] Setting up conv4_4/SE_global_pool
I0720 18:16:35.417385 32827 net.cpp:222] Top shape: 8 464 1 1 (3712)
I0720 18:16:35.417390 32827 net.cpp:228] Memory required for data: 1181219776
I0720 18:16:35.417395 32827 layer_factory.hpp:76] Creating layer conv4_4/SE_fc1
I0720 18:16:35.417410 32827 net.cpp:144] Creating Layer conv4_4/SE_fc1
I0720 18:16:35.417417 32827 net.cpp:488] conv4_4/SE_fc1 <- conv4_4/SE_global_pool
I0720 18:16:35.417423 32827 net.cpp:177] This layer is inheriting previous layer's sync mode: 1
I0720 18:16:35.417433 32827 net.cpp:462] conv4_4/SE_fc1 -> conv4_4/SE_fc1
I0720 18:16:35.418084 32827 net.cpp:216] Setting up conv4_4/SE_fc1
I0720 18:16:35.418095 32827 net.cpp:222] Top shape: 8 29 1 1 (232)
I0720 18:16:35.418099 32827 net.cpp:228] Memory required for data: 1181220704
I0720 18:16:35.418107 32827 layer_factory.hpp:76] Creating layer conv4_4/SE_fc1/relu
I0720 18:16:35.418118 32827 net.cpp:144] Creating Layer conv4_4/SE_fc1/relu
I0720 18:16:35.418124 32827 net.cpp:488] conv4_4/SE_fc1/relu <- conv4_4/SE_fc1
I0720 18:16:35.418130 32827 net.cpp:177] This layer is inheriting previous layer's sync mode: 1
I0720 18:16:35.418141 32827 net.cpp:451] conv4_4/SE_fc1/relu -> conv4_4/SE_fc1 (in-place)
I0720 18:16:35.418153 32827 net.cpp:216] Setting up conv4_4/SE_fc1/relu
I0720 18:16:35.418160 32827 net.cpp:222] Top shape: 8 29 1 1 (232)
I0720 18:16:35.418164 32827 net.cpp:228] Memory required for data: 1181221632
I0720 18:16:35.418170 32827 layer_factory.hpp:76] Creating layer conv4_4/SE_fc2
I0720 18:16:35.418182 32827 net.cpp:144] Creating Layer conv4_4/SE_fc2
I0720 18:16:35.418187 32827 net.cpp:488] conv4_4/SE_fc2 <- conv4_4/SE_fc1
I0720 18:16:35.418193 32827 net.cpp:177] This layer is inheriting previous layer's sync mode: 1
I0720 18:16:35.418203 32827 net.cpp:462] conv4_4/SE_fc2 -> conv4_4/SE_fc2
I0720 18:16:35.418848 32827 net.cpp:216] Setting up conv4_4/SE_fc2
I0720 18:16:35.418859 32827 net.cpp:222] Top shape: 8 464 1 1 (3712)
I0720 18:16:35.418864 32827 net.cpp:228] Memory required for data: 1181236480
I0720 18:16:35.418870 32827 layer_factory.hpp:76] Creating layer conv4_4/SE_weights
I0720 18:16:35.418880 32827 net.cpp:144] Creating Layer conv4_4/SE_weights
I0720 18:16:35.418886 32827 net.cpp:488] conv4_4/SE_weights <- conv4_4/SE_fc2
I0720 18:16:35.418892 32827 net.cpp:177] This layer is inheriting previous layer's sync mode: 1
I0720 18:16:35.418898 32827 net.cpp:451] conv4_4/SE_weights -> conv4_4/SE_fc2 (in-place)
I0720 18:16:35.418910 32827 net.cpp:216] Setting up conv4_4/SE_weights
I0720 18:16:35.418916 32827 net.cpp:222] Top shape: 8 464 1 1 (3712)
I0720 18:16:35.418921 32827 net.cpp:228] Memory required for data: 1181251328
I0720 18:16:35.418926 32827 layer_factory.hpp:76] Creating layer conv4_4/SE_weights/reshape
I0720 18:16:35.418941 32827 net.cpp:144] Creating Layer conv4_4/SE_weights/reshape
I0720 18:16:35.418947 32827 net.cpp:488] conv4_4/SE_weights/reshape <- conv4_4/SE_fc2
I0720 18:16:35.418953 32827 net.cpp:177] This layer is inheriting previous layer's sync mode: 1
I0720 18:16:35.418961 32827 net.cpp:462] conv4_4/SE_weights/reshape -> conv4_4/SE_weights/reshape
I0720 18:16:35.419000 32827 net.cpp:216] Setting up conv4_4/SE_weights/reshape
I0720 18:16:35.419009 32827 net.cpp:222] Top shape: 8 464 (3712)
I0720 18:16:35.419013 32827 net.cpp:228] Memory required for data: 1181266176
I0720 18:16:35.419019 32827 layer_factory.hpp:76] Creating layer conv4_4/scale
I0720 18:16:35.419031 32827 net.cpp:144] Creating Layer conv4_4/scale
I0720 18:16:35.419037 32827 net.cpp:488] conv4_4/scale <- conv4_4_conv4_4_0_split_1
I0720 18:16:35.419045 32827 net.cpp:488] conv4_4/scale <- conv4_4/SE_weights/reshape
I0720 18:16:35.419051 32827 net.cpp:177] This layer is inheriting previous layer's sync mode: 1
I0720 18:16:35.419059 32827 net.cpp:462] conv4_4/scale -> conv4_4/scale
I0720 18:16:35.419158 32827 net.cpp:216] Setting up conv4_4/scale
I0720 18:16:35.419168 32827 net.cpp:222] Top shape: 8 464 7 7 (181888)
I0720 18:16:35.419173 32827 net.cpp:228] Memory required for data: 1181993728
I0720 18:16:35.419178 32827 layer_factory.hpp:76] Creating layer conv5/1x1
I0720 18:16:35.419194 32827 net.cpp:144] Creating Layer conv5/1x1
I0720 18:16:35.419200 32827 net.cpp:488] conv5/1x1 <- conv4_4/scale
I0720 18:16:35.419208 32827 net.cpp:177] This layer is inheriting previous layer's sync mode: 1
I0720 18:16:35.419216 32827 net.cpp:462] conv5/1x1 -> conv5/1x1
I0720 18:16:35.434599 32827 net.cpp:216] Setting up conv5/1x1
I0720 18:16:35.434628 32827 net.cpp:222] Top shape: 8 1024 7 7 (401408)
I0720 18:16:35.434633 32827 net.cpp:228] Memory required for data: 1183599360
I0720 18:16:35.434645 32827 layer_factory.hpp:76] Creating layer conv5/1x1/bn
I0720 18:16:35.434664 32827 net.cpp:144] Creating Layer conv5/1x1/bn
I0720 18:16:35.434674 32827 net.cpp:488] conv5/1x1/bn <- conv5/1x1
I0720 18:16:35.434681 32827 net.cpp:177] This layer is inheriting previous layer's sync mode: 1
I0720 18:16:35.434695 32827 net.cpp:462] conv5/1x1/bn -> conv5/1x1/bn
I0720 18:16:35.434918 32827 cudnn_batch_norm_layer.cpp:84] Using CuDNN BN engine.
I0720 18:16:35.435020 32827 net.cpp:216] Setting up conv5/1x1/bn
I0720 18:16:35.435030 32827 net.cpp:222] Top shape: 8 1024 7 7 (401408)
I0720 18:16:35.435034 32827 net.cpp:228] Memory required for data: 1185204992
I0720 18:16:35.435048 32827 layer_factory.hpp:76] Creating layer conv5/1x1/relu
I0720 18:16:35.435065 32827 net.cpp:144] Creating Layer conv5/1x1/relu
I0720 18:16:35.435073 32827 net.cpp:488] conv5/1x1/relu <- conv5/1x1/bn
I0720 18:16:35.435093 32827 net.cpp:177] This layer is inheriting previous layer's sync mode: 1
I0720 18:16:35.435101 32827 net.cpp:451] conv5/1x1/relu -> conv5/1x1/bn (in-place)
I0720 18:16:35.435122 32827 net.cpp:216] Setting up conv5/1x1/relu
I0720 18:16:35.435129 32827 net.cpp:222] Top shape: 8 1024 7 7 (401408)
I0720 18:16:35.435134 32827 net.cpp:228] Memory required for data: 1186810624
I0720 18:16:35.435139 32827 layer_factory.hpp:76] Creating layer feature7
I0720 18:16:35.435158 32827 net.cpp:144] Creating Layer feature7
I0720 18:16:35.435163 32827 net.cpp:488] feature7 <- conv5/1x1/bn
I0720 18:16:35.435169 32827 net.cpp:177] This layer is inheriting previous layer's sync mode: 1
I0720 18:16:35.435178 32827 net.cpp:462] feature7 -> feature7
I0720 18:16:35.439224 32827 net.cpp:216] Setting up feature7
I0720 18:16:35.439251 32827 net.cpp:222] Top shape: 8 64 7 7 (25088)
I0720 18:16:35.439256 32827 net.cpp:228] Memory required for data: 1186910976
I0720 18:16:35.439267 32827 layer_factory.hpp:76] Creating layer feature7_56
I0720 18:16:35.439290 32827 net.cpp:144] Creating Layer feature7_56
I0720 18:16:35.439301 32827 net.cpp:488] feature7_56 <- feature7
I0720 18:16:35.439307 32827 net.cpp:177] This layer is inheriting previous layer's sync mode: 1
I0720 18:16:35.439318 32827 net.cpp:462] feature7_56 -> feature7_56
I0720 18:16:35.440397 32827 net.cpp:216] Setting up feature7_56
I0720 18:16:35.440408 32827 net.cpp:222] Top shape: 8 64 56 56 (1605632)
I0720 18:16:35.440413 32827 net.cpp:228] Memory required for data: 1193333504
I0720 18:16:35.440421 32827 layer_factory.hpp:76] Creating layer feature14
I0720 18:16:35.440438 32827 net.cpp:144] Creating Layer feature14
I0720 18:16:35.440446 32827 net.cpp:488] feature14 <- conv3_8/scale_conv3_8/scale_0_split_2
I0720 18:16:35.440454 32827 net.cpp:177] This layer is inheriting previous layer's sync mode: 1
I0720 18:16:35.440462 32827 net.cpp:462] feature14 -> feature14
I0720 18:16:35.441157 32827 net.cpp:216] Setting up feature14
I0720 18:16:35.441170 32827 net.cpp:222] Top shape: 8 64 14 14 (100352)
I0720 18:16:35.441174 32827 net.cpp:228] Memory required for data: 1193734912
I0720 18:16:35.441182 32827 layer_factory.hpp:76] Creating layer feature14_56
I0720 18:16:35.441197 32827 net.cpp:144] Creating Layer feature14_56
I0720 18:16:35.441205 32827 net.cpp:488] feature14_56 <- feature14
I0720 18:16:35.441210 32827 net.cpp:177] This layer is inheriting previous layer's sync mode: 1
I0720 18:16:35.441218 32827 net.cpp:462] feature14_56 -> feature14_56
I0720 18:16:35.441685 32827 net.cpp:216] Setting up feature14_56
I0720 18:16:35.441704 32827 net.cpp:222] Top shape: 8 64 56 56 (1605632)
I0720 18:16:35.441709 32827 net.cpp:228] Memory required for data: 1200157440
I0720 18:16:35.441717 32827 layer_factory.hpp:76] Creating layer feature28
I0720 18:16:35.441730 32827 net.cpp:144] Creating Layer feature28
I0720 18:16:35.441740 32827 net.cpp:488] feature28 <- conv2_4/scale_conv2_4/scale_0_split_2
I0720 18:16:35.441746 32827 net.cpp:177] This layer is inheriting previous layer's sync mode: 1
I0720 18:16:35.441754 32827 net.cpp:462] feature28 -> feature28
I0720 18:16:35.442220 32827 net.cpp:216] Setting up feature28
I0720 18:16:35.442231 32827 net.cpp:222] Top shape: 8 64 28 28 (401408)
I0720 18:16:35.442235 32827 net.cpp:228] Memory required for data: 1201763072
I0720 18:16:35.442243 32827 layer_factory.hpp:76] Creating layer feature28_56
I0720 18:16:35.442257 32827 net.cpp:144] Creating Layer feature28_56
I0720 18:16:35.442265 32827 net.cpp:488] feature28_56 <- feature28
I0720 18:16:35.442270 32827 net.cpp:177] This layer is inheriting previous layer's sync mode: 1
I0720 18:16:35.442281 32827 net.cpp:462] feature28_56 -> feature28_56
I0720 18:16:35.442571 32827 net.cpp:216] Setting up feature28_56
I0720 18:16:35.442581 32827 net.cpp:222] Top shape: 8 64 56 56 (1605632)
I0720 18:16:35.442586 32827 net.cpp:228] Memory required for data: 1208185600
I0720 18:16:35.442595 32827 layer_factory.hpp:76] Creating layer feature56
I0720 18:16:35.442606 32827 net.cpp:144] Creating Layer feature56
I0720 18:16:35.442613 32827 net.cpp:488] feature56 <- conv1_4/scale_conv1_4/scale_0_split_1
I0720 18:16:35.442620 32827 net.cpp:177] This layer is inheriting previous layer's sync mode: 1
I0720 18:16:35.442631 32827 net.cpp:462] feature56 -> feature56
I0720 18:16:35.443094 32827 net.cpp:216] Setting up feature56
I0720 18:16:35.443106 32827 net.cpp:222] Top shape: 8 64 56 56 (1605632)
I0720 18:16:35.443111 32827 net.cpp:228] Memory required for data: 1214608128
I0720 18:16:35.443119 32827 layer_factory.hpp:76] Creating layer sum56
I0720 18:16:35.443135 32827 net.cpp:144] Creating Layer sum56
I0720 18:16:35.443141 32827 net.cpp:488] sum56 <- feature7_56
I0720 18:16:35.443148 32827 net.cpp:488] sum56 <- feature14_56
I0720 18:16:35.443156 32827 net.cpp:488] sum56 <- feature28_56
I0720 18:16:35.443161 32827 net.cpp:488] sum56 <- feature56
I0720 18:16:35.443166 32827 net.cpp:177] This layer is inheriting previous layer's sync mode: 1
I0720 18:16:35.443176 32827 net.cpp:462] sum56 -> sum56
I0720 18:16:35.443222 32827 net.cpp:216] Setting up sum56
I0720 18:16:35.443231 32827 net.cpp:222] Top shape: 8 64 56 56 (1605632)
I0720 18:16:35.443236 32827 net.cpp:228] Memory required for data: 1221030656
I0720 18:16:35.443241 32827 layer_factory.hpp:76] Creating layer sum56_sum56_0_split
I0720 18:16:35.443253 32827 net.cpp:144] Creating Layer sum56_sum56_0_split
I0720 18:16:35.443259 32827 net.cpp:488] sum56_sum56_0_split <- sum56
I0720 18:16:35.443264 32827 net.cpp:177] This layer is inheriting previous layer's sync mode: 1
I0720 18:16:35.443270 32827 net.cpp:462] sum56_sum56_0_split -> sum56_sum56_0_split_0
I0720 18:16:35.443284 32827 net.cpp:462] sum56_sum56_0_split -> sum56_sum56_0_split_1
I0720 18:16:35.443292 32827 net.cpp:462] sum56_sum56_0_split -> sum56_sum56_0_split_2
I0720 18:16:35.443365 32827 net.cpp:216] Setting up sum56_sum56_0_split
I0720 18:16:35.443374 32827 net.cpp:222] Top shape: 8 64 56 56 (1605632)
I0720 18:16:35.443380 32827 net.cpp:222] Top shape: 8 64 56 56 (1605632)
I0720 18:16:35.443387 32827 net.cpp:222] Top shape: 8 64 56 56 (1605632)
I0720 18:16:35.443392 32827 net.cpp:228] Memory required for data: 1240298240
I0720 18:16:35.443397 32827 layer_factory.hpp:76] Creating layer shuffle56
I0720 18:16:35.443413 32827 net.cpp:144] Creating Layer shuffle56
I0720 18:16:35.443420 32827 net.cpp:488] shuffle56 <- sum56_sum56_0_split_0
I0720 18:16:35.443426 32827 net.cpp:177] This layer is inheriting previous layer's sync mode: 1
I0720 18:16:35.443436 32827 net.cpp:462] shuffle56 -> shuffle56
I0720 18:16:35.443755 32827 net.cpp:216] Setting up shuffle56
I0720 18:16:35.443768 32827 net.cpp:222] Top shape: 8 32 56 56 (802816)
I0720 18:16:35.443773 32827 net.cpp:228] Memory required for data: 1243509504
I0720 18:16:35.443779 32827 layer_factory.hpp:76] Creating layer shuffle56_bn
I0720 18:16:35.443795 32827 net.cpp:144] Creating Layer shuffle56_bn
I0720 18:16:35.443801 32827 net.cpp:488] shuffle56_bn <- shuffle56
I0720 18:16:35.443809 32827 net.cpp:177] This layer is inheriting previous layer's sync mode: 1
I0720 18:16:35.443815 32827 net.cpp:462] shuffle56_bn -> shuffle56_bn
I0720 18:16:35.443989 32827 cudnn_batch_norm_layer.cpp:84] Using CuDNN BN engine.
I0720 18:16:35.444075 32827 net.cpp:216] Setting up shuffle56_bn
I0720 18:16:35.444084 32827 net.cpp:222] Top shape: 8 32 56 56 (802816)
I0720 18:16:35.444089 32827 net.cpp:228] Memory required for data: 1246720768
I0720 18:16:35.444103 32827 layer_factory.hpp:76] Creating layer shuffle56/relu
I0720 18:16:35.444116 32827 net.cpp:144] Creating Layer shuffle56/relu
I0720 18:16:35.444123 32827 net.cpp:488] shuffle56/relu <- shuffle56_bn
I0720 18:16:35.444129 32827 net.cpp:177] This layer is inheriting previous layer's sync mode: 1
I0720 18:16:35.444135 32827 net.cpp:451] shuffle56/relu -> shuffle56_bn (in-place)
I0720 18:16:35.444146 32827 net.cpp:216] Setting up shuffle56/relu
I0720 18:16:35.444154 32827 net.cpp:222] Top shape: 8 32 56 56 (802816)
I0720 18:16:35.444159 32827 net.cpp:228] Memory required for data: 1249932032
I0720 18:16:35.444164 32827 layer_factory.hpp:76] Creating layer squeeze56
I0720 18:16:35.444180 32827 net.cpp:144] Creating Layer squeeze56
I0720 18:16:35.444185 32827 net.cpp:488] squeeze56 <- shuffle56_bn
I0720 18:16:35.444191 32827 net.cpp:177] This layer is inheriting previous layer's sync mode: 1
I0720 18:16:35.444198 32827 net.cpp:462] squeeze56 -> squeeze56
I0720 18:16:35.444598 32827 net.cpp:216] Setting up squeeze56
I0720 18:16:35.444609 32827 net.cpp:222] Top shape: 8 16 56 56 (401408)
I0720 18:16:35.444614 32827 net.cpp:228] Memory required for data: 1251537664
I0720 18:16:35.444622 32827 layer_factory.hpp:76] Creating layer feature448
I0720 18:16:35.444636 32827 net.cpp:144] Creating Layer feature448
I0720 18:16:35.444643 32827 net.cpp:488] feature448 <- squeeze56
I0720 18:16:35.444649 32827 net.cpp:177] This layer is inheriting previous layer's sync mode: 1
I0720 18:16:35.444656 32827 net.cpp:462] feature448 -> feature448
I0720 18:16:35.445091 32827 net.cpp:216] Setting up feature448
I0720 18:16:35.445102 32827 net.cpp:222] Top shape: 8 16 448 448 (25690112)
I0720 18:16:35.445106 32827 net.cpp:228] Memory required for data: 1354298112
I0720 18:16:35.445114 32827 layer_factory.hpp:76] Creating layer outputcls
I0720 18:16:35.445132 32827 net.cpp:144] Creating Layer outputcls
I0720 18:16:35.445137 32827 net.cpp:488] outputcls <- feature448
I0720 18:16:35.445144 32827 net.cpp:177] This layer is inheriting previous layer's sync mode: 1
I0720 18:16:35.445152 32827 net.cpp:462] outputcls -> outputcls
I0720 18:16:35.445416 32827 net.cpp:216] Setting up outputcls
I0720 18:16:35.445427 32827 net.cpp:222] Top shape: 8 2 448 448 (3211264)
I0720 18:16:35.445432 32827 net.cpp:228] Memory required for data: 1367143168
I0720 18:16:35.445439 32827 layer_factory.hpp:76] Creating layer shuffle56reg
I0720 18:16:35.445462 32827 net.cpp:144] Creating Layer shuffle56reg
I0720 18:16:35.445468 32827 net.cpp:488] shuffle56reg <- sum56_sum56_0_split_1
I0720 18:16:35.445475 32827 net.cpp:177] This layer is inheriting previous layer's sync mode: 1
I0720 18:16:35.445485 32827 net.cpp:462] shuffle56reg -> shuffle56reg
I0720 18:16:35.445802 32827 net.cpp:216] Setting up shuffle56reg
I0720 18:16:35.445813 32827 net.cpp:222] Top shape: 8 32 56 56 (802816)
I0720 18:16:35.445818 32827 net.cpp:228] Memory required for data: 1370354432
I0720 18:16:35.445825 32827 layer_factory.hpp:76] Creating layer shuffle56_bnreg
I0720 18:16:35.445838 32827 net.cpp:144] Creating Layer shuffle56_bnreg
I0720 18:16:35.445844 32827 net.cpp:488] shuffle56_bnreg <- shuffle56reg
I0720 18:16:35.445852 32827 net.cpp:177] This layer is inheriting previous layer's sync mode: 1
I0720 18:16:35.445861 32827 net.cpp:462] shuffle56_bnreg -> shuffle56_bnreg
I0720 18:16:35.446018 32827 cudnn_batch_norm_layer.cpp:84] Using CuDNN BN engine.
I0720 18:16:35.446113 32827 net.cpp:216] Setting up shuffle56_bnreg
I0720 18:16:35.446122 32827 net.cpp:222] Top shape: 8 32 56 56 (802816)
I0720 18:16:35.446126 32827 net.cpp:228] Memory required for data: 1373565696
I0720 18:16:35.446139 32827 layer_factory.hpp:76] Creating layer shuffle56/relureg
I0720 18:16:35.446152 32827 net.cpp:144] Creating Layer shuffle56/relureg
I0720 18:16:35.446159 32827 net.cpp:488] shuffle56/relureg <- shuffle56_bnreg
I0720 18:16:35.446166 32827 net.cpp:177] This layer is inheriting previous layer's sync mode: 1
I0720 18:16:35.446172 32827 net.cpp:451] shuffle56/relureg -> shuffle56_bnreg (in-place)
I0720 18:16:35.446182 32827 net.cpp:216] Setting up shuffle56/relureg
I0720 18:16:35.446189 32827 net.cpp:222] Top shape: 8 32 56 56 (802816)
I0720 18:16:35.446194 32827 net.cpp:228] Memory required for data: 1376776960
I0720 18:16:35.446199 32827 layer_factory.hpp:76] Creating layer squeeze56reg
I0720 18:16:35.446213 32827 net.cpp:144] Creating Layer squeeze56reg
I0720 18:16:35.446218 32827 net.cpp:488] squeeze56reg <- shuffle56_bnreg
I0720 18:16:35.446223 32827 net.cpp:177] This layer is inheriting previous layer's sync mode: 1
I0720 18:16:35.446233 32827 net.cpp:462] squeeze56reg -> squeeze56reg
I0720 18:16:35.446611 32827 net.cpp:216] Setting up squeeze56reg
I0720 18:16:35.446621 32827 net.cpp:222] Top shape: 8 16 56 56 (401408)
I0720 18:16:35.446626 32827 net.cpp:228] Memory required for data: 1378382592
I0720 18:16:35.446633 32827 layer_factory.hpp:76] Creating layer feature448reg
I0720 18:16:35.446647 32827 net.cpp:144] Creating Layer feature448reg
I0720 18:16:35.446655 32827 net.cpp:488] feature448reg <- squeeze56reg
I0720 18:16:35.446660 32827 net.cpp:177] This layer is inheriting previous layer's sync mode: 1
I0720 18:16:35.446668 32827 net.cpp:462] feature448reg -> feature448reg
I0720 18:16:35.447118 32827 net.cpp:216] Setting up feature448reg
I0720 18:16:35.447129 32827 net.cpp:222] Top shape: 8 16 448 448 (25690112)
I0720 18:16:35.447134 32827 net.cpp:228] Memory required for data: 1481143040
I0720 18:16:35.447142 32827 layer_factory.hpp:76] Creating layer outputreg
I0720 18:16:35.447157 32827 net.cpp:144] Creating Layer outputreg
I0720 18:16:35.447165 32827 net.cpp:488] outputreg <- feature448reg
I0720 18:16:35.447171 32827 net.cpp:177] This layer is inheriting previous layer's sync mode: 1
I0720 18:16:35.447178 32827 net.cpp:462] outputreg -> outputreg
I0720 18:16:35.447451 32827 net.cpp:216] Setting up outputreg
I0720 18:16:35.447461 32827 net.cpp:222] Top shape: 8 2 448 448 (3211264)
I0720 18:16:35.447466 32827 net.cpp:228] Memory required for data: 1493988096
I0720 18:16:35.447474 32827 layer_factory.hpp:76] Creating layer shuffle56seg
I0720 18:16:35.447489 32827 net.cpp:144] Creating Layer shuffle56seg
I0720 18:16:35.447495 32827 net.cpp:488] shuffle56seg <- sum56_sum56_0_split_2
I0720 18:16:35.447502 32827 net.cpp:177] This layer is inheriting previous layer's sync mode: 1
I0720 18:16:35.447510 32827 net.cpp:462] shuffle56seg -> shuffle56seg
I0720 18:16:35.447876 32827 net.cpp:216] Setting up shuffle56seg
I0720 18:16:35.447888 32827 net.cpp:222] Top shape: 8 64 56 56 (1605632)
I0720 18:16:35.447893 32827 net.cpp:228] Memory required for data: 1500410624
I0720 18:16:35.447901 32827 layer_factory.hpp:76] Creating layer shuffle56_bnseg
I0720 18:16:35.447911 32827 net.cpp:144] Creating Layer shuffle56_bnseg
I0720 18:16:35.447917 32827 net.cpp:488] shuffle56_bnseg <- shuffle56seg
I0720 18:16:35.447923 32827 net.cpp:177] This layer is inheriting previous layer's sync mode: 1
I0720 18:16:35.447933 32827 net.cpp:462] shuffle56_bnseg -> shuffle56_bnseg
I0720 18:16:35.448087 32827 cudnn_batch_norm_layer.cpp:84] Using CuDNN BN engine.
I0720 18:16:35.448169 32827 net.cpp:216] Setting up shuffle56_bnseg
I0720 18:16:35.448179 32827 net.cpp:222] Top shape: 8 64 56 56 (1605632)
I0720 18:16:35.448182 32827 net.cpp:228] Memory required for data: 1506833152
I0720 18:16:35.448196 32827 layer_factory.hpp:76] Creating layer shuffle56/reluseg
I0720 18:16:35.448206 32827 net.cpp:144] Creating Layer shuffle56/reluseg
I0720 18:16:35.448212 32827 net.cpp:488] shuffle56/reluseg <- shuffle56_bnseg
I0720 18:16:35.448218 32827 net.cpp:177] This layer is inheriting previous layer's sync mode: 1
I0720 18:16:35.448227 32827 net.cpp:451] shuffle56/reluseg -> shuffle56_bnseg (in-place)
I0720 18:16:35.448237 32827 net.cpp:216] Setting up shuffle56/reluseg
I0720 18:16:35.448245 32827 net.cpp:222] Top shape: 8 64 56 56 (1605632)
I0720 18:16:35.448249 32827 net.cpp:228] Memory required for data: 1513255680
I0720 18:16:35.448256 32827 layer_factory.hpp:76] Creating layer squeeze56seg
I0720 18:16:35.448267 32827 net.cpp:144] Creating Layer squeeze56seg
I0720 18:16:35.448272 32827 net.cpp:488] squeeze56seg <- shuffle56_bnseg
I0720 18:16:35.448277 32827 net.cpp:177] This layer is inheriting previous layer's sync mode: 1
I0720 18:16:35.448287 32827 net.cpp:462] squeeze56seg -> squeeze56seg
I0720 18:16:35.448808 32827 net.cpp:216] Setting up squeeze56seg
I0720 18:16:35.448820 32827 net.cpp:222] Top shape: 8 16 56 56 (401408)
I0720 18:16:35.448825 32827 net.cpp:228] Memory required for data: 1514861312
I0720 18:16:35.448833 32827 layer_factory.hpp:76] Creating layer feature448seg
I0720 18:16:35.448843 32827 net.cpp:144] Creating Layer feature448seg
I0720 18:16:35.448849 32827 net.cpp:488] feature448seg <- squeeze56seg
I0720 18:16:35.448856 32827 net.cpp:177] This layer is inheriting previous layer's sync mode: 1
I0720 18:16:35.448866 32827 net.cpp:462] feature448seg -> feature448seg
I0720 18:16:35.449304 32827 net.cpp:216] Setting up feature448seg
I0720 18:16:35.449316 32827 net.cpp:222] Top shape: 8 16 448 448 (25690112)
I0720 18:16:35.449321 32827 net.cpp:228] Memory required for data: 1617621760
I0720 18:16:35.449327 32827 layer_factory.hpp:76] Creating layer outputseg
I0720 18:16:35.449342 32827 net.cpp:144] Creating Layer outputseg
I0720 18:16:35.449348 32827 net.cpp:488] outputseg <- feature448seg
I0720 18:16:35.449355 32827 net.cpp:177] This layer is inheriting previous layer's sync mode: 1
I0720 18:16:35.449363 32827 net.cpp:462] outputseg -> outputseg
I0720 18:16:35.449652 32827 net.cpp:216] Setting up outputseg
I0720 18:16:35.449663 32827 net.cpp:222] Top shape: 8 6 448 448 (9633792)
I0720 18:16:35.449668 32827 net.cpp:228] Memory required for data: 1656156928
I0720 18:16:35.449676 32827 layer_factory.hpp:76] Creating layer balancecls
I0720 18:16:35.449700 32827 net.cpp:144] Creating Layer balancecls
I0720 18:16:35.449718 32827 net.cpp:488] balancecls <- outputcls
I0720 18:16:35.449726 32827 net.cpp:488] balancecls <- clslabel_slice_2_split_0
I0720 18:16:35.449733 32827 net.cpp:177] This layer is inheriting previous layer's sync mode: 1
I0720 18:16:35.449744 32827 net.cpp:462] balancecls -> balancecls
I0720 18:16:35.449761 32827 net.cpp:462] balancecls -> dummy
I0720 18:16:35.449822 32827 net.cpp:216] Setting up balancecls
I0720 18:16:35.449832 32827 net.cpp:222] Top shape: 8 2 448 448 (3211264)
I0720 18:16:35.449839 32827 net.cpp:222] Top shape: 8 1 448 448 (1605632)
I0720 18:16:35.449844 32827 net.cpp:228] Memory required for data: 1675424512
I0720 18:16:35.449849 32827 layer_factory.hpp:76] Creating layer expandlabel
I0720 18:16:35.449867 32827 net.cpp:144] Creating Layer expandlabel
I0720 18:16:35.449873 32827 net.cpp:488] expandlabel <- clslabel_slice_2_split_1
I0720 18:16:35.449880 32827 net.cpp:177] This layer is inheriting previous layer's sync mode: 1
I0720 18:16:35.449887 32827 net.cpp:462] expandlabel -> expandlabel
I0720 18:16:35.449900 32827 net.cpp:462] expandlabel -> mask
I0720 18:16:35.449959 32827 net.cpp:216] Setting up expandlabel
I0720 18:16:35.449968 32827 net.cpp:222] Top shape: 8 2 448 448 (3211264)
I0720 18:16:35.449975 32827 net.cpp:222] Top shape: 8 1 448 448 (1605632)
I0720 18:16:35.449980 32827 net.cpp:228] Memory required for data: 1694692096
I0720 18:16:35.449985 32827 layer_factory.hpp:76] Creating layer maskcls
I0720 18:16:35.449996 32827 net.cpp:144] Creating Layer maskcls
I0720 18:16:35.450001 32827 net.cpp:488] maskcls <- balancecls
I0720 18:16:35.450008 32827 net.cpp:488] maskcls <- mask
I0720 18:16:35.450014 32827 net.cpp:177] This layer is inheriting previous layer's sync mode: 1
I0720 18:16:35.450026 32827 net.cpp:462] maskcls -> maskcls
I0720 18:16:35.450065 32827 net.cpp:216] Setting up maskcls
I0720 18:16:35.450074 32827 net.cpp:222] Top shape: 8 2 448 448 (3211264)
I0720 18:16:35.450079 32827 net.cpp:228] Memory required for data: 1707537152
I0720 18:16:35.450084 32827 layer_factory.hpp:76] Creating layer losscls
I0720 18:16:35.450096 32827 net.cpp:144] Creating Layer losscls
I0720 18:16:35.450101 32827 net.cpp:488] losscls <- maskcls
I0720 18:16:35.450109 32827 net.cpp:488] losscls <- expandlabel
I0720 18:16:35.450114 32827 net.cpp:177] This layer is inheriting previous layer's sync mode: 1
…
I0720 18:16:35.450302 32827 net.cpp:216] Setting up silence
I0720 18:16:35.450307 32827 net.cpp:228] Memory required for data: 1707537156
I0720 18:16:35.450312 32827 layer_factory.hpp:76] Creating layer maskreg
I0720 18:16:35.450325 32827 net.cpp:144] Creating Layer maskreg
I0720 18:16:35.450330 32827 net.cpp:488] maskreg <- outputreg
I0720 18:16:35.450337 32827 net.cpp:488] maskreg <- regmask
I0720 18:16:35.450342 32827 net.cpp:177] This layer is inheriting previous layer's sync mode: 1
I0720 18:16:35.450348 32827 net.cpp:462] maskreg -> maskreg
I0720 18:16:35.450387 32827 net.cpp:216] Setting up maskreg
I0720 18:16:35.450397 32827 net.cpp:222] Top shape: 8 2 448 448 (3211264)
I0720 18:16:35.450400 32827 net.cpp:228] Memory required for data: 1720382212
I0720 18:16:35.450405 32827 layer_factory.hpp:76] Creating layer lossreg
I0720 18:16:35.450422 32827 net.cpp:144] Creating Layer lossreg
I0720 18:16:35.450428 32827 net.cpp:488] lossreg <- maskreg
I0720 18:16:35.450434 32827 net.cpp:488] lossreg <- reglabel
I0720 18:16:35.450439 32827 net.cpp:177] This layer is inheriting previous layer's sync mode: 1
I0720 18:16:35.450446 32827 net.cpp:462] lossreg -> lossreg
I0720 18:16:35.485492 32827 net.cpp:216] Setting up lossreg
I0720 18:16:35.485519 32827 net.cpp:222] Top shape: (1)
I0720 18:16:35.485525 32827 net.cpp:224]     with loss weight 1
I0720 18:16:35.485536 32827 net.cpp:228] Memory required for data: 1720382216
I0720 18:16:35.485543 32827 layer_factory.hpp:76] Creating layer balanceseg
I0720 18:16:35.485563 32827 net.cpp:144] Creating Layer balanceseg
I0720 18:16:35.485572 32827 net.cpp:488] balanceseg <- outputseg
I0720 18:16:35.485582 32827 net.cpp:488] balanceseg <- seglabel
I0720 18:16:35.485589 32827 net.cpp:177] This layer is inheriting previous layer's sync mode: 1
I0720 18:16:35.485599 32827 net.cpp:462] balanceseg -> balanceseg
I0720 18:16:35.485613 32827 net.cpp:462] balanceseg -> adjustseglabel
I0720 18:16:35.485698 32827 net.cpp:216] Setting up balanceseg
I0720 18:16:35.485718 32827 net.cpp:222] Top shape: 8 6 448 448 (9633792)
I0720 18:16:35.485725 32827 net.cpp:222] Top shape: 8 1 448 448 (1605632)
I0720 18:16:35.485730 32827 net.cpp:228] Memory required for data: 1765339912
I0720 18:16:35.485735 32827 layer_factory.hpp:76] Creating layer expandseglabel
I0720 18:16:35.485746 32827 net.cpp:144] Creating Layer expandseglabel
I0720 18:16:35.485752 32827 net.cpp:488] expandseglabel <- adjustseglabel
I0720 18:16:35.485759 32827 net.cpp:177] This layer is inheriting previous layer's sync mode: 1
I0720 18:16:35.485782 32827 net.cpp:462] expandseglabel -> expandseglabel
I0720 18:16:35.485793 32827 net.cpp:462] expandseglabel -> segmask
I0720 18:16:35.485852 32827 net.cpp:216] Setting up expandseglabel
I0720 18:16:35.485860 32827 net.cpp:222] Top shape: 8 6 448 448 (9633792)
I0720 18:16:35.485867 32827 net.cpp:222] Top shape: 8 1 448 448 (1605632)
I0720 18:16:35.485872 32827 net.cpp:228] Memory required for data: 1810297608
I0720 18:16:35.485877 32827 layer_factory.hpp:76] Creating layer maskoutputseg
I0720 18:16:35.485889 32827 net.cpp:144] Creating Layer maskoutputseg
I0720 18:16:35.485895 32827 net.cpp:488] maskoutputseg <- balanceseg
I0720 18:16:35.485903 32827 net.cpp:488] maskoutputseg <- segmask
I0720 18:16:35.485908 32827 net.cpp:177] This layer is inheriting previous layer's sync mode: 1
I0720 18:16:35.485915 32827 net.cpp:462] maskoutputseg -> maskoutputseg
I0720 18:16:35.485952 32827 net.cpp:216] Setting up maskoutputseg
I0720 18:16:35.485961 32827 net.cpp:222] Top shape: 8 6 448 448 (9633792)
I0720 18:16:35.485966 32827 net.cpp:228] Memory required for data: 1848832776
I0720 18:16:35.485971 32827 layer_factory.hpp:76] Creating layer lossseg
I0720 18:16:35.485985 32827 net.cpp:144] Creating Layer lossseg
I0720 18:16:35.485991 32827 net.cpp:488] lossseg <- maskoutputseg
I0720 18:16:35.485997 32827 net.cpp:488] lossseg <- expandseglabel
I0720 18:16:35.486003 32827 net.cpp:177] This layer is inheriting previous layer's sync mode: 1
…
